app/core/models/best_nn_model.pt (torch, 51125 bytes, 14 tensors)

fc1.weight f4 [128, 18]
000000 24 70 82 bd a6 fc 38 3c b2 3e 18 be e2 d5 a9 3d
       -0.063690454 0.011290705 -0.14867666 0.08292748
000010 1a 8b c0 3d 7e f1 dc bd c5 18 ae 3d 2d ba 4b 3e
       0.094015315 -0.107882485 0.08500818 0.19895239
000020 62 06 cd 3c ff f7 75 bc 71 f0 c3 3d be 71 56 be
       0.025027458 -0.01501274 0.09567345 -0.20941827
000030 f5 cb 9a 3d 82 6b 46 be d2 88 ec 3d 7f f8 5f bf
       0.07558433 -0.19376948 0.11549534 -0.8748855
000040 d8 8a 31 bd b5 56 18 3f 1f de 4e bd 37 22 15 bd
       -0.043345302 0.59507304 -0.0505048 -0.036409583
000050 0d 76 37 be c6 2e f9 3d 24 e0 83 3c c5 a6 5b 3d
       -0.17916127 0.121671245 0.01609809 0.05362584
000060 4b 69 da bd d9 34 f5 bd 56 1b f6 3d a0 b1 84 bd
       -0.10664614 -0.119729705 0.12016933 -0.06479192
000070 8a 2d 06 3e cc a0 b7 bd 49 22 59 3e 20 48 0b be
       0.1310331 -0.089662164 0.21204485 -0.13601732
000080 91 c9 9a 3d 93 9e fe be 1d de 82 be cd fd 2d 3f
       0.07557977 -0.49730358 -0.25560084 0.67965394
000090 a9 f8 43 3c a7 07 cb 3c 11 5b a2 3a 95 1e af 3d
       0.011961141 0.024783922 0.0012386759 0.08550755
0000a0 d2 f1 0c be 8d 41 45 bd 1f 6e 7b be 1b d2 2f bd
       -0.13764122 -0.048158217 -0.24553727 -0.04292498
0000b0 26 62 b4 3d f3 e6 e1 bd a9 67 a9 3d 4d 84 43 3e
       0.08807783 -0.11030378 0.08271725 0.19093437
0000c0 7c 40 55 3d 9f 91 19 be 11 55 6c 3e b1 e6 ca 3c
       0.05206345 -0.14996956 0.23079325 0.024768205
0000d0 06 31 72 bf ef 44 c8 3e 27 bc f7 bb 0e fb 7e 3c
       -0.94606054 0.39115092 -0.0075602713 0.015562786
0000e0 9b d7 0c be fc b6 d2 3a 1d 92 0b 3d 3f d3 21 3d
       -0.13754122 0.0016076262 0.03407489 0.0395081
0000f0 ab 23 ab 3c ca 07 20 3e cf da 08 3d 09 27 c3 bd
       0.020891031 0.15627971 0.033411797 -0.0952893
000100 34 40 02 3e 1a 2a f1 3d 11 18 46 3e 60 4c 0a be
       0.12719804 0.11775608 0.19345118 -0.13505697
000110 d5 b4 5b 3e a9 d6 12 bf f5 76 a2 3e ca 89 b0 3e
       0.214557 -0.57358795 0.31731382 0.34480125
000120 e9 b2 57 bc e9 99 06 3d ee 71 16 3e cf 64 d9 3d
       -0.013165214 0.032861624 0.14691898 0.10614931
000130 cc 93 84 3d 36 61 2f be 07 3f 3c 3c 5a 05 a7 bc
       0.064735025 -0.17126927 0.011489636 -0.020388294
000140 ba 36 fc 3c 72 9d 51 3d 14 c7 fa 3c ff 54 08 3e
       0.030787814 0.051175542 0.030612506 0.13313673
000150 d9 06 73 3e 49 cb 66 be 8e ad fa bd 08 58 b5 be
       0.23733081 -0.22538485 -0.12240134 -0.35418725
000160 a5 33 10 3f a9 69 99 be b5 8e ea bc 9c 95 d2 bc
       0.56328803 -0.29963425 -0.028632501 -0.025706105
000170 b5 0e 29 bc f6 94 61 bd ce 4d 75 3c 63 65 b2 bd
       -0.010318448 -0.0550737 0.014972163 -0.08710744
000180 56 c9 13 3e f7 55 c6 3d 2d 2c 4f 3e 16 29 4c be
       0.14432272 0.09684365 0.20231695 -0.19937548
000190 4b 23 cb bc 62 09 12 be d7 8e 8d 3c 38 e3 b4 3d
       -0.024797102 -0.14261392 0.017280025 0.08832401
0001a0 af 59 07 bc b0 53 81 bf 1e eb 9e 3e ed 0e 24 3e
       -0.008261128 -1.0103664 0.31038755 0.16021319
0001b0 be 44 fc 39 12 48 42 bd 20 46 65 3e 13 14 42 bd
       0.00048116402 -0.047432013 0.22390032 -0.047382426
0001c0 cc 45 68 3d 7e 36 79 bd 47 a2 ac bc cb 71 c9 3d
       0.05670719 -0.060842983 -0.021073474 0.098361574
0001d0 d1 35 fc bc 31 e6 95 3c 0b 70 11 be b8 54 36 3e
       -0.03078738 0.01829824 -0.14202897 0.17805755
0001e0 ac 78 20 be 61 2f bd 3b 78 f4 ab 3c 37 8a 3f bf
       -0.15671033 0.0057734703 0.020990595 -0.74820274
0001f0 a8 62 16 3f be cb 12 3e 03 3d 6a ba 18 04 5a 3b
       0.5874429 0.14335534 -0.0008935483 0.00332666
000200 4e 62 47 3e be 1e 5c 3d dd f6 64 3d 00 95 a1 be
       0.19471094 0.053740256 0.05589949 -0.3155899
000210 15 49 4e bb c7 70 f1 3d 91 cf 9a 3d 4a 98 ec bd
       -0.0031476666 0.11789089 0.075591214 -0.11552484
000220 25 55 3c be a5 79 1e be 39 a1 48 be 4a 8a 38 3e
       -0.18391855 -0.15476091 -0.19592752 0.18021503
000230 94 f8 5f 3e fd bd 42 bf 3c 24 dc 3e f3 88 01 3e
       0.21872169 -0.7607115 0.42996395 0.12649898
000240 2a 5d 0e 3d e8 ba f4 bc 7e df 15 3e ce 86 7c 3e
       0.034756817 -0.02987428 0.14636037 0.24660799
000250 75 e6 0f 3e f2 b0 64 bd 4d 72 e5 3d 41 29 31 be
       0.14052756 -0.05583281 0.11203442 -0.17300893
000260 29 f6 64 bc c2 0c aa bc 95 bd 20 3e d7 b8 38 be
       -0.013974705 -0.020758037 0.1569732 -0.18039261
000270 07 e3 99 bc 0f 25 50 be 2b 1c 13 3e cd 3c 29 bf
       -0.018785013 -0.20326637 0.14366214 -0.661084
000280 24 1d 98 3e 60 49 be 3d 61 55 5b 3c 14 b8 33 3d
       0.29709733 0.09291339 0.013387055 0.043876722
000290 45 3c e1 bc 9e 87 04 3e f4 25 7d bc dc 94 3c bd
       -0.027494559 0.12942359 -0.015450943 -0.0460404
0002a0 c1 6f a9 3c 3d 1d 83 bd 58 2d a6 3d 20 99 36 bc
       0.020683171 -0.06402061 0.081141174 -0.011144906
0002b0 80 db 09 3e a7 31 91 bc e7 00 f3 3d 7e ff 50 bd
       0.13462639 -0.017723871 0.118654065 -0.051024906
0002c0 fc e3 92 bd 9d 90 20 bf 55 43 d3 be 8e e4 2f 3f
       -0.07172391 -0.6272066 -0.41262308 0.6870812
0002d0 6e 15 03 bd ba 8b 90 bd 4d 77 53 be e8 c9 3f 3b
       -0.03200286 -0.07057901 -0.20650978 0.0029264633
0002e0 7e 2b 93 3d 47 04 3a bd 01 7e ef bc d9 4f 57 bc
       0.0718603 -0.045414235 -0.029234888 -0.013141596
0002f0 55 ef bc 3d 64 5c 58 bb ae a3 1a be aa fe bf 3d
       0.092253365 -0.0033014053 -0.15101501 0.09374745
000300 1d d2 de 3b 91 87 08 be b5 7c 33 3e fb 3d 5e bf
       0.00679995 -0.13332964 0.1752804 -0.86813325
000310 03 50 1d 3e e1 6d 16 3f d6 97 49 be a9 fc 53 3d
       0.15362553 0.5876141 -0.19686827 0.051754627
000320 6c 45 95 3d e7 e8 12 3e b7 09 af 3c 6e dd 02 be
       0.07288632 0.14346658 0.021366937 -0.12779781
000330 06 c3 31 be 80 f3 b2 bd 2c da 4d 3e 60 43 cf 3d
       -0.17359552 -0.0873785 0.20102757 0.10120273
000340 25 a6 dd bd ac 4a 82 3d 44 9d a5 bd 45 76 84 3e
       -0.10822705 0.06361899 -0.08086637 0.25871482
000350 f5 51 bf bd 90 f3 6f bd 8e 09 07 bf 6f b9 15 3f
       -0.09341804 -0.05858189 -0.52748954 0.58486074
000360 1b c0 a3 bc 14 11 06 bd 9d 67 d6 bc c6 7d 3f be
       -0.019989064 -0.03273113 -0.026172454 -0.18700323
000370 6d 52 43 3b ca 24 b6 3d 02 ae 78 3e a1 3e d0 3d
       0.0029803768 0.08893736 0.24285129 0.101681955
000380 bf 63 d4 bd fe 4f 93 bd 11 07 e1 bd 72 c1 0f be
       -0.103705876 -0.07192992 -0.10987676 -0.14038637
000390 59 3e 00 3e c2 2c fa bd 6a 80 ff bd 37 17 e6 3e
       0.12523784 -0.12215568 -0.12475665 0.44939587
0003a0 c2 34 51 bf 06 84 9d 3b 40 ee 14 be 6a 30 0e be
       -0.8172113 0.004806998 -0.1454401 -0.13885656
0003b0 cd bc f3 3d 2d 4f 37 3e be 5f 96 be 30 5e 86 bd
       0.11901245 0.17901297 -0.2936992 -0.065609336
0003c0 63 3c 70 bd 92 a7 92 3e dd 02 14 be c5 60 19 be
       -0.05865134 0.2864347 -0.14454217 -0.14978321
0003d0 e1 74 51 3d 95 ec 35 3e d0 2b dd 3d ed 73 0d 3e
       0.051136855 0.1776603 0.10799372 0.13813753
0003e0 40 ef f5 bd ee b0 16 be 7b 34 57 3e 4d 43 70 be
       -0.12008524 -0.14715931 0.21016113 -0.23463173
0003f0 59 f9 9b bc 31 1d 18 3d 01 17 9a bd eb a3 6b bd
       -0.019039797 0.037137214 -0.07523919 -0.05752937

fc1.bias f4 [128]
000000 c2 69 55 3e 5a f7 2b be 15 46 2d bd 9f eb 3c bd
       0.20841125 -0.16793576 -0.042303164 -0.046123143
000010 7c 69 f3 3d a8 ca 6c be 87 46 60 be ea 2b ef 3c
       0.11885354 -0.23124182 -0.21901904 0.029195745
000020 99 40 71 3e 3c 2d 0f be 25 25 05 bd 5a 55 ca bc
       0.23559798 -0.139821 -0.032506127 -0.024698902
000030 67 89 34 3e 6c 7a d9 bc 98 a4 21 3d cc d7 ca 3d
       0.1763054 -0.026547633 0.03946361 0.09904441
000040 56 1e 36 3e 4f c8 4d 3e f6 ee 42 bd 05 d8 f9 3c
       0.1778501 0.20095943 -0.047591172 0.030498514
000050 65 70 bd bd c0 dd c1 bb ea 66 8e 3d 42 e4 c3 bd
       -0.09249953 -0.0059163272 0.06953223 -0.09565021
000060 84 b1 73 3d 39 e9 85 3d 4f 90 52 3e 99 10 93 bd
       0.059495464 0.06538624 0.20562862 -0.071809
000070 c5 3a 50 3e eb 1e 8b 3d 09 1e ef bc 91 57 d4 bd
       0.20334919 0.067930065 -0.029189127 -0.103682645
000080 c3 93 b5 3d f3 f0 a3 3c 0f 5a 26 3e c2 7f 7e bb
       0.08866074 0.020012354 0.16245292 -0.0038833474
000090 47 ef ad 3d b9 00 29 be 90 24 07 be 50 ad b5 bd
       0.08492904 -0.16504182 -0.13197541 -0.08870947
0000a0 33 82 02 be b8 bf 59 3e 5b 58 67 3d 47 0d 56 be
       -0.1274498 0.21264541 0.056480747 -0.20903502
0000b0 aa fd 90 3d 40 7b 47 bd 67 fd b4 bd 5e 50 61 be
       0.070796326 -0.048701525 -0.08837395 -0.22003314
0000c0 36 d8 64 bd ea 59 4b bd 4b 9e 66 3e 91 aa 24 3e
       -0.055870257 -0.049646296 0.22521321 0.16080691
0000d0 31 41 d5 bd 07 bf 2c be a7 20 11 3e 47 4b 5d be
       -0.10412825 -0.16869746 0.14172612 -0.21610747
0000e0 96 2e 22 bc 2d ff 05 be 9b 5a 4c 3c f4 be bf bd
       -0.009898802 -0.13085623 0.012472774 -0.09362593
0000f0 79 2e 80 3d 49 d9 fb 3d 4f 14 93 3d 38 e0 1c 3e
       0.06258864 0.12297303 0.07181608 0.15319908
000100 b4 9b f7 bd c9 81 ee bd d5 99 1c 3e 02 c7 02 3e
       -0.12090245 -0.11645848 0.15293057 0.12771228
000110 71 a8 22 be 8c 4a 5c be ed be 2d be cf 19 8c 3d
       -0.15884568 -0.21512812 -0.16967364 0.0684086
000120 ee 9f 2a 3e a5 9b 7a bd 70 cd 2f bd 4d 65 b6 bd
       0.16662571 -0.06118359 -0.04292053 -0.0890604
000130 5b 50 6b 3e f8 fb da bc 86 15 64 be 21 8e 46 be
       0.22979872 -0.026731476 -0.22273836 -0.19390155
000140 80 fc e7 3c cb 74 b6 3d 4d 1d 30 be 6e 52 93 bc
       0.028318644 0.08908995 -0.17198677 -0.017983641
000150 5f 67 c5 bc 48 be 16 bd d1 df ac bd 74 7c ee 3d
       -0.024097143 -0.03680256 -0.08441127 0.11644831
000160 ee 14 8b bd 2c c2 56 3e e2 6a fd 3d 17 3f 96 bd
       -0.067911014 0.20972508 0.12373902 -0.07336252
000170 6c bb 96 3d da a3 a3 bc fc a5 df 3d 59 40 43 be
       0.07359967 -0.019975591 0.10920331 -0.19067515
000180 97 3e 73 3e 7e 9f 41 be d1 81 12 be f2 d2 15 be
       0.23754345 -0.18908498 -0.14307334 -0.1463125
000190 09 87 75 3d bd 39 fa bd 72 14 a8 bd f8 78 3b be
       0.059943233 -0.12218044 -0.08207025 -0.18307865
0001a0 37 ce 62 3d ed 13 a8 3d 63 a2 42 bd 1a 61 45 3e
       0.055372443 0.082069255 -0.047518145 0.19275323
0001b0 d7 3a 34 be bb 30 22 3e 6a 08 36 be 02 c6 48 3d
       -0.1760057 0.15838902 -0.17776647 0.04901696
0001c0 0c b3 30 3e 94 cc 04 be 70 1f 68 be a9 3b c6 3d
       0.17255801 -0.12968665 -0.22668242 0.09679348
0001d0 95 35 0a 3d 32 57 29 be ce 5d 82 3d ab be 19 be
       0.033742506 -0.16537169 0.06365548 -0.1501414
0001e0 2f dc bb 3c 36 b6 52 3e c0 f7 36 3e d7 77 4e 3e
       0.02293214 0.2057732 0.17867947 0.20162903
0001f0 7a 97 06 be 39 5a a4 bc 81 e3 1b 3b 7e ae a9 bd
       -0.13143721 -0.020062553 0.0023786726 -0.08285235

bn1.weight f4 [128]
000000 be 44 80 3f 7d 44 82 3f 14 58 8a 3f 7b 1f 61 3f
       1.0020978 1.0177151 1.0808129 0.8793866
000010 99 3d 7e 3f 89 0f 85 3f c8 b6 6d 3f 39 89 8b 3f
       0.9931274 1.0395366 0.9285703 1.0901252
000020 ae df 80 3f c7 96 82 3f b6 39 81 3f 57 f5 70 3f
       1.0068262 1.0202264 1.0095737 0.9412436
000030 e0 5a 7a 3f d2 ba 6a 3f 46 b4 81 3f e5 d9 90 3f
       0.97794914 0.91691315 1.013314 1.1316496
000040 4d ef 76 3f dc 3d 89 3f b2 b0 90 3f fb d4 8b 3f
       0.96458894 1.0722003 1.1303923 1.0924371
000050 99 22 61 3f 78 a7 6b 3f 89 79 90 3f be b7 7a 3f
       0.87943417 0.9205241 1.128709 0.9793662
000060 04 08 6e 3f 6a 76 66 3f f1 1e 6a 3f 33 4c 5c 3f
       0.9298098 0.90024436 0.9145346 0.8605377
000070 18 73 83 3f 97 ef 63 3f 57 11 70 3f 67 dd 80 3f
       1.0269499 0.8903746 0.9377646 1.0067567
000080 2f a4 89 3f 63 ed 62 3f df 6a 7c 3f 75 2f 7b 3f
       1.075323 0.88643473 0.9860057 0.9811929
000090 f6 78 54 3f db a5 68 3f 41 41 7d 3f 86 66 8f 3f
       0.8299707 0.90878075 0.98927695 1.1203163
0000a0 bc 4c 86 3f 83 74 4c 3f 55 b8 8f 3f 23 ec 57 3f
       1.0492167 0.7986528 1.1228129 0.8434469
0000b0 c1 47 55 3f 4a 4f 75 3f a8 97 69 3f f3 c7 70 3f
       0.8331261 0.9582411 0.91247034 0.940551
0000c0 0f 32 90 3f bb c1 7f 3f 36 2d 7c 3f 77 84 65 3f
       1.1265277 0.99904984 0.98506486 0.8965525
0000d0 e7 73 7a 3f 51 59 4d 3f 59 3a 7e 3f 9d 3c 6d 3f
       0.978331 0.8021441 0.9930778 0.92670614
0000e0 42 13 77 3f e6 82 89 3f 7d 83 5d 3f 6d 7b 4c 3f
       0.9651376 1.0743072 0.8652876 0.7987583
0000f0 64 a2 89 3f 8c e0 67 3f b1 65 65 3f a1 3d 8a 3f
       1.0752683 0.90577006 0.89608294 1.0800058
000100 40 4e 8e 3f 7d 62 80 3f 54 81 82 3f 94 bc 76 3f
       1.111763 1.0030056 1.0195718 0.963815
000110 7b 30 8f 3f dc a4 77 3f c3 b9 83 3f 56 9a 69 3f
       1.118667 0.9673593 1.0291065 0.9125112
000120 e5 31 61 3f 8f 0c 88 3f ab e0 66 3f cd 14 79 3f
       0.8796676 1.0628833 0.90186566 0.97297364
000130 9e b0 73 3f b4 ed 76 3f f3 86 86 3f 79 92 59 3f
       0.9519137 0.96456456 1.0509933 0.84989125
000140 cc 74 81 3f 9a 77 72 3f 5f e7 8b 3f 75 d3 69 3f
       1.0113769 0.9471375 1.0929984 0.9133828
000150 db c3 87 3f a9 16 82 3f 5d da 97 3f e3 e5 77 3f
       1.0606645 1.0163165 1.1863514 0.96835154
000160 ca 13 66 3f f2 70 83 3f 7a 02 7e 3f f2 8f 80 3f
       0.89873946 1.0268843 0.9922253 1.0043929
000170 1a 4c 8b 3f 2a 00 86 3f 1b 04 4a 3f 3c 96 74 3f
       1.0882599 1.04688 0.78912514 0.9554174
000180 73 91 87 3f 6f 90 8b 3f d3 33 54 3f 00 b2 91 3f
       1.0591263 1.0903453 0.8289158 1.1382446
000190 ec df 69 3f af 50 4f 3f a9 ed 5b 3f 28 a2 7b 3f
       0.913573 0.8098249 0.85909516 0.98294306
0001a0 aa 74 79 3f 39 c8 73 3f 68 46 64 3f 0d 7e 56 3f
       0.9744364 0.9522739 0.8916993 0.8378609
0001b0 a7 e9 6b 3f b9 29 8a 3f 82 c0 59 3f a1 86 81 3f
       0.921534 1.0793983 0.8505937 1.011921
0001c0 a8 27 89 3f aa 86 67 3f 6c 46 63 3f ae 1c 89 3f
       1.0715227 0.90439856 0.8877933 1.0711877
0001d0 f5 6c 79 3f 0f 28 83 3f 46 34 77 3f e7 3f 62 3f
       0.9743188 1.02466 0.9656414 0.8837876
0001e0 32 3b 5f 3f a0 89 82 3f c0 7b 6f 3f 23 bc 86 3f
       0.871997 1.019825 0.935482 1.0526165
0001f0 eb 57 6c 3f 8b 19 88 3f 30 25 85 3f b2 21 52 3f
       0.9232165 1.0632795 1.0401974 0.82082665

bn1.bias f4 [128]
000000 7e d2 ae be 08 7d 83 be 2c 0a 51 be b6 df c1 be
       -0.34144968 -0.2568133 -0.20414037 -0.3786599
000010 6a 51 fa bd 9c a6 92 be cb 45 9a be 65 f5 4d be
       -0.1222256 -0.28642738 -0.30131373 -0.20113142
000020 e3 f6 9d 3b 74 09 6e be a7 6e 93 be bf 63 4f be
       0.004820691 -0.23245794 -0.2879536 -0.20252894
000030 a9 9f 0c be 53 49 95 bd b7 b4 39 be 82 5d 99 be
       -0.1373278 -0.07289376 -0.18135343 -0.29954153
000040 af 0f 2e be 58 57 b3 be 9b 2b 6e be d0 c0 9e be
       -0.1699817 -0.35027575 -0.23258822 -0.3100648
000050 46 36 a3 be 2a 4e 1d be 8d 8c fa bb 09 1a c8 be
       -0.31877345 -0.15361848 -0.0076461495 -0.39082363
000060 04 58 96 be ee ba 2c be 3c 68 90 be f3 6e 18 be
       -0.29364026 -0.16868183 -0.28204525 -0.14886074
000070 6c db 88 bd 15 37 d8 be ce 58 83 be 7b ce a3 bc
       -0.066824764 -0.42229524 -0.2565369 -0.019995918
000080 2e 40 96 bd 03 2e bb be 44 3a 18 be 4e b4 24 be
       -0.0733646 -0.36558542 -0.14865977 -0.16084406
000090 42 7a 36 be e0 e9 8d bd 8b c5 68 bd 4a 7f 8d be
       -0.17820075 -0.06929374 -0.056829017 -0.27636176
0000a0 2a 2b 34 be a0 a1 8b be a9 3f 38 be 24 e4 f0 bd
       -0.17594591 -0.27271748 -0.17993034 -0.11762264
0000b0 5f 46 ca be e8 00 6e be f5 23 f1 bd 88 23 70 be
       -0.39506814 -0.23242533 -0.117744364 -0.23451054
0000c0 b2 f1 a3 be e7 8a 13 be 57 bd 6e be 6e 0d 92 be
       -0.32020336 -0.14408456 -0.23314415 -0.2852587
0000d0 eb 21 b3 be 91 26 95 be 3f f7 3d be 58 71 8e bd
       -0.34986815 -0.29130986 -0.18551348 -0.06955212
0000e0 f6 dd 92 be 0a 93 b9 be 77 ed 18 bc 0d 34 aa be
       -0.28684968 -0.36244994 -0.00933396 -0.33242837
0000f0 77 01 80 be fa 5c 2d bd 03 05 73 be 8e 10 00 bd
       -0.25001118 -0.042324997 -0.2373238 -0.031265788
000100 53 03 b8 3d f8 14 90 be 26 09 65 be 28 fe f7 be
       0.08985009 -0.28140998 -0.22366771 -0.48436093
000110 c7 d8 d1 bd f0 ac 55 be 1b ae 91 bd b3 06 b4 be
       -0.10246425 -0.20866752 -0.07113286 -0.3516136
000120 50 06 92 be 88 b4 61 be d6 0b 16 be 69 26 1d be
       -0.2852044 -0.22041523 -0.14652953 -0.15346684
000130 e4 dd 87 bd 93 ed a2 bd 83 b0 b1 be 05 6d c0 be
       -0.06634119 -0.0795547 -0.3470498 -0.37583175
000140 9e 07 0b be f5 3c 6d be f0 74 3e be 9e 90 6a be
       -0.13577124 -0.23167785 -0.18599296 -0.2290673
000150 f0 1d 94 be d0 59 80 be 1f 60 a3 be 33 3c b3 bd
       -0.2892909 -0.25068521 -0.31909272 -0.087517165
000160 61 99 d2 be 09 79 1a be 3a 04 7d be cf 74 84 bd
       -0.41132644 -0.15085234 -0.24708644 -0.06467592
000170 c1 21 3c be 38 18 7c be 77 41 23 be e8 9d 87 be
       -0.18372251 -0.24618614 -0.15942942 -0.2648766
000180 74 ed af be f4 a5 32 be d7 0f c0 be 3f 66 a5 3c
       -0.3436085 -0.17446119 -0.37512085 0.020190356
000190 25 05 a2 be bf 69 89 be 3e 69 51 be 6d ae 64 be
       -0.3164455 -0.2683849 -0.20450303 -0.22332163
0001a0 f9 e7 3b be 68 d3 8d be 05 11 7d be 9f bf a4 bd
       -0.1835021 -0.27700353 -0.24713524 -0.08044361
0001b0 84 cb 4c be df 76 f1 3c 1b 65 a2 be 0c 8a 6a be
       -0.1999951 0.029475627 -0.31717762 -0.22904223
0001c0 e0 a6 89 be d8 b0 2e be 8f ba 1a be c6 b5 70 be
       -0.26885128 -0.17059648 -0.15110229 -0.23506841
0001d0 bd 6d 25 be 56 c5 4f be 01 d3 05 be 43 b9 ac bd
       -0.16155143 -0.20290121 -0.13068773 -0.08433773
0001e0 08 d6 8c be 4a af 2b be 04 d8 ca be 41 73 9b be
       -0.27507043 -0.16766086 -0.39617932 -0.3036137
0001f0 d6 24 6f be 49 f4 86 bd aa 9a 20 be d9 30 bc bd
       -0.23353896 -0.065895624 -0.15684 -0.091890045

bn1.running_mean f4 [128]
000000 6b 2a 28 3e c0 a2 1a be 83 35 45 be 99 d6 3c 3e
       0.16422431 -0.15101147 -0.19258694 0.18441238
000010 21 4f 35 3d 2b 50 be be 2e b6 88 be 10 29 d5 bd
       0.044264916 -0.37170538 -0.26701492 -0.10408223
000020 f8 e7 5a 3d ec 6c 71 be cc 66 d2 bc 60 86 85 bd
       0.05344388 -0.23576707 -0.025683783 -0.065197706
000030 15 74 36 3d 58 18 30 bd 08 38 02 3e 81 b4 76 bd
       0.0445443 -0.042991966 0.12716687 -0.060230736
000040 1b 45 b0 3e 92 10 85 3c 87 39 92 bd e1 2e ab bd
       0.34427723 0.016243253 -0.07139879 -0.08358551
000050 0e 99 94 bc 4c 88 67 bd cf 79 39 3e 22 9c 86 be
       -0.018139388 -0.056526467 0.18112873 -0.26290995
000060 7b 12 38 bd af 79 5a 3d 7e 34 21 3e 01 13 25 be
       -0.0449395 0.053338703 0.1574268 -0.1612053
000070 0a 19 91 3e 78 a1 82 bd 34 d5 12 be 29 3f 2f bd
       0.28339416 -0.06378454 -0.14339143 -0.042784844
000080 9f 6d d0 bd 5a f0 4f be f4 9a 5f 3e 04 8b 13 3e
       -0.101771586 -0.2030653 0.21836454 0.14408499
000090 33 1e f4 bd b0 30 80 be 17 fe 26 be a1 1d 1e be
       -0.119198225 -0.25037146 -0.16307865 -0.1544099
0000a0 4e f4 99 be 63 3a d9 bd 0a 7d 25 b8 6a 7a 83 be
       -0.30069202 -0.106068395 -3.9455517e-05 -0.25679332
0000b0 9e 9e 58 3d 28 e9 6c be e9 a3 43 be 31 f7 ac bc
       0.052885644 -0.23135817 -0.19105496 -0.021113964
0000c0 5a ac 31 be d8 ec 44 be 87 2f 54 3e 61 5c 02 3e
       -0.17350903 -0.19230974 0.20721255 0.12730552
0000d0 fa 84 bd bd 92 d2 39 bd 36 c1 ff bc e8 f3 2e be
       -0.09253879 -0.04536683 -0.03122006 -0.1708523
0000e0 d3 68 0d bd 1b a2 b2 bd 5a 0f 31 bd 6f d4 bc be
       -0.034523796 -0.087223254 -0.04322753 -0.36880824
0000f0 d7 70 51 bd 28 a6 ed 3d 5a 41 fc 3d d1 68 8b 3e
       -0.051133003 0.116039574 0.12317152 0.27228406
000100 11 04 3a bc f4 57 d6 bb 81 7d 72 3e 3c b8 2b 3e
       -0.011353509 -0.0065412465 0.23680688 0.16769499
000110 71 d3 8b be f0 ed ab 3d 89 62 b4 3b a0 4f c9 3c
       -0.27309754 0.08394992 0.0055049104 0.024574101
000120 bc 4f a4 3e 1b 7d e2 bd a2 d8 51 bd ae 47 db bd
       0.32092083 -0.11059018 -0.051231988 -0.10707031
000130 ec cf 88 3e e7 f8 d2 bc 0f e4 e4 be 35 58 16 be
       0.26721132 -0.025753452 -0.44705245 -0.14682086
000140 a6 5f 0a be ed b4 99 3c 2e c8 65 be e6 4c b9 be
       -0.1351305 0.01876303 -0.22439644 -0.3619148
000150 31 90 38 be 90 33 3d bd 47 fa 4b be c5 66 50 3d
       -0.18023755 -0.046191752 -0.19919692 0.05087926
000160 42 34 3b 3d 83 b3 6d 3e a2 e0 aa 3c f2 97 85 be
       0.045704134 0.2321301 0.020859066 -0.26092488
000170 4b 5d a7 3d 6e f1 03 be af 29 15 be 9f 46 53 be
       0.08172091 -0.12885067 -0.14566682 -0.20632409
000180 73 76 f3 3d 7d 9c b1 be fb 87 08 be 52 28 e0 bc
       0.11887827 -0.34689704 -0.13333122 -0.027362976
000190 25 b4 e5 3d 6d f1 c5 be 45 0f aa bd b6 4a 5b be
       0.112160005 -0.38660756 -0.08303694 -0.21415219
0001a0 d9 5f 86 3e 31 f0 d1 3c b0 f4 4d be 0e 24 3b 3d
       0.26245 0.025627228 -0.20112872 0.04568868
0001b0 c7 1e ce bd 57 a6 98 3e 08 05 26 be b8 3c f6 3b
       -0.10064464 0.29814407 -0.16212857 0.0075145625
0001c0 28 ea 06 3e 42 61 b0 be 86 ee 74 be 1a 6a 61 bd
       0.13175261 -0.34449202 -0.23919114 -0.055032827
0001d0 f7 bc 1d bd 39 f5 1d be 44 b4 9d bc f8 0b 1d be
       -0.03851029 -0.15425576 -0.019250996 -0.15336597
0001e0 12 b6 b2 be a5 60 cc 3e df cf 86 3c 9e c6 77 3e
       -0.34904534 0.39917484 0.016456543 0.2419686
0001f0 b8 e3 23 be ff fe 84 3d d3 95 11 3e 7f 60 b7 3d
       -0.16004837 0.06493949 0.1421731 0.08953952

bn1.running_var f4 [128]
000000 68 74 bf 3e 70 ce 68 3e 84 37 4a 3e 8f 5b 88 3f
       0.37393498 0.22735 0.1974774 1.0652941
000010 b6 20 5e 3e fc 62 c7 3e 46 e2 6b 3e b2 c9 30 3e
       0.21692166 0.38942707 0.23035535 0.1726444
000020 dd c3 91 3e cc 81 88 3e 4d be ec 3e a6 b3 b7 3e
       0.28469744 0.26661527 0.46238938 0.35879248
000030 50 53 0c 3f cd bc 38 3f 08 9f 1f 3e d4 bc e9 3e
       0.54814625 0.7216309 0.1558801 0.45651877
000040 08 2b 18 3f b4 ee 16 3f 5a d6 b2 3e c4 73 80 3e
       0.5944066 0.5895798 0.34929162 0.25088322
000050 79 fa 83 3f af 4f 59 3e cc 32 fa 3d 7f 7d 8c 3e
       1.0310813 0.21221803 0.1221672 0.27439496
000060 99 b3 96 3e fe 26 f2 3e 9c 8a e2 3e 2b e0 a6 3e
       0.29433897 0.47295374 0.44246376 0.32592902
000070 51 c6 0c 3e 23 cd 90 3e 24 0c 56 3e 8b 36 09 3e
       0.13747527 0.28281507 0.20903069 0.13399713
000080 11 35 a8 3e d1 1e c1 3e 80 62 bc 3d 6d 9b c5 3d
       0.32852986 0.37718824 0.09198475 0.09648786
000090 2b dd e1 3d fc 08 8f 3e 5e ae 24 3e 70 02 13 3e
       0.110285126 0.27936542 0.16082141 0.14356399
0000a0 45 c7 f9 3e d0 42 ad 3f ef aa bd 3e b6 0e 9e 3e
       0.48784843 1.3536015 0.37044474 0.308706
0000b0 0f 1b a7 3e 8d c9 80 3e ac 53 17 3f 41 15 d3 3f
       0.32637832 0.2515377 0.5911205 1.6490861
0000c0 4c f0 e9 3e f8 1e 0d 3e 9f 62 86 3e 8b 98 ad 3e
       0.45691144 0.13781345 0.26247117 0.33905444
0000d0 6f 98 00 3e c0 da bc 3e 1d 50 b7 3e 3f 75 2e 3e
       0.12558149 0.36885643 0.3580331 0.17036913
0000e0 2c 93 98 3e d9 9e c4 3e bd c9 de 3d 0b d3 e3 3e
       0.29799783 0.3840244 0.10878322 0.4449695
0000f0 d0 e0 96 3e 60 1c d2 3e 95 77 34 3e c1 23 0f 3e
       0.29468393 0.41037273 0.17623742 0.13978483
000100 08 1e 97 3d 04 62 5f 3e ab 2b 57 3e 16 c9 36 3e
       0.07378775 0.21814734 0.21012752 0.17850146
000110 04 a5 a2 3e 4a e8 90 3f e2 cb e4 3e 5c 3d de 3e
       0.31766522 1.1320889 0.446868 0.43406188
000120 44 37 0d 3f b5 19 cc 3e 42 c7 d8 3e f1 b1 8b 3e
       0.55162454 0.39863363 0.42339522 0.27284196
000130 ba da be 3e 94 dd 5d 3e 08 48 0c 3f 41 d5 2e 3f
       0.3727625 0.21666557 0.5479741 0.6829415
000140 6e 5e 5d 3e be 6b 43 3e 72 92 5e 3e e1 6c 92 3f
       0.21618053 0.19084069 0.21735552 1.1439477
000150 71 e5 e7 3e 04 47 58 3e f7 bd 32 3f 82 32 a8 3d
       0.45292237 0.2112084 0.69821113 0.082127586
000160 b3 61 22 3f 56 a7 46 3e c8 b0 72 3e cf 2c a0 3d
       0.6343033 0.19399771 0.23700249 0.078210466
000170 75 81 f2 3d 31 ec c7 3e d7 a8 2d 3f a4 20 b3 3e
       0.11841098 0.39047387 0.67835754 0.3498584
000180 78 29 d4 3e 79 47 ad 3e 9a e6 5b 3e 99 35 e9 3d
       0.41437888 0.33843592 0.21474686 0.11387176
000190 d6 7b 0c 3e d5 0d af 3f 76 56 d9 3e 99 5c 92 3e
       0.13719115 1.3676096 0.42448777 0.2858627
0001a0 fb 09 81 3e 8c 7a 29 3e 91 f6 5c 3e 7d 5a 20 3f
       0.25202927 0.16550654 0.21578433 0.62638074
0001b0 4d a6 59 3f c4 bb 21 3f 0f 31 6a 3e 38 e2 55 3e
       0.8501938 0.6317713 0.22870277 0.20887077
0001c0 20 2b c6 3e 6c 17 40 3f 98 0f e2 3e 8c ec d4 3e
       0.38704777 0.7503574 0.44152522 0.4158672
0001d0 78 90 5b 3e b3 3c a7 3d e8 96 99 3d aa de aa 3e
       0.21441829 0.08165874 0.07499486 0.33373004
0001e0 e8 42 2f 3f b8 42 0b 3e 92 bc ba 3e 16 61 c0 3e
       0.68461466 0.1359967 0.36471993 0.3757407
0001f0 3d a3 2c 3f 19 b7 94 3e b8 ab cf 3f 54 66 9e 3f
       0.6743658 0.29045942 1.6224279 1.2374978

fc2.weight f4 [64, 128]
000000 27 3e ce 3d d3 47 01 bd 17 dc 08 bd 52 92 c0 3d
       0.10070448 -0.031562638 -0.03341302 0.094029084
000010 ea 06 d2 bd 85 99 6e 3e 51 e5 4f 3e be ce 22 3e
       -0.10255225 0.2330075 0.20302321 0.15899178
000020 dc 74 2b 3e 41 bb e8 bd 80 19 73 3e 0e 24 32 bd
       0.16743797 -0.11363841 0.23740196 -0.043491416
000030 db ce da bd 5a e1 0d bd a7 b7 77 bb 6e 7a f7 3d
       -0.10683986 -0.03463874 -0.0037798674 0.120838985
000040 4e 60 1a 3e 93 9d 1e 3e 72 fb 75 bd ef 1d d6 bd
       0.150758 0.15489797 -0.06005425 -0.10454928
000050 62 79 a3 3d 2b 50 44 3e 6f 98 88 3d 18 67 26 bc
       0.07982136 0.19171207 0.066696994 -0.010156415
000060 03 4c 07 3d 1f a4 3d be c5 d4 20 3e a3 f6 a3 3d
       0.033031475 -0.18519638 0.15706165 0.080060266
000070 ff 81 ba 39 a3 61 8a 3d ec 4c fe bc 13 ab bd 3c
       0.0003557354 0.06756904 -0.031042539 0.023152864
000080 5b cf 38 3e ca 82 e9 3c 9c 79 19 bd db f2 35 3d
       0.1804785 0.028504748 -0.03746949 0.04442106
000090 f4 b2 01 3e 3e 3e 0a bd a1 65 d3 3d 81 24 05 be
       0.12665921 -0.033750765 0.103221186 -0.13002206
0000a0 35 3e a2 bd 11 d9 8a bd 67 9f 17 3e 75 82 b4 bc
       -0.07922021 -0.067796834 0.14806901 -0.022034863
0000b0 80 5f 5a 3d c4 64 37 bd 8b b0 f7 bd 7a 2b 10 3e
       0.053313732 -0.044773832 -0.1209422 0.14079085
0000c0 35 37 50 3e 3f 70 a7 bd 1c 06 06 bd fc 23 0b 3e
       0.2033356 -0.08175706 -0.03272067 0.13587946
0000d0 56 73 25 bd 02 1a 99 3d cf 6c 44 3e 35 52 d3 3d
       -0.040393196 0.07475664 0.19182132 0.10318414
0000e0 89 d0 01 3d 47 ae 5f 3e ce d5 80 bc 2e ef 81 bd
       0.031693015 0.21843825 -0.01572695 -0.06344448
0000f0 c8 5c d1 bd 63 13 bd bd c0 01 ce 3d 1a 96 13 3e
       -0.10222775 -0.09232213 0.100589275 0.14412728
000100 ed 17 ba 3d 61 41 b6 3d 4c 25 41 bd 29 4b 00 be
       0.09086595 0.08899189 -0.04715471 -0.12528671
000110 06 cd 70 be 96 ea bc 3d a2 72 0f 3e c8 86 3d bd
       -0.2351571 0.09224431 0.14008573 -0.046271116
000120 1d d0 ad 3d a5 a0 36 3e ff 74 7f 3d 2a 4b d5 bd
       0.0848696 0.17834719 0.062367436 -0.10414727
000130 9e 0b 9b 3d a7 f8 3a 3c ad f2 1a be ef 7d c4 3d
       0.07570575 0.011411822 -0.15131636 0.095943324
000140 79 07 4d bd 9f 8c bf bd 45 38 11 be 43 16 17 be
       -0.050055955 -0.09352993 -0.14181621 -0.14754586
000150 39 9a 2d 3e 52 b5 67 bd 6d f0 91 3e 58 34 74 bc
       0.16953363 -0.056569405 0.28503743 -0.014905058
000160 68 3a ae 3d de 40 12 3c 17 e2 79 3d dd d5 e6 bd
       0.08507234 0.008926598 0.06100663 -0.1127126
000170 fa c3 a1 bd 51 14 04 3e 56 d6 8a 3b ee 0c 89 3d
       -0.07898708 0.12898375 0.0042369766 0.06691919
000180 52 c1 e4 bd 11 9a d7 3d bc 88 0e 3e 0d 82 e4 3d
       -0.111696854 0.10527433 0.13919348 0.11157618
000190 bf c9 1f bd 5c bc 3c be 2b b1 02 3c 5e 9c c2 ba
       -0.03901076 -0.18431228 0.00797681 -0.0014847626
0001a0 59 3e d0 3c 4c 1e 27 bd fc 8a 91 3d 25 a9 2d 3e
       0.025420355 -0.040800378 0.07106587 0.16959055
0001b0 30 c0 75 3c 50 9c 75 3c 52 08 ca bc ae 94 05 3e
       0.014999434 0.014990881 -0.02466217 0.13044998
0001c0 73 82 2c 3e f4 92 a1 bd 28 3b 5f bd af da d1 3d
       0.16846637 -0.07889357 -0.054499775 0.10246789
0001d0 0b 74 73 3d 48 1f 1f 3e 94 ff d8 3c ef 81 7e bd
       0.05943684 0.15539277 0.026489057 -0.062135633
0001e0 11 31 28 3e cd 67 3b be ea 70 64 3e a2 b6 19 be
       0.16424967 -0.18301316 0.22308698 -0.15011075
0001f0 f8 4e 8d bc 28 94 e4 3d 4b c6 37 3e 27 55 f4 bc
       -0.01724957 0.11161071 0.17946737 -0.02982576
000200 82 dc cf 39 a9 2c b3 3b bd fb 2e 3d 66 f5 5c be
       0.00039646408 0.0054679704 0.042720545 -0.21577987
000210 d7 7f 89 bb 2f 88 db 3d c1 85 a1 3d af 27 78 3d
       -0.004196148 0.10719334 0.0788684 0.06058472
000220 4d 97 3b 3d ae d6 68 bd 64 ac 70 3e 37 89 d2 bc
       0.04579859 -0.05684536 0.23503262 -0.025700195
000230 c8 ce 45 be bf 29 c5 bd 24 4c bc bd 96 59 2e 3e
       -0.19317162 -0.09627103 -0.0919421 0.17026362
000240 4f 59 15 be 13 04 8c 3d c0 74 e6 bd d7 ad 5a bd
       -0.1458485 0.068367146 -0.11252737 -0.053388443
000250 a5 6a c1 bc 00 a0 65 bd b9 e1 9d be 6b da a8 bd
       -0.023610422 -0.05606079 -0.30836275 -0.08244785
000260 2f df ac 3d 04 be 49 bd f3 95 53 3c d5 ec 6c bd
       0.084410064 -0.04925348 0.012914169 -0.057843048
000270 97 e0 0d be 26 9f 42 3e b9 6a d3 bd b2 a4 07 be
       -0.13855205 0.19006023 -0.1032309 -0.1324642
000280 83 fe 24 3d fb 0d cb 3d c9 b2 ed bd 72 85 f2 bd
       0.040281784 0.09914776 -0.11606366 -0.11841859
000290 e7 86 a8 3d 66 25 c0 bc 2f 57 ff bd 32 1f 8d bc
       0.082288556 -0.023455333 -0.12467801 -0.01722679
0002a0 36 27 c6 bc da 8f 36 3c e1 4f 2d 3e 7c 7d 2d be
       -0.02418862 0.011142695 0.16925003 -0.169424
0002b0 18 6e 57 ba 42 78 6c 3d b4 44 57 3c c3 dc 38 be
       -0.00082180044 0.057731874 0.013138939 -0.18052964
0002c0 16 95 63 3e e7 e1 31 3c ff c5 76 bd f9 fc 2b 3e
       0.2222484 0.010857082 -0.060247418 0.1679572
0002d0 93 1f 1b 3e 18 32 d9 bd 93 b6 54 3e d4 71 46 bd
       0.15148763 -0.10605258 0.20772772 -0.0484484
0002e0 1b eb 24 3c ae c6 2b 3e 4d c4 ca 3d 23 11 18 bd
       0.010065819 0.16775009 0.09900723 -0.037125718
0002f0 22 36 fb bd b3 be 4e 3d 52 7d fa bd ba 68 74 be
       -0.122661844 0.050474834 -0.12230934 -0.23868075
000300 e8 19 06 be ee 25 2f bd 65 f2 ea bd 78 8a de bd
       -0.1309582 -0.042760782 -0.11472014 -0.108662546
000310 fb b2 b5 bc 31 e9 16 bc 1f 9c bd bd e3 72 83 bc
       -0.022180071 -0.009210871 -0.09258293 -0.016045993
000320 0b 99 d0 bd ed fd b7 3d 93 56 96 bd 68 02 38 3d
       -0.10185441 0.089839794 -0.073407315 0.04492417
000330 26 a0 d5 bd 5a 38 4a 3d 55 f9 ab bd 66 15 73 3e
       -0.104309365 0.049370147 -0.08397166 0.23738632
000340 a7 6a 08 be 03 53 8f 3c 82 f1 e2 3c f3 f8 de 3d
       -0.13321935 0.017495638 0.02770305 0.10887327
000350 8c ab bd 3d 07 65 a2 bd eb 39 3f 3e 9c 7b 73 bd
       0.092612356 -0.07929426 0.18674438 -0.059444055
000360 42 f3 61 bd f6 ae db bb cc be 30 3e fb 16 42 3a
       -0.05516363 -0.0067042066 0.17260283 0.0007403937
000370 de 1d df bc ca 66 c1 3b cd 6a 92 bd be 44 20 3d
       -0.027235921 0.005902146 -0.07149277 0.039128058
000380 12 41 1d be ed 63 0d 3e d4 7a 2a 3e 4c cc 5e be
       -0.15356854 0.1380765 0.16648418 -0.2175762
000390 77 03 36 be 56 91 66 3d 06 b3 24 ba fb 8d 1e bd
       -0.17774759 0.056290947 -0.000628278 -0.038709622
0003a0 c8 58 19 be 88 e3 2b be 4f 4e d4 bd d2 85 d7 3c
       -0.14975274 -0.16786015 -0.10366499 0.026308928
0003b0 4a 51 84 bd 3b e8 e5 bd b8 9b 83 3d 11 8b 17 3e
       -0.06460817 -0.11225935 0.06426185 0.14799143
0003c0 5e ae 65 3e 2a 4c 54 3d e6 f2 12 3d 6b 7a 06 3e
       0.22429797 0.05183045 0.035876177 0.13132636
0003d0 cd 49 9f 3d 48 c8 fc 3d fa 3c e2 3d 10 d9 3a be
       0.07777748 0.12342888 0.110467866 -0.18246865
0003e0 ab 9d 1b bd 00 4b 2f bd d5 8d b3 bd dd 16 41 bb
       -0.03799216 -0.042796135 -0.08767287 -0.002946309
0003f0 2b 51 2d 3c f0 f9 07 3d bc 26 b1 3d 2f f8 3e be
       0.010578434 0.033197343 0.08649966 -0.18649362

fc2.bias f4 [64]
000000 bd b3 5e bc db f8 4d 3d 33 46 8b bd 7d b0 20 bc
       -0.013592658 0.050286155 -0.06800499 -0.009807703
000010 4c 7d b4 3d 0e 45 ad 3d 10 d8 c9 bc d7 e7 af 3d
       0.08812961 0.08460437 -0.02463916 0.08589142
000020 f1 6b 66 3d be 88 2b 3c e0 57 02 bd a7 ca af 3d
       0.056255285 0.010469614 -0.031822085 0.08583575
000030 56 81 a8 bc 39 0a 5e bc ea 54 81 3d 47 d0 94 3d
       -0.020569485 -0.013552242 0.06315024 0.07266288
000040 61 68 a6 3d 05 7a 82 3d 8a 37 93 3d ca bb c8 3c
       0.081253774 0.0637093 0.071883276 0.024503607
000050 5c 7f 6a bd b8 9d 92 3d 90 68 6e 3d 71 0a 04 bd
       -0.057250366 0.07158989 0.058205187 -0.03223652
000060 b7 bc ca 3c 26 14 8d bd 7d 01 42 3a 59 9e b6 3d
       0.02474819 -0.06888609 0.00074007345 0.08916921
000070 63 de ae 3d b8 8a ac 3d 9b cd 78 bd ce 25 08 bc
       0.08538511 0.08424896 -0.060742956 -0.008309795
000080 8a 09 a6 bd f7 ab fb bc 1f a0 b2 3d 58 1c 00 bd
       -0.08107288 -0.030721648 0.08721947 -0.03127703
000090 25 12 22 3d 5a 84 bb 3b f6 bb 4b 3d 0d da aa bd
       0.039568085 0.0057225646 0.0497398 -0.08342371
0000a0 c5 38 b0 3d c0 02 7a 3d 8f 87 97 3d 89 1e 0a 3d
       0.08604578 0.06103778 0.073989026 0.033720527
0000b0 28 82 a0 bb 25 9c 91 bd 32 c6 99 3d 9b 51 21 3d
       -0.0048983283 -0.0710986 0.07508506 0.039384466
0000c0 1c ac a5 3d 6c f0 1d 3d 11 76 91 bd 98 af 33 3d
       0.08089468 0.038559362 -0.071025975 0.04386863
0000d0 4f fa 89 bd 7b d9 74 3b 66 1f 46 bd 06 50 a9 3d
       -0.06737196 0.0037361074 -0.048369788 0.082672164
0000e0 6e 0a 03 3d 07 e8 45 bd 51 3b 1b 3d d6 75 56 3b
       0.03199237 -0.04831698 0.037898365 0.0032724044
0000f0 4f f4 2b 3d 32 21 8e 3d 1a eb a3 3d c8 e9 39 3d
       0.041981038 0.06939925 0.080038264 0.045388967

bn2.weight f4 [64]
000000 28 6d 9e 3f 1b 62 96 3f 4b 49 a0 3f a1 4b 9e 3f
       1.2377062 1.174869 1.2522367 1.236683
000010 cc 98 9e 3f ca 6c 95 3f 4e dd 9d 3f 9b 11 9e 3f
       1.239038 1.1673825 1.2333162 1.2349123
000020 45 84 97 3f 33 90 94 3f ee d6 8b 3f dd 1a 93 3f
       1.183724 1.1606506 1.0924966 1.1492573
000030 23 13 8d 3f c0 4b 95 3f 3e 66 96 3f 9b ba 8b 3f
       1.1021465 1.1663742 1.1749952 1.0916322
000040 0b 0a 8f 3f 07 a4 98 3f 81 90 93 3f dc e4 8a 3f
       1.117494 1.1925057 1.1528474 1.0851092
000050 c7 a1 a5 3f 86 e8 96 3f 79 ad 87 3f 39 3d a1 3f
       1.2939996 1.178971 1.0599815 1.2596809
000060 4c 1e 8e 3f ae 09 9d 3f 64 6a 8f 3f fe e4 8e 3f
       1.1102996 1.2268579 1.1204343 1.1163633
000070 c6 e9 94 3f 46 73 a9 3f e0 d9 a3 3f 13 5e 95 3f
       1.1633842 1.3238304 1.2800865 1.1669334
000080 af 83 92 3f 74 5f 97 3f 5a 92 94 3f ab f5 89 3f
       1.1446437 1.1826005 1.1607163 1.0778097
000090 c3 c6 9f 3f 24 bc 9f 3f 4a 09 77 3f df 0b b5 3f
       1.2482532 1.2479291 0.9649855 1.4144248
0000a0 a0 2e 94 3f 1a 54 89 3f 17 03 98 3f 97 ab 89 3f
       1.1576729 1.0728791 1.1875943 1.075549
0000b0 5e 45 90 3f 8b e3 9f 3f 08 c3 a1 3f 6d 84 8f 3f
       1.1271169 1.2491316 1.2637644 1.1212288
0000c0 7e 88 a6 3f 73 a7 98 3f 17 dd b0 3f b3 a9 90 3f
       1.3010404 1.1926101 1.3817471 1.1301788
0000d0 ae cc a4 3f a1 e8 8a 3f 63 a8 85 3f 60 f8 85 3f
       1.2874963 1.0852243 1.0442013 1.0466423
0000e0 49 d6 9a 3f 81 9e 9b 3f 6c ae 7c 3f c5 32 96 3f
       1.2096645 1.2157747 0.98703647 1.1734244
0000f0 3a cd 86 3f ee 24 a3 3f 11 fa 9c 3f b1 fd 97 3f
       1.053138 1.2745645 1.2263814 1.1874295

bn2.bias f4 [64]
000000 aa 2f da 3d 9f f5 fb 3d 60 02 86 3e 45 29 e9 3d
       0.106536224 0.12302708 0.26173687 0.11384825
000010 7e 0c 6a 3e bd 83 1c 3e 8b 10 5c 3e cb 3a 87 3e
       0.22856328 0.15284629 0.21490686 0.26412043
000020 a7 fa 7d 3e ab 68 43 3e d9 9c 0b 3e 4d 79 60 3e
       0.24802648 0.19082896 0.13634051 0.21921273
000030 8b bc 2e 3e 25 96 4d 3e 07 cf 7b 3e 47 6b 17 3e
       0.17064111 0.20076807 0.24590693 0.14787017
000040 bb 4d 5f 3e ad 06 41 3e ad 09 26 3e 28 bb 08 3e
       0.21806996 0.18850203 0.16214629 0.13352644
000050 2d 11 91 3e 63 40 5b 3e 1f 6d 62 3e 2d dc 84 3e
       0.28333417 0.2141128 0.22111939 0.2594923
000060 cc 21 5f 3e dc 9d 94 3e 7e dc 0f 3e b2 fb 45 3e
       0.21790236 0.29026687 0.14048955 0.19334295
000070 cb 81 44 3e 54 40 92 3e c6 e3 61 3e 7d ac e0 3d
       0.19190137 0.28564703 0.22059545 0.109703995
000080 cf 0f 66 3d 93 e2 5a 3e 3e fa f0 3d 89 33 48 3e
       0.05616742 0.21375494 0.1176648 0.19550909
000090 b9 fa 86 3e 5c 8f 8a 3e 3b 0c 1b 3e e0 6b 9e 3e
       0.2636316 0.270625 0.15141384 0.30941677
0000a0 f8 d7 49 3e fd 42 52 3e 8b df 27 3e 81 99 0e 3e
       0.19711292 0.20533367 0.16393869 0.13925745
0000b0 18 01 2f 3e eb 60 74 3e 9f 71 6e 3e e8 bb 56 3e
       0.17090261 0.23865096 0.2328553 0.20970118
0000c0 de 57 94 3e 22 31 de 3d 46 02 8f 3e d2 a9 8b 3e
       0.28973287 0.10849215 0.27931422 0.27278
0000d0 01 46 56 3d c0 ed 25 3e 77 c6 c5 3d 27 af 25 3e
       0.052312855 0.16203976 0.09656995 0.16180097
0000e0 75 0e 59 3e ce ea 7d 3e e2 a0 04 3e d2 bf 27 3e
       0.21196921 0.24796602 0.12951997 0.16381767
0000f0 49 0d 00 3e 98 f3 e0 3d 7a 03 7b 3e 35 12 75 3e
       0.12505068 0.10983962 0.24513045 0.23932727

bn2.running_mean f4 [64]
000000 d4 db 96 3f 38 e3 11 bf 4e de 3c bf 59 a0 23 bf
       1.1785836 -0.56987333 -0.7377671 -0.63916546
000010 dd 3f 85 be 84 8a 20 3f d7 f4 87 3f ed e2 82 3f
       -0.26025286 0.6271136 1.0621594 1.0225502
000020 3e b9 1c 3f f1 13 57 be 8c 43 7c 3e 7b 1f ec be
       0.6122016 -0.21003701 0.24635142 -0.46117768
000030 dc d2 07 3f 74 e9 4b 3f cf dc 52 bf ac d5 fd be
       0.5305612 0.79653096 -0.8236818 -0.4957708
000040 5c bd 84 be f0 ea 83 be 4f fc 73 bd 88 aa c0 3e
       -0.2592572 -0.2576518 -0.059566792 0.37630105
000050 d6 ba 6d 3f e9 bc 3a 3d 66 09 07 bf 4b 38 c1 3f
       0.92863214 0.045590315 -0.52748716 1.5095304
000060 89 ab d6 be c9 2c 25 3f dd fd cf be 89 f9 fc bd
       -0.41927746 0.6452146 -0.4062337 -0.123522826
000070 f5 00 3d bc 14 83 91 3f b6 3b 9c 3f 92 4b 3d be
       -0.011535873 1.1368127 1.2205722 -0.18485859
000080 93 de 82 3f 4e 4e 67 3f 21 88 b1 3f 8f 6e 8b be
       1.0224174 0.9035386 1.3869668 -0.27232787
000090 ca 7b 0e bf b4 14 87 3f 44 8f 33 be 90 5b 36 bf
       -0.5565764 1.0553193 -0.1753512 -0.71233463
0000a0 96 b8 69 3f 25 d8 8a be 04 48 63 3b e3 4c 49 3c
       0.9129728 -0.2711803 0.0034680376 0.012286398
0000b0 20 85 31 3e bd e8 b0 3f 28 df b2 3f de 2e 16 3f
       0.1733594 1.3821026 1.3974352 0.58665264
0000c0 46 29 7b bf e7 6c 6e 3f 07 fa 45 3e 9a a7 c7 3e
       -0.98109853 0.9313492 0.19333659 0.38995057
0000d0 24 83 9c 3f b8 50 a5 be 1e dc 75 3f db f4 3e 3f
       1.2227521 -0.32288146 0.96039 0.7459237
0000e0 6c e6 b1 bd 87 a9 70 3f 5f 34 d7 be 1b e4 d5 be
       -0.086865276 0.9400868 -0.42032143 -0.41775593
0000f0 a6 4c 6f bc 6e 2d c7 3f 15 16 a2 3f e5 15 e7 be
       -0.014605677 1.5560739 1.2662989 -0.45133892

bn2.running_var f4 [64]
000000 08 f6 44 40 81 29 72 40 40 8c 87 40 b0 71 31 40
       3.0775166 3.7837832 4.2358704 2.772564
000010 8b ed 8c 40 06 ce 96 40 1e 07 92 40 85 89 c7 40
       4.403997 4.7126493 4.563369 6.235537
000020 17 87 d1 40 b6 4a c8 40 2b d1 ae 40 61 4f c4 40
       6.5477405 6.25912 5.463033 6.13469
000030 5b 5f 8a 40 4a 7d 60 40 a4 ae bc 40 57 8a b0 40
       4.32414 3.507647 5.8963184 5.516887
000040 f3 1c 83 40 d6 d5 90 40 b1 97 86 40 5a b2 a4 40
       4.097284 4.526103 4.206017 5.1467714
000050 4e 74 d0 40 37 ce 69 40 e2 7b dc 40 29 a2 b4 40
       6.5141973 3.6532114 6.8901224 5.644795
000060 11 06 ce 40 3e bf a9 40 5a 3f 4e 40 ff e1 ce 40
       6.4382405 5.304595 3.2226167 6.4650874
000070 81 73 96 40 46 08 bf 40 00 59 ab 40 60 9c a1 40
       4.7015996 5.96976 5.3546143 5.0503387
000080 da 19 60 40 ce 37 c1 40 63 01 b5 40 49 3d e2 40
       3.5015779 6.038062 5.6564193 7.069981
000090 8a 85 92 40 44 6b c9 40 70 0f c6 40 58 e6 8e 40
       4.578801 6.294344 6.1893845 4.465618
0000a0 04 eb ba 40 bb d3 cd 40 d5 7e a4 40 fc 2e aa 40
       5.8411884 6.432096 5.1404824 5.3182354
0000b0 ce 7a 8a 40 18 fa a0 40 65 0f b8 40 9b 33 ae 40
       4.327491 5.030529 5.751879 5.4437995
0000c0 1a 5c a5 40 59 aa 27 40 2c 31 8e 40 fa d6 b9 40
       5.167493 2.6197722 4.4435024 5.8074923
0000d0 95 48 6b 40 78 61 db 40 bc 6c 88 40 da 58 9d 40
       3.676305 6.855648 4.2632732 4.917096
0000e0 f9 c5 ae 40 d5 26 b9 40 c2 e6 c7 40 a7 a6 ce 40
       5.4616666 5.78599 6.2469187 6.4578433
0000f0 d7 d5 92 40 bc 2f 0c 40 e4 ab ae 40 69 82 7b 40
       4.5886035 2.1904135 5.4584827 3.9298346

fc3.weight f4 [3, 64]
000000 03 d5 70 be d4 d3 65 be 61 c8 45 be 33 2f a1 be
       -0.23518758 -0.22444087 -0.1931472 -0.31481323
000010 97 dc b1 3d 5b a0 30 3e 84 45 41 3d 18 45 c1 bd
       0.08684652 0.17248671 0.047185436 -0.09437007
000020 87 0d 31 be 04 40 4d 3e 56 64 c2 3d d1 dd 9e bd
       -0.17290317 0.20043951 0.09491794 -0.07757152
000030 84 27 6a 3e 98 28 1b 3e 1f fb 99 bd c9 dd 46 3d
       0.22866637 0.15152204 -0.07518601 0.048551355
000040 30 68 8f 3d 2d 43 3a be cf 20 f6 bc 8f 5c 96 3d
       0.07002294 -0.18189688 -0.030044941 0.07341873
000050 c2 5e ae bd 65 05 ff 3d 8e e8 37 3e a4 26 10 3c
       -0.08514167 0.12452201 0.17959806 0.008798275
000060 58 2a 41 3e 0d b5 69 be cd cb 3c be d4 21 e2 3d
       0.18863809 -0.22822972 -0.18437119 0.110416085
000070 45 33 57 3e c4 d6 12 be c8 95 9d bd d6 44 3a be
       0.21015652 -0.14339739 -0.07694584 -0.18190321
000080 39 20 5b be 6e 51 f0 bd 7b 1e 66 be 06 fb 7e 3c
       -0.2139901 -0.117342815 -0.22472565 0.015562778
000090 45 5e 0d 3e 07 34 f9 bd 71 1a 41 3e 4f 12 13 3e
       0.13805492 -0.121681266 0.18857743 0.14362453
0000a0 1d 5d 18 be 86 be 82 3d 9d ff bb bd 0a 18 2d 3e
       -0.1487927 0.06383996 -0.09179614 0.16903701
0000b0 4b 5c ed bd e5 16 82 3d f3 95 0d 3c 1e 22 65 3e
       -0.11589869 0.06352023 0.008641708 0.22376296
0000c0 b1 fb 34 3e 2e 07 17 3e 86 ac 28 3e 87 55 51 be
       0.17674138 0.14748833 0.16472062 -0.20442782
0000d0 6d 3b 76 be e5 9e 46 3e 00 0e fa 3d c8 40 ba 3d
       -0.24046107 0.19396551 0.122097015 0.09094387
0000e0 ae d3 c1 bd d4 7b 31 bd ff 49 1f 3e a7 51 be 3c
       -0.09464203 -0.043330982 0.15555571 0.023232294
0000f0 ac 3e 9e bd fc c6 74 3e a6 e5 a1 bd cd 0a fa 3d
       -0.077267975 0.23904032 -0.0790513 0.12209091
000100 59 4e 9c 3e 2e 2b 18 3e e4 d2 1f 3e c2 d5 29 3e
       0.30528525 0.14860222 0.15607792 0.16585448
000110 59 d9 7f be 20 20 94 be 58 02 ca be 00 35 8a be
       -0.24985255 -0.2893076 -0.39454913 -0.2699356
000120 b5 11 e1 be 81 ee 90 3d 7d 27 1d be c3 fd 24 3e
       -0.43958822 0.07076741 -0.15347095 0.16112427
000130 41 5f e1 bd 95 72 29 be 15 29 24 3e 7a cf 54 3e
       -0.11004496 -0.16547616 0.16031297 0.20782271
000140 22 a4 aa 3d 0d b0 fd 3d a3 ed 57 3e 2b 2d 40 be
       0.08332087 0.12387095 0.21086745 -0.1876723
000150 71 be 56 be 1c b0 57 be b6 75 d0 3b 60 c0 f6 be
       -0.20971085 -0.21063274 0.0063616885 -0.48193645
000160 80 e6 86 bc ed 81 40 be 5f fc 32 3e 55 28 42 3c
       -0.016467333 -0.18799563 0.17479084 0.011850436
000170 ae 37 31 be 56 99 db be 85 4b 00 bf 1d f0 60 3e
       -0.17306396 -0.42890424 -0.50115234 0.21966596
000180 32 3c 35 3e cc 57 f0 be 14 90 d8 3d 88 69 bc bd
       0.17698744 -0.46941984 0.10574356 -0.09199816
000190 37 63 28 3e 45 76 f7 be 52 69 e1 3d fc 37 2c 3e
       0.16444097 -0.4833242 0.110064164 0.16818231
0001a0 bb bc c6 be 4c 04 02 be 35 88 66 3e 38 01 fd 3c
       -0.38815865 -0.12696952 0.22512896 0.03088437
0001b0 5f 98 1a 3e 1a 36 c7 be f1 6a d4 be c7 b0 b0 bc
       0.15097187 -0.38908464 -0.4148784 -0.021568669
0001c0 82 16 51 3e 1c 19 8e be 7b c8 32 3e 9e 6b 7f bd
       0.20418742 -0.27753532 0.1745929 -0.06235849
0001d0 20 ef a6 3e b7 9e 11 bc 58 be 83 bd 1a 02 bf bd
       0.32604313 -0.008887938 -0.064327896 -0.09326573
0001e0 6f 30 45 3e 49 a4 f6 be db 1d 4a bd 14 77 0b 3e
       0.19256757 -0.48172215 -0.04934488 0.13619643
0001f0 9f f3 30 3e c7 95 8b be 91 54 ed be 9e fb 00 3e
       0.17280434 -0.2726271 -0.46353582 0.12595984
000200 29 d1 97 be f6 3a 50 3e 31 3d 8c 3e fe 33 2f 3e
       -0.29651764 0.20334992 0.27390435 0.17109677
000210 c0 26 35 3e 7e 2a 0d 3e 84 44 47 3e 64 fa 4c 3e
       0.17690563 0.1378574 0.1945973 0.20017391
000220 10 a1 86 3e 33 97 96 be c0 98 b5 bd c4 bf e8 be
       0.26294756 -0.2941223 -0.088670254 -0.45458806
000230 d9 8a fd 3b 09 54 14 3e b9 43 02 be c7 8f 31 be
       0.007737499 0.14485182 -0.12721147 -0.17340003
000240 ad c8 23 bf c3 c9 8f bd e1 f5 67 be da a0 32 bd
       -0.6397808 -0.07020905 -0.22652389 -0.04361043
000250 13 3b 4f 3e 8d bc 40 3e 2b 00 f3 bd 70 e7 6f 3e
       0.20237379 0.18821926 -0.118652664 0.2342813
000260 20 54 b4 be 29 ca 84 3e c4 76 72 bd 65 f6 b7 be
       -0.35220432 0.25935486 -0.059195295 -0.35930172
000270 7c 36 22 3e 08 8b fa 3d ff 57 62 3e 46 6b 91 bd
       0.15841097 0.12233549 0.2210388 -0.07100539
000280 1c 81 85 be 5d ee 75 3e 8e 5f 48 be 45 9e b4 be
       -0.26075065 0.2401671 -0.19567701 -0.35277
000290 d9 13 10 bf fa bd 16 3e 92 2f c4 bd 4f 41 14 bf
       -0.56280285 0.14720908 -0.09579386 -0.57912153
0002a0 fa 0b 6d 3e b9 98 74 be 48 1c 1e be f7 af b0 be
       0.231491 -0.23886384 -0.15440476 -0.3450925
0002b0 28 7d a0 be 04 9e 27 3e 2d 47 91 3e 1a 86 de 3d
       -0.31345487 0.16368872 0.28374615 0.108654216
0002c0 bd 7e 1a bf 94 09 82 bd b5 ec 1a bf da 06 3b 3e
       -0.6034964 -0.06349483 -0.60517436 0.18264332
0002d0 cd d1 ff bd 30 1a 05 bd c5 b8 06 bd 84 11 cc bc
       -0.12491188 -0.032495677 -0.032891054 -0.024910696
0002e0 cf 00 b2 3a 83 f1 45 3e 77 d7 30 be ff f7 c1 be
       0.0013580563 0.1933041 -0.17269693 -0.37884519
0002f0 5b 79 77 be 13 e8 f0 3c 8f 1c 5b 3e 3c 9c 37 bf
       -0.24167387 0.029407537 0.21397613 -0.7172277

fc3.bias f4 [3]
000000 71 27 78 bc 88 30 e0 3d 44 d7 82 bd
       -0.015146122 0.109467566 -0.06388715
