app/core/models/Catboost_nn_model.pt (torch, 51125 bytes, 14 tensors)

fc1.weight f4 [128, 18]
-0.06955653 -0.00834465 -0.041624166 -0.16989204 -0.06542557 0.06413727 0.047489814 0.026112784
-0.001366274 0.117595315 0.022942832 0.07712574 -0.21862431 0.0075147357 -0.117993645 0.44449556
-0.3769522 -0.14637332 0.029893076 0.037098177 -0.15006728 -0.22938879 0.040422093 0.14761376
0.14142857 0.20161188 0.030596148 0.051625993 -0.008710171 -0.052242722 -0.072627775 -0.102274604
0.019453032 0.38684514 -0.46680176 -0.098268226 0.005731687 -0.0148044955 0.23446874 0.23064722
-0.13808334 -0.12412267 0.08880194 0.1593799 0.05256637 -0.07603826 0.12155522 -0.009471293
-0.13209161 0.17906997 0.08535886 -0.1225191 0.50230336 -0.17695098 0.010295362 0.043580826
0.16867046 0.24628444 -0.124760546 -0.17177962 0.008838047 -0.11093101 -0.034481544 0.10836965
0.076762475 0.05316898 -0.087084845 -0.043108787 0.14892876 -0.3272397 0.53262657 0.2129153
0.051434346 0.039648924 0.09913324 -0.24839413 0.047850892 0.19597286 -0.13010155 0.059873845
-0.087014705 -0.033573583 0.03091369 -0.087255605 -0.017943582 0.042013627 0.09992663 -0.31126958
-0.25992897 0.47858724 0.09135011 0.02091205 -0.027311703 -0.015366625 0.077102065 0.1039591
-0.17003435 0.021163078 -0.0644362 0.09408805 -0.044610303 0.20026734 0.16924353 -0.121944055
-0.14947516 0.1268689 -0.5248808 0.46945265 -0.05093048 -0.031131327 0.09312478 -0.12663954
-0.08908066 0.1395934 0.07956763 -0.09683051 -0.08264746 -0.042039335 -0.11526814 0.0703628
-0.040154286 0.13482675 -0.17947546 0.27359235 -0.3216473 -0.22750592 -0.03524594 -0.049633775
-0.1331927 -0.24671574 0.022820132 -0.052263167 0.09734809 -0.122627616 0.11029178 0.054039527
-0.03647747 -0.018171411 0.13897294 0.29944193 0.18259236 0.11365927 0.24312581 -0.113852665
-0.032334264 0.029430343 -0.048182692 0.016980026 0.12554258 0.11432982 -0.19047134 -0.1748785
-0.13264723 0.15394287 -0.09597153 -0.18868771 0.0062329443 0.005971649 0.277648 0.2741905
-0.7718701 0.03550981 -0.025857197 -0.019546537 -0.1454245 0.11786217 -0.09584712 0.12105329
-0.018586848 0.08872807 0.17998497 -0.24468069 -0.020730812 -0.19346005 0.19814529 -0.20067169
0.14373085 0.4143664 -0.5058803 -0.19016871 -0.11186066 0.28864044 0.039413054 -0.06650926
0.070476085 -0.12293458 -0.27547216 -0.22109382 0.15093027 -0.04931038 -0.13227578 0.038033318
-0.19901696 0.042906165 0.060928036 -0.21535645 0.13872486 0.043742575 -0.040088557 -0.047156148
0.21154754 -0.070986025 0.12696987 -0.17104997 -0.008069831 0.11549103 -0.06603786 0.1756766
0.08236967 -0.28073922 0.07186542 0.079239994 -0.17877445 -0.49639526 0.42152077 0.17804748
0.14109208 0.25969106 0.08172287 0.16948311 -0.1550618 -0.12334692 0.21925989 0.11441116
-0.050596915 -0.13525434 0.013241835 -0.21515477 -0.23477802 -0.04051142 -0.21630931 0.27793255
-0.2593743 -0.05942324 0.031655345 -0.010668268 0.119691245 -0.002452084 -0.18474895 -0.052159756
0.011958423 -0.16542041 -0.114041544 0.09410681 0.088056274 -0.091196135 0.09737087 0.06299342
0.17873846 0.40926427 -0.6249274 0.3484086 -0.120797694 -0.13087411 0.19775656 0.09371579
00000000: a773 8ebd 00b8 08bc 1a7e 2abd 2ef8 2dbe
00000010: d7fd 85bd 675a 833d ae84 423d 7aea d53c
00000020: 8c14 b3ba d0d5 f03d 9bf2 bb3c 1af4 9d3d
00000030: 0ddf 5fbe 2c3e f63b a7a6 f1bd ec94 e33e
00000040: e1ff c0be e3e2 15be 53e2 f43c 42f4 173d
00000050: 3dab 19be e5e4 6abe a391 253d 1028 173e
00000060: a7d2 103e 5873 4e3e c6a4 fa3c c775 533d
00000070: 1bb5 0ebc 77fc 55bd dfbd 94bd 5975 d1bd
00000080: f75b 9f3c 9110 c63e a400 efbe da40 c9bd
00000090: e0d0 bb3b 8e8e 72bc 9318 703e c92e 6c3e
000000a0: b865 0dbe 0734 febd cbdd b53d 7c34 233e
000000b0: d64f 573d f2b9 9bbd f1f1 f83d 7b2d 1bbc
000000c0: 0643 07be 1e5e 373e a0d0 ae3d 4beb fabd
000000d0: f496 003f a332 35be e1ad 283c cf81 323d
000000e0: f3b7 2c3e fd31 7c3e 7582 ffbd ffe6 2fbe
000000f0: 75cd 103c cc2f e3bd 853c 0dbd e8f0 dd3d
00000100: a535 9d3d b7c7 593d 8a59 b2bd d792 30bd
00000110: c880 183e f68b a7be 375a 083f 7806 5a3e
00000120: d2ac 523d e966 223d 5e06 cb3d 085b 7ebe
00000130: 4cff 433d 1cad 483e 5739 05be 473e 753d
00000140: c434 b2bd 7484 09bd b53e fd3c 11b3 b2bd
00000150: 6bfe 92bc 7b16 2c3d 55a6 cc3d ba5e 9fbe
00000160: 6915 85be 6309 f53e c415 bb3d bf4f ab3c
00000170: cbbc dfbc 4cc4 7bbc b0e7 9d3d 82e8 d43d
00000180: 7c1d 2ebe 315e ad3c 20f7 83bd 3cb1 c03d
00000190: 4bb9 36bd e212 4d3e 2d4e 2d3e cebd f9bd
000001a0: 0410 19be ece9 013e 975e 06bf 195c f03e
000001b0: 7b9c 50bd 2007 ffbc 34b8 be3d ccad 01be
000001c0: ec6f b6bd 92f1 0e3e 5bf4 a23d 134f c6bd
000001d0: 1243 a9bd 7031 2cbd b411 ecbd 5f1a 903d
000001e0: d278 24bd 0610 0a3e 6ac8 37be 4c14 8c3e
000001f0: f4ae a4be 50f7 68be 0c5e 10bd c94c 4bbd
00000200: ab63 08be 0da3 7cbe 49f1 ba3c e711 56bd
00000210: 6f5e c73d 3024 fbbd a8e0 e13d 8d58 5d3d
00000220: 6669 15bd 36dc 94bc ec4e 0e3e 7450 993e
00000230: 7ef9 3a3e 31c6 e83d f9f5 783e 962b e9bd
00000240: ef70 04bd e717 f13c 375b 45bd b219 8b3c
00000250: 3c8e 003e c125 ea3d eb0a 43be 5913 33be
00000260: add4 07be 33a3 1d3e b98c c4bd 5a37 41be
00000270: ba3d cc3b d3ad c33b e127 8e3e b262 8c3e
00000280: 4799 45bf bc72 113d 79d2 d3bc 0f20 a0bc
00000290: 29ea 14be b961 f13d 7f4b c4bd caea f73d
000002a0: 7243 98bc 10b7 b53d fb4d 383e 938d 7abe
000002b0: aad3 a9bc 641a 46be 99e6 4a3e e17c 4dbe
000002c0: 2e2e 133e d527 d43e 5f81 01bf 96bb 42be
000002d0: 3417 e5bd aec8 933e 956f 213d 0236 88bd
000002e0: c455 903d 20c5 fbbd b00a 8dbe 6b66 62be
000002f0: 778d 1a3e aef9 49bd 4d73 07be d3c8 1b3d
00000300: 1acb 4bbe 60be 2f3d ad8f 793d 6786 5cbe
00000310: e40d 0e3e 6a2b 333d e633 24bd ce26 41bd
00000320: eb9f 583e 1f61 91bd 6404 023e b927 2fbe
00000330: 5337 04bc 9086 ec3d dc3e 87bd 91e4 333e
00000340: 6eb1 a83d 0dbd 8fbe 2d2e 933d 9448 a23d
00000350: a610 37be 8527 febe 92d1 d73e 1452 363e
00000360: 717a 103e 3af6 843e 525e a73d fb8c 2d3e
00000370: 85c8 1ebe 4f9d fcbd aa85 603e 6650 ea3d
00000380: b63e 4fbd 1d80 0abe 48f4 583c 8851 5cbe
00000390: a669 70be 4eef 25bd 3080 5dbe 2d4d 8e3e
000003a0: b5cc 84be c965 73bd 09a9 013d f6c9 2ebc
000003b0: af20 f53d 25b3 20bb d42e 3dbe 78a5 55bd
000003c0: 43ed 433c f863 29be 9d8e e9bd 12bb c03d
000003d0: d956 b43d 0ac5 babd 616a c73d b202 813d
000003e0: 3707 373e 168b d13e 3efb 1fbf 9d62 b23e
000003f0: c864 f7bd dd03 06be b280 4a3e 10ee bf3d

fc1.bias f4 [128]
0.06259308 0.16566108 -0.2171715 -0.030294577 -0.16065124 -0.029967114 -0.02910294 0.14160764
0.1864129 -0.043059077 -0.18430509 -0.24258381 0.046735913 -0.11642969 0.16789417 -0.045373417
-0.027442645 -0.09682247 0.21840002 -0.17394052 0.23502855 0.17917581 -0.15692559 0.049803797
0.078574866 0.047664475 0.11495578 0.15108263 -0.06128197 -0.04118938 -0.02936387 0.14030614
-0.0087393075 -0.024155056 -0.14746812 0.18529886 0.06577076 0.016015206 0.18546057 -0.053851906
0.067951374 0.21591161 -0.09177082 -0.15666936 0.12842046 -0.14664449 -0.17290594 -0.023242045
0.029956002 0.121126324 0.08852432 -0.046563603 0.151134 0.17408058 -0.17956556 0.17716332
-0.013912883 -0.22354974 0.09937513 -0.18865424 0.05031853 -0.17979853 -0.0630296 0.18369247
0.18231991 0.011963721 -0.074283846 -0.18219097 0.12886043 0.2078455 -0.13500135 0.08550239
-0.23207508 -0.23103584 0.086821236 0.17552215 -0.18859595 -0.06181439 0.03111102 0.06960627
-0.15005168 0.07097555 -0.11920869 0.1594683 0.044258893 0.22745235 0.20948365 0.030155797
-0.100457 0.19116896 -0.07778487 0.17532624 0.12504892 -0.21461092 0.03262274 0.10138167
0.22288905 0.22516319 0.10319343 -0.04390946 -0.1323368 -0.10763816 -0.23411204 0.1296182
-0.107758075 -0.07813397 -0.053066462 -0.07598981 -0.07771948 -0.0961363 0.056088626 0.17402968
0.16649394 -0.16710326 -0.010355767 0.20378108 0.13495034 -0.0338144 -0.14570992 0.11686543
0.2316669 -0.060065255 -0.06787716 -0.033862464 0.025642207 0.1396959 -0.049404025 -0.11719042
00000000: cd30 803d 0fa3 293e 3562 5ebe 552c f8bc
00000010: c281 24be 987d f5bc 4a69 eebc 9801 113e
00000020: 06e3 3e3e b75e 30bd 79ba 3cbe e467 78be
00000030: 286e 3f3d b072 eebd 73ec 2b3e 7ad9 39bd
00000040: 66cf e0bc dc4a c6bd 41a4 5f3e 771d 32be
00000050: 53ab 703e dd79 373e 1ab1 20be 11ff 4b3d
00000060: dceb a03d d33b 433d f06d eb3d 68b5 1a3e
00000070: ce02 7bbd 32b6 28bd 808c f0bc 6aac 0f3e
00000080: 502f 0fbc d3e0 c5bc e201 17be fcbe 3d3e
00000090: d2b2 863d 5232 833c 60e9 3d3e d193 5cbd
000000a0: 172a 8b3d ef17 5d3e 57f2 bbbd ef6d 20be
000000b0: a780 033e f929 16be 410e 31be 1a66 bebc
000000c0: 4a66 f53c 1411 f83d 3d4c b53d 7ab9 3ebd
000000d0: dfc2 1a3e 2e42 323e 09e0 37be 4d6a 353e
000000e0: dcf2 63bc 39ea 64be 3085 cb3d 942e 41be
000000f0: ce1a 4e3d 1b1d 38be aa15 81bd e119 3c3e
00000100: 12b2 3a3e 7c03 443c 2122 98bd 4590 3abe
00000110: fdf3 033e 73d5 543e cb3d 0abe e11b af3d
00000120: 17a5 6dbe a994 6cbe 55cf b13d 14bc 333e
00000130: 4c1f 41be 1631 7dbd 8adc fe3c bb8d 8e3d
00000140: 26a7 19be a15b 913d b023 f4bd a84b 233e
00000150: d048 353d 45e9 683e e282 563e 4a09 f73c
00000160: 66bc cdbd ccc1 433e ad4d 9fbd b988 333e
00000170: d30c 003e f7c2 5bbe 6c9f 053d 31a1 cf3d
00000180: 073d 643e 2e91 663e 1457 d33d 68da 33bd
00000190: 4c83 07be 6571 dcbd 11bb 6fbe a2ba 043e
000001a0: 44b0 dcbd b404 a0bd 385c 59bd 8ca0 9bbd
000001b0: 642b 9fbd 1ce3 c4bd 30bd 653d d634 323e
000001c0: 637d 2a3e 1e1d 2bbe 3cab 29bc fdab 503e
000001d0: 6c30 0a3e f880 0abd fb34 15be 2457 ef3d
000001e0: 163a 6d3e fc06 76bd 2e03 8bbd 5eb3 0abd
000001f0: 9b0f d23c 710c 0f3e e05b 4abd 8801 f0bd

bn1.weight f4 [128]
0.9830092 1.0523053 0.962483 1.0697002 0.97800994 1.1120217 0.9125344 0.8106461
1.0104288 1.0198188 0.9172484 1.1570615 0.83816767 0.9156646 0.89769226 1.0143886
1.040004 0.8664151 0.9782689 1.0045695 0.9065584 0.9680763 0.8785893 0.9351214
1.0130975 0.97354275 1.0324746 1.0451821 0.916977 0.9301318 1.0586463 1.0444036
0.96839255 1.1589649 0.9641456 0.97411126 0.8717911 1.0396998 0.95693487 0.98699623
0.9532674 0.97965574 1.109734 0.9072109 1.0491813 0.9023427 0.93483317 1.047229
0.9614579 0.9841568 1.1048986 1.106472 0.84438777 1.1512356 0.9427641 1.1033068
0.9237724 0.8994851 1.044968 0.9354261 0.91263896 1.0074973 1.0134934 0.79571617
0.89153934 0.9629711 1.0082512 0.9634148 0.9396169 0.90542 1.0358981 0.9647953
0.9831334 0.93061024 1.0346022 1.0117412 0.90216994 0.92071676 0.98685735 1.0275823
0.9104633 0.9940259 1.0391313 1.0397608 1.0045816 1.0601462 1.0404733 0.98735684
1.09552 0.9105626 0.9779057 0.9540314 0.96068573 0.8841307 1.0205044 0.9017176
1.0178227 0.9625197 1.0587193 0.96210414 0.78626454 1.0524633 1.1194886 1.0299957
1.003064 1.1693963 1.035456 0.9861491 1.014566 1.0595129 0.9713225 0.9990033
0.889671 1.0493222 1.0202382 1.0077113 1.138782 1.0013454 1.0771657 1.0002439
0.9245169 0.97290653 1.0120039 1.0027682 1.0683602 0.9247016 0.9958544 1.053025
00000000: 7ea6 7b3f f1b1 863f 4965 763f f0eb 883f
00000010: dc5e 7a3f ba56 8e3f db9b 693f 8186 4f3f
00000020: bb55 813f 6c89 823f cbd0 6a3f 971a 943f
00000030: 2892 563f ff68 6a3f 29cf 653f 7cd7 813f
00000040: da1e 853f 61cd 5d3f d56f 7a3f bc95 803f
00000050: 3614 683f d9d3 773f 3aeb 603f 1e64 6f3f
00000060: 2ead 813f 193a 793f 2128 843f 87c8 853f
00000070: 01bf 6a3f 1e1d 6e3f b981 873f 04af 853f
00000080: 93e8 773f f658 943f 3fd2 763f 5b5f 793f
00000090: b42d 5f3f e214 853f aff9 743f c9ab 7c3f
000000a0: 5509 743f b8ca 7a3f c40b 8e3f f93e 683f
000000b0: 934b 863f eeff 663f 3a51 6f3f 9a0b 863f
000000c0: 1b22 763f b3f1 7b3f 516d 8d3f e0a0 8d3f
000000d0: cc29 583f b05b 933f fd58 713f 2839 8d3f
000000e0: 597c 6c3f a844 663f 83c1 853f 1678 6f3f
000000f0: b5a2 693f acf5 803f 27ba 813f 0eb4 4b3f
00000100: ec3b 643f 4685 763f 600e 813f 5aa2 763f
00000110: bc8a 703f 9bc9 673f 4f98 843f d3fc 763f
00000120: a1ae 7b3f 793c 6e3f d86d 843f bc80 813f
00000130: 9cf4 663f 18b4 6b3f afa2 7c3f d187 833f
00000140: 1f14 693f 7b78 7e3f 4102 853f e216 853f
00000150: 2196 803f dfb2 873f 3b2e 853f 6bc3 7c3f
00000160: 003a 8c3f a11a 693f 0758 7a3f 673b 743f
00000170: 80ef 753f 6456 623f e39f 823f f7d6 663f
00000180: 0448 823f b167 763f 1d84 873f 754c 763f
00000190: a248 493f 1eb7 863f 674b 8f3f e6d6 833f
000001a0: 6764 803f c7ae 953f d289 843f 4474 7c3f
000001b0: 4cdd 813f 1e9e 873f 97a8 783f aebe 7f3f
000001c0: 7bc1 633f 3150 863f 2a97 823f affc 803f
000001d0: 9cc3 913f 162c 803f 91e0 893f fe07 803f
000001e0: 24ad 6c3f 6710 793f 5889 813f b55a 803f
000001f0: 07c0 883f 3eb9 6c3f 50f0 7e3f 86c9 863f

bn1.bias f4 [128]
-0.15243147 -0.054533623 -0.11157288 0.045793474 -0.21694236 -0.081206284 -0.14232147 -0.23345722
-0.3126821 -0.07370161 -0.13203862 -0.052786045 -0.1687474 -0.28980756 -0.18270315 -0.17823766
-0.111713074 -0.17729457 -0.27226052 -0.1278256 -0.109901026 -0.11750027 -0.16416474 -0.065456495
-0.05423517 -0.16017485 -0.12559964 0.016687736 -0.1088929 -0.36983582 -0.09529168 -0.1268562
-0.19968437 -0.19581027 -0.035384577 -0.1782272 -0.18861023 -0.044451494 -0.18704663 -0.29431826
-0.1130139 -0.12703818 -0.04361786 -0.18491988 -0.046531428 -0.11271355 -0.2165034 -0.15002789
0.0073723285 -0.24844599 -0.1342771 -0.15379634 -0.061880685 -0.21485114 -0.181754 -0.08903346
-0.09563248 -0.11282453 -0.047730695 -0.08823674 -0.16638912 0.052709606 -0.11203276 -0.07321351
-0.10934297 -0.0789674 -0.17026015 -0.18756893 -0.09114375 -0.1251214 -0.11694699 -0.2593607
-0.048674934 -0.096255966 -0.115248196 -0.033372637 -0.17477308 -0.19923861 -0.20736873 -0.12252317
-0.123248436 -0.18394086 -0.03451112 -0.12778267 -0.12109605 -0.09365939 -0.1419573 -0.16145535
-0.116453804 -0.27534333 -0.005622188 -0.19963221 -0.10803627 -0.12481494 -0.10535532 -0.14222829
-0.05659857 -0.2092667 -0.09811616 -0.16967334 -0.16912857 -0.13609363 -0.13526115 -0.15579621
-0.2933098 -0.08519638 -0.09664012 -0.19759512 -0.159575 -0.123880975 -0.02666395 -0.23458117
-0.18496405 -0.19907749 -0.23084584 -0.28812075 -0.19528596 -0.109098345 0.09691891 -0.066988416
-0.02693964 0.00750067 0.00030271357 -0.1562379 -0.12812869 -0.21735084 -0.11259519 -0.12988997
00000000: ff16 1cbe a65e 5fbd 5280 e4bd f091 3b3d
00000010: 2326 5ebe 7b4f a6bd b8bc 11be 690f 6fbe
00000020: de17 a0be dff0 96bd 2235 07be 2e36 58bd
00000030: 1ecc 2cbe a861 94be 8916 3bbe ef83 36be
00000040: d3c9 e4bd b58c 35be bb65 8bbe b7e4 02be
00000050: ca13 e1bd fba3 f0bd cd1a 28be 0e0e 86bd
00000060: b325 5ebd e004 24be 319d 00be b8b4 883c
00000070: 3e03 dfbd 1f5b bdbe 4928 c3bd 97e6 01be
00000080: 0f7a 4cbe 7d82 48be 6bef 10bd 3181 36be
00000090: 0a23 41be c512 36bd 2789 3fbe e2b0 96be
000000a0: d573 e7bd 4c16 02be a4a8 32bd a35b 3dbe
000000b0: bd97 3ebd 5dd6 e6bd 11b3 5dbe e9a0 19be
000000c0: 9393 f13b a068 7ebe f07f 09be ca7c 1dbe
000000d0: 9a76 7dbd f001 5cbe b81d 3abe 2d57 b6bd
000000e0: f6da c3bd 8c10 e7bd 4381 43bd 77b5 b4bd
000000f0: e961 2abe 07e6 573d 6f71 e5bd f7f0 95bd
00000100: 35ef dfbd a9b9 a1bd ad58 2ebe 1212 40be
00000110: 93a9 babd d31f 00be e781 efbd edca 84be
00000120: 5e5f 47bd d921 c5bd 3f07 ecbd bfb1 08bd
00000130: b7f7 32be 3505 4cbe 7858 54be 6eed fabd
00000140: ad69 fcbd fe5a 3cbe 885b 0dbd 76d9 02be
00000150: 3501 f8bd 7fd0 bfbd 415d 11be 8d54 25be
00000160: 557f eebd cdf9 8cbe 553a b8bb 636c 4cbe
00000170: 1f42 ddbd fa9e ffbd 88c4 d7bd 4ba4 11be
00000180: e7d3 67bd 034a 56be 20f1 c8bd d9be 2dbe
00000190: 0a30 2dbe 215c 0bbe e681 0abe 0b89 1fbe
000001a0: b42c 96be 717b aebd 41eb c5bd 6056 4abe
000001b0: a167 23be 4fb5 fdbd 5b6e dabc 0c36 70be
000001c0: 3767 3dbe f8da 4bbe da62 6cbe 9084 93be
000001d0: 0bf9 47be f46e dfbd 6c7d c63d 3931 89bd
000001e0: 85b0 dcbc 2ec8 f53b 87b5 9e39 d4fc 1fbe
000001f0: 2b34 03be 3891 5ebe 4f98 e6bd e001 05be

bn1.running_mean f4 [128]
0.046331763 0.2380759 -0.15200809 0.03013488 -0.15840262 0.023290299 -0.17473553 0.4188016
0.019379009 -0.09995574 -0.3273465 -0.2940557 -0.12382311 -0.053991936 0.24408326 0.020125661
-0.04769329 -0.41204292 0.1817838 -0.1705424 -0.045228183 0.048446275 -0.4747157 0.05072707
0.048065133 -0.020205058 0.26541257 0.010621539 -0.027963959 0.11831044 -0.08324908 -0.06563111
-0.08109014 -0.050974313 -0.206249 0.32550162 0.014458507 0.049669113 0.4220459 -0.17465673
0.38252386 0.24871892 -0.16092141 -0.24864094 0.14734077 -0.4271815 -0.17491525 0.051014047
-0.067373656 0.19279738 0.13392815 0.041085448 -0.038779367 0.15552074 -0.19654433 0.19007629
0.07623518 -0.19052987 0.18007456 -0.1516633 0.18399394 -0.13310091 -0.119324535 -0.0144223785
0.53860486 0.0044827103 -0.15302612 -0.26912907 0.22125039 0.075422816 -0.042933054 0.119195886
-0.10441214 -0.35149595 -0.08080797 -0.0038923083 -0.0013514953 0.030580807 0.1218905 -0.04938659
0.07071401 -0.1057382 -0.07342277 0.16381532 0.14342017 0.3075372 0.3123544 -0.056405198
-0.11430816 0.18823242 -0.036922902 -0.0981151 -0.089396946 0.19336393 0.12202523 0.056623653
0.2732923 0.1812506 0.13406299 -0.07978377 -0.22598724 0.026750969 -0.28026155 0.24394278
-0.14383201 -0.106890745 0.021992838 0.09796616 0.016330998 -0.072607376 0.09731823 0.2726905
0.00033190328 -0.33843577 0.08213603 0.26012254 0.12376295 0.04275901 -0.06397705 0.29632112
0.1820024 -0.13202076 -0.11466572 -0.08922722 0.14255644 0.2607896 0.05103546 -0.076347746
00000000: 60c6 3d3d 2bca 733e 02a8 1bbe 6ddd f63c
00000010: 4c34 22be 4ccb be3c dfed 32be 2a6d d63e
00000020: bac0 9e3c 98b5 ccbd f699 a7be 788e 96be
00000030: f896 fdbd a626 5dbd f6f0 793e 92de a43c
00000040: 0a5a 43bd 4af7 d2be 8825 3a3e aba2 2ebe
00000050: 3041 39bd 9a6f 463d f00d f3be 30c7 4f3d
00000060: f2df 443d 1485 a5bc 28e4 873e f705 2e3c
00000070: ac14 e5bc be4c f23d 7e7e aabd 9a69 86bd
00000080: 9612 a6bd 71ca 50bd f032 53be 26a8 a63e
00000090: 60e3 6c3c d771 4b3d 6616 d83e 37d9 32be
000000a0: 2bda c33e 2cb0 7e3e 95c8 24be bb9b 7ebe
000000b0: 80e0 163e 89b7 dabe fc1c 33be 1bf4 503d
000000c0: 33fb 89bd ad6c 453e 7624 093e 3749 283d
000000d0: 1dd7 1ebd d440 1f3e eb42 49be 5ca3 423e
000000e0: 3121 9c3d 431a 43be 7765 383e a04d 1bbe
000000f0: e868 3c3e 9b4b 08be 6c60 f4bd d74b 6cbc
00000100: 02e2 093f b3e3 923b e1b2 1cbe 49cb 89be
00000110: 768f 623e 4777 9a3d 92da 2fbd f91c f43d
00000120: 08d6 d5bd 47f7 b3be a67e a5bd 1916 7fbb
00000130: a824 b1ba 9a84 fa3c baa1 f93d 9849 4abd
00000140: 82d2 903d 458d d8bd ad5e 96bd 34bf 273e
00000150: bddc 123e 8475 9d3e eaec 9f3e 2309 67bd
00000160: 661a eabd 00c0 403e 783c 17bd 92f0 c8bd
00000170: bf15 b7bd 3201 463e 5de8 f93d 34ee 673d
00000180: f8ec 8b3e c299 393e cf47 093e ac65 a3bd
00000190: 3369 67be d924 db3c 717e 8fbe 23cc 793e
000001a0: b348 13be 89e9 dabd 532a b43c 7ba2 c83d
000001b0: 96c8 853c 2db3 94bd c84e c73d 179e 8b3e
000001c0: 4e03 ae39 7447 adbe ef36 a83d c82e 853e
000001d0: 6e77 fd3d 1224 2f3d 6606 83bd 67b7 973e
000001e0: d65e 3a3e 7330 07be dcd5 eabd c3bc b6bd
000001f0: 51fa 113e 3786 853e 8f0a 513d 355c 9cbd

bn1.running_var f4 [128]
0.20407735 0.059392724 0.69151 0.10160116 0.118599154 0.11821619 0.22201963 0.60137135
0.3302206 0.11571498 0.56540465 0.10895149 0.94005793 0.15359923 0.2127426 0.15783939
0.10077764 0.21840756 0.112844914 0.09650884 2.2811627 0.39458087 0.5266787 0.26366067
0.10064556 0.27990335 0.065665685 0.0516189 0.25796494 0.4807115 0.08915859 0.14309809
0.19381323 0.2347432 0.2995219 0.1742486 0.33440894 0.16020666 0.104615495 0.17153737
2.1481476 0.17048721 0.20030743 0.25448847 0.15968545 1.0674156 0.3951687 0.1247694
0.18177499 0.3865988 0.10201854 0.13896851 0.37452775 0.12053208 0.15495601 0.25735265
0.7682123 0.10671459 0.11108975 0.32391986 0.16311148 0.22010027 0.062386267 0.5529204
1.3520001 0.13008119 0.2796903 0.3022436 0.21596079 1.3001202 0.084465794 0.22818205
0.2716498 0.22491658 0.064966045 0.0637217 0.31257263 0.36557373 0.32211757 0.16282317
0.4517613 0.123114906 0.08724174 0.24299647 0.36988527 0.2353965 0.10078108 0.1336723
0.1330593 0.2578471 0.28026274 0.20160687 0.2056982 1.9251261 0.1568183 0.21977206
0.23269513 0.19766879 0.37862977 0.18577334 2.0716622 0.1789473 0.16639948 0.29108667
0.11887501 0.07024749 0.10575611 0.10800217 0.09730144 0.13958247 0.09760867 0.20227641
0.55266 0.24597605 0.16992313 0.096288756 0.35910866 0.12540375 0.07016357 0.07607203
0.20041014 0.04665242 0.3048933 0.25054473 0.068654664 0.23519517 0.07943977 0.08552916
00000000: a7f9 503e c945 733d cd06 313f 4514 d03d
00000010: 1de4 f23d 541b f23d 1d59 633e 79f3 193f
00000020: ad12 a93e fafb ec3d 5cbe 103f f521 df3d
00000030: a3a7 703f 1e49 1d3e 32d9 593e a6a0 213e
00000040: 8264 ce3d 3ba6 5f3e 3c1b e73d 6da6 c53d
00000050: 92fe 1140 8106 ca3e 6ad4 063f 88fe 863e
00000060: 421f ce3d 7e4f 8f3e bb7b 863d 576e 533d
00000070: fb13 843e d11f f63e c798 b63d 4e88 123e
00000080: fa76 463e 8560 703e ef5a 993e 3a6e 323e
00000090: a637 ab3e 370d 243e a640 d63d 7ea7 2f3e
000000a0: 407b 0940 3394 2e3e 641d 4d3e 504c 823e
000000b0: 9584 233e 13a1 883f 8d53 ca3e 1987 ff3d
000000c0: 3923 3a3e 47f0 c53e 19ef d03d c34d 0e3e
000000d0: 1ac2 bf3e 86d9 f63d caac 1e3e bac3 833e
000000e0: 90a9 443f 2e8d da3d 0683 e33d d3d8 a53e
000000f0: b206 273e f761 613e be88 7f3d 318c 0d3f
00000100: 570e ad3f 0134 053e 9133 8f3e acbf 9a3e
00000110: d324 5d3e 576a a63f 67fc ac3d 8ea8 693e
00000120: af15 8b3e 8850 663e eb0c 853d 8680 823d
00000130: 8509 a03e 7b2c bb3e 98ec a43e 1ebb 263e
00000140: 424d e73e ab23 fc3d ccab b23d 11d4 783e
00000150: 9a61 bd3e c80b 713e 5066 ce3d 64e1 083e
00000160: b240 083e 8904 843e 997e 8f3e 0872 4e3e
00000170: 8da2 523e 886a f63f fa94 203e ed0b 613e
00000180: a247 6e3e b069 4a3e c3db c13e 5e3b 3e3e
00000190: 1d96 0440 f63d 373e a064 2a3e 5009 953e
000001a0: be74 f33d ebdd 8f3d a996 d83d 3e30 dd3d
000001b0: fa45 c73d b5ee 0e3e 0ee7 c73d 8c21 4f3e
000001c0: 207b 0d3f 25e1 7b3e 5400 2e3e 0a33 c53d
000001d0: 17dd b73e d769 003e ebb1 8f3d a7cb 9b3d
000001e0: 5138 4d3e 9c16 3f3d fa1a 9c3e 6647 803e
000001f0: d19a 8c3d 01d7 703e 51b1 a23d ea29 af3d

fc2.weight f4 [64, 128]
-0.031392522 -0.08923699 0.10202757 0.076037414 0.028931983 -0.1077124 -0.026156927 0.013729734
-0.06874528 -0.085239105 0.16109988 0.13682197 0.09615236 -0.07023969 -0.0539586 -0.03437534
-0.11992531 -0.13225242 0.08874772 0.012685932 0.039473776 -0.024016775 0.042285576 0.0276338
0.09678049 0.053200133 -0.11801586 -0.12702216 -0.014394893 0.0248079 0.06637695 -0.04094756
-0.017879331 0.19000918 0.070441194 0.01874747 -0.053547848 -0.06984378 0.005631289 0.06710484
0.032931548 -0.023683317 0.170217 -0.002464488 0.0443749 0.0025308582 0.08490463 0.008174535
0.14771044 0.13432056 -0.16337621 -0.021811498 0.15847015 -0.11636614 0.016880423 0.09039819
0.062029332 0.09694071 -0.17143804 0.04395093 -0.026945014 -0.088731706 -0.01745619 0.068601765
0.013652701 0.049211606 -0.111490555 0.026400974 0.06213021 0.15642473 -0.10327372 0.06816745
-0.037353043 0.071739726 0.09265078 0.062491596 0.001260169 0.051695526 0.05496002 -0.089360915
0.08043414 0.03132931 -0.07015726 -0.1082082 0.013401694 0.07303519 -0.057306264 0.08199949
-0.033239134 0.08701808 0.05072255 -0.10410227 -0.09684229 0.05722316 -0.06017865 0.02122815
0.088801146 -0.0018897265 0.10482892 0.09604122 0.0052208793 0.10124153 0.08283271 0.020704227
0.005654592 -0.10061721 -0.04819277 0.026407355 -0.044876583 0.13745369 0.024815975 -0.12971584
-0.07452889 -0.049733296 -0.04013769 0.029682377 0.10892064 -0.13366935 0.0064788274 -0.08596714
0.03443268 0.05824225 0.054983426 -0.0050240704 -0.100456186 0.017818997 -0.018471321 -0.08547576
-0.08732023 -0.15927532 0.07739985 0.12992723 -0.0041728825 -0.08956768 -0.06391669 0.07728496
-0.024135716 -0.11144484 0.11337341 0.110572755 -0.001818932 0.028713958 -0.025397386 -0.066444114
-0.09696367 -0.1186181 0.08064116 -0.021185094 0.010892336 -0.07340088 0.061322276 0.08735348
0.0069173747 0.007828373 -0.09320916 -0.094189525 -0.092681885 0.054854747 0.11458014 -0.04949045
-0.0042993277 0.10672312 -0.016417662 0.07177038 -0.026642803 -0.09358565 0.033408202 0.11143173
0.04116575 -0.10311873 0.07891708 0.0030449287 0.07040424 0.04137915 0.017536553 -0.07985052
0.07186732 0.12697162 -0.11135464 -0.04442397 0.061580822 -0.09391172 0.038643785 0.052012425
-0.03780552 0.023427444 -0.21394585 0.03415494 0.03399233 -0.094061464 -0.050578643 -0.04910482
0.06223155 -0.037803017 -0.02075867 -0.009176981 0.12702829 0.08677416 -0.09477209 0.1199126
-0.038094632 0.105532005 0.11931965 0.119822256 0.019411188 0.08808582 0.12017857 -0.05694661
0.12290566 0.030655464 -0.11487131 -0.077288955 0.1106976 0.080137394 -0.060477637 0.09201289
-0.0022330221 0.0194777 -0.01048517 -0.056894295 -0.01659481 0.09885356 0.043158785 0.032290336
0.014434851 0.104697295 0.09937516 0.07441127 0.06734032 0.012530726 0.091771975 0.016798591
-0.08338702 -0.10655766 0.092631474 -0.022591285 -0.053535827 0.14372417 -0.05233998 -0.055377156
-0.024920525 -0.13640727 0.056921 0.018855471 0.15811157 -0.07075655 -0.09488601 -0.09786862
0.06542955 -0.056979693 -0.004872594 -0.02534574 -0.14793234 -0.029028201 -0.06072062 -0.09998364
00000000: 7295 00bd e2c1 b6bd d5f3 d03d 81b9 9b3d
00000010: c402 ed3c 5298 dcbd 0d47 d6bc aef2 603c
00000020: 53ca 8cbd d791 aebd 5ef7 243e 0f1b 0c3e
00000030: 87eb c43d d4d9 8fbd b103 5dbd 28cd 0cbd
00000040: 679b f5bd 2e6d 07be 5dc1 b53d a8d8 4f3c
00000050: 41af 213d d4be c4bc a433 2d3d 4760 e23c
00000060: d934 c63d 62e8 593d 4db2 f1bd 1912 02be
00000070: 8fd8 6bbc f039 cb3c a3f0 873d a1b8 27bd
00000080: ad77 92bc c491 423e 7943 903d 4b94 993c
00000090: fd54 5bbd 410a 8fbd ad86 b83b 436e 893d
000000a0: 3be3 063d 8403 c2bc 5e4d 2e3e 3f83 21bb
000000b0: 75c2 353d c1dc 253b 7be2 ad3d 7cee 053c
000000c0: 6841 173e 548b 093e 184c 27be 07ae b2bc
000000d0: 0046 223e 5f51 eebd d048 8a3c b022 b93d
000000e0: 7812 7e3d da88 c63d 748d 2fbe e405 343d
000000f0: cabb dcbc f8b8 b5bd 4900 8fbc 157f 8c3d
00000100: 94af 5f3c 1c92 493d 2955 e4bd db46 d83c
00000110: 3f7c 7e3d ce2d 203e 2c81 d3bd 609b 8b3d
00000120: 81ff 18bd 47ec 923d b1bf bd3d 30f7 7f3d
00000130: 412c a53a b0be 533d c21d 613d db02 b7bd
00000140: a8ba a43d 2a53 003d 9cae 8fbd 439c ddbd
00000150: c792 5b3c 7993 953d f9b9 6abd 59ef a73d
00000160: c225 08bd 8936 b23d 73c2 4f3d 9233 d5bd
00000170: 4055 c6bd d562 6a3d e37d 76bd a8e6 ad3c
00000180: 60dd b53d b3b0 f7ba 8bb0 d63d 42b1 c43d
00000190: e913 ab3b b857 cf3d 32a4 a93d e99b a93c
000001a0: 284a b93b 6510 cebd c865 45bd 3d54 d83c
000001b0: 82d0 37bd a9c0 0c3e df4a cb3c 3bd4 04be
000001c0: 9aa2 98bd 24b5 4bbd 6b67 24bd 7528 f33c
000001d0: c911 df3d 9ee0 08be 584c d43b 8a0f b0bd
000001e0: 4809 0d3d 6d8f 6e3d 4d36 613d f5a0 a4bb
000001f0: f9bb cdbd 25f9 913c 2b51 97bc ea0d afbd
00000200: f3d4 b2bd 1219 23be d083 9e3d a50b 053e
00000210: adbc 88bb 436f b7bd c1e6 82bd 9447 9e3d
00000220: 44b8 c5bc 313d e4bd 5230 e83d f873 e23d
00000230: 3b69 eeba 8939 eb3c 2e0e d0bc da13 88bd
00000240: e394 c6bd 0cee f2bd 3127 a53d 5d8c adbc
00000250: c575 323c 3353 96bd 112d 7b3d 62e6 b23d
00000260: 25ab e23b 9442 003c 72e4 bebd 70e6 c0bd
00000270: 00d0 bdbd 5faf 603d fea8 ea3d 80b6 4abd
00000280: 60e1 8cbb a791 da3d 557e 86bc 59fc 923d
00000290: 0242 dabc d5a9 bfbd 0ad7 083d 5236 e43d
000002a0: 6b9d 283d ea2f d3bd 479f a13d 6d8d 473b
000002b0: 1930 903d 2f7d 293d d1a8 8f3c ab88 a3bd
000002c0: 2c2f 933d d904 023e e70d e4bd e9f5 35bd
000002d0: 2c3c 7c3d ca54 c0bd f248 1e3d fb0a 553d
000002e0: f6d9 1abd e9ea bf3c 9f14 5bbe 0de6 0b3d
000002f0: 8b3b 0b3d 4ca3 c0bd 8d2b 4fbd 2322 49bd
00000300: 83e6 7e3d 56d7 1abd 160e aabc 0c5b 16bc
00000310: b413 023e a7b6 b13d df17 c2bd bd94 f53d
00000320: 1e09 1cbd 2a21 d83d dc5d f43d 5f65 f53d
00000330: 3604 9f3c 5766 b43d 2f20 f63d d940 69bd
00000340: f6b5 fb3d 2b21 fb3c a641 ebbd ac49 9ebd
00000350: 6cb5 e23d 131f a43d 66b7 77bd 4171 bc3d
00000360: e557 12bb b38f 9f3c fec9 2bbc fe09 69bd
00000370: d7f1 87bc bc73 ca3d 44c7 303d df42 043d
00000380: 2780 6c3c 896b d63d 3485 cb3d f064 983d
00000390: b9e9 893d ad4d 4d3c f2f2 bb3d 339d 893c
000003a0: d0c6 aabd e73a dabd 92b5 bd3d 5c11 b9bc
000003b0: 6248 5bbd 6e2c 133e 7262 56bd 28d3 62bd
000003c0: 2126 ccbc 59ae 0bbe ff25 693d ca76 9a3c
000003d0: 00e8 213e cfe8 90bd 9953 c2bd 586f c8bd
000003e0: eeff 853d 8a63 69bd 48aa 9fbb dfa1 cfbc
000003f0: 937b 17be 8dcc edbc 2fb6 78bd 39c4 ccbd

fc2.bias f4 [64]
0.003818557 0.03722223 0.08218657 0.018960577 -0.021810401 0.059822015 0.008879729 -0.082588606
0.024710415 0.02252609 0.06729765 0.06710503 -0.04839798 0.08205229 -0.04002673 -0.08028453
-0.0032893291 0.057385776 -0.04953817 -0.07885157 -0.049167316 -0.018609986 -0.00062144734 -0.036985684
0.004796126 -0.05801968 -0.04569658 0.030699356 -0.04768155 -0.07782056 -0.06420193 0.07927557
0.058755327 0.008893465 -0.040065084 -0.017363038 -0.036622275 -0.06573116 -0.014879441 -0.08675539
0.057791904 0.051195916 -0.03157403 0.015486827 -0.06703344 -0.050479744 0.012672051 0.07282101
0.019525431 0.017243152 -0.05139113 -0.00432134 0.0032386107 0.002359586 0.047445744 0.06580903
-0.06594591 0.012573756 -0.07443373 0.05986138 -0.05527095 -0.03357679 0.05264574 -0.049190547
00000000: c140 7a3b 5676 183d 6f51 a83d 3653 9b3c
00000010: baab b2bc ee07 753d 487c 113c 3724 a9bd
00000020: 7f6d ca3c a288 b83c 5ad3 893d 5d6e 893d
00000030: f63c 46bd 080b a83d 12f3 23bd 376c a4bd
00000040: c991 57bb 590d 6b3d 89e8 4abd ef7c a1bd
00000050: ab63 49bd f873 98bc a0e8 22ba 4d7e 17bd
00000060: d228 9d3b 0ba6 6dbd 562c 3bbd 377d fb3c
00000070: bb4d 43bd 6360 9fbd 4d7c 83bd 3b5b a23d
00000080: 6da9 703d e5b5 113c 491b 24bd ee3c 8ebc
00000090: 3d01 16bd 0f9e 86bd e6c8 73bc cfac b1bd
000000a0: 34b7 6c3d cfb2 513d c553 01bd 76bc 7d3c
000000b0: d448 89bd d9c3 4ebd 6f9e 4f3c 2f23 953d
000000c0: ccf3 9f3c 8341 8d3c 817f 52bd 079a 8dbb
000000d0: df3e 543b 49a3 1a3b 7856 423d e2c6 863d
000000e0: a60e 87bd 2802 4e3c b670 98bd 3531 753d
000000f0: cb63 62bd d187 09bd 0fa3 573d 077c 49bd

bn2.weight f4 [64]
1.1578494 1.1736271 1.0841563 1.3647066 1.1572368 1.10527 1.1662753 1.3446959
1.0833193 1.2931955 1.1445588 1.2562451 1.0136138 1.1866007 1.187653 1.2376007
1.1096234 1.1961426 1.1253027 1.1617981 1.0695201 1.2254584 1.2429268 1.2974508
1.1551847 1.247591 1.098056 1.1720961 1.2584548 1.2190225 1.1963605 1.1274452
1.0469238 1.2797382 1.2190037 1.2120782 1.1276467 1.2392467 1.1971034 1.097243
1.0975637 1.1413654 1.1551765 1.1074867 1.2284575 1.0835025 1.2705399 1.103999
1.2916827 1.2200541 1.0445259 1.1618166 1.097772 1.2833691 1.108859 1.0581322
1.2099115 1.2148565 1.1705983 1.1215768 1.3088093 1.2098256 1.1933006 1.1718559
00000000: 6934 943f 6a39 963f a2c5 8a3f b5ae ae3f
00000010: 5620 943f 7d79 8d3f 8248 953f ff1e ac3f
00000020: 35aa 8a3f 6e87 a53f e780 923f a4cc a03f
00000030: 19be 813f 88e2 973f 0305 983f b369 9e3f
00000040: 2408 8e3f 331b 993f eb09 903f cdb5 943f
00000050: 09e6 883f d2db 9c3f 3a18 9f3f de12 a63f
00000060: 18dd 933f 10b1 9f3f 198d 8c3f 3f07 963f
00000070: 0c15 a13f ee08 9c3f 5722 993f 2050 903f
00000080: 9901 863f 76ce a33f 5008 9c3f 6125 9b3f
00000090: ba56 903f a39f 9e3f af3a 993f 7572 8c3f
000000a0: f87c 8c3f 4318 923f d3dc 933f 20c2 8d3f
000000b0: 183e 9d3f 36b0 8a3f 0da1 a23f d74f 8d3f
000000c0: dc55 a53f bc2a 9c3f 06b3 853f 68b6 943f
000000d0: cb83 8c3f 7045 a43f 17ef 8d3f e070 873f
000000e0: 61de 9a3f 6b80 9b3f 2ad6 953f d48f 8f3f
000000f0: 1087 a73f 91db 9a3f 13be 983f 60ff 953f

bn2.bias f4 [64]
0.13369364 0.15218322 0.16921507 0.26926658 0.11835244 0.17937233 0.23291461 0.30938306
0.11928597 0.1965145 0.13299854 0.20797996 0.03433648 0.19871214 0.22797595 0.2443024
0.14318968 0.18114848 0.11541967 0.14076708 0.07149898 0.21970354 0.24433263 0.24037597
0.1757761 0.21533303 0.10236014 0.17981414 0.20833561 0.20221564 0.09604249 0.16857743
0.018866368 0.08137149 0.17895886 0.20362523 0.15386796 0.20455536 0.1979762 0.18370248
0.19222572 0.22423711 0.20254584 0.17879231 0.2292424 0.10375198 0.27934298 0.1287369
0.28132972 0.21597426 0.122550264 0.20594335 0.18177141 0.25066763 0.12849702 0.10971398
0.14152367 0.2129997 0.202443 0.10415723 0.24032801 0.20272842 0.21644586 0.10807593
00000000: fce6 083e ebd5 1b3e b746 2d3e 4fdd 893e
00000010: c462 f23d 61ad 373e 2b81 6e3e 7567 9e3e
00000020: 344c f43d 193b 493e c530 083e b3f8 543e
00000030: 69a4 0c3d 327b 4b3e 8772 693e 692a 7a3e
00000040: 51a0 123e fd7e 393e 2661 ec3d 3f25 103e
00000050: 0f6e 923d f7f9 603e 5532 7a3e 1e25 763e
00000060: a6fe 333e 4380 5c3e 31a2 d13d 3321 383e
00000070: ee55 553e 9e11 4f3e edb1 c43d 909f 2c3e
00000080: a48d 9a3c 19a6 a63d fe40 373e 2283 503e
00000090: 908f 1d3e f676 513e 46ba 4a3e 811c 3c3e
000000a0: d2d6 443e 6a9e 653e 2d68 4f3e 5515 373e
000000b0: 85be 6a3e eb7b d43d 0b06 8f3e 9bd3 033e
000000c0: 730a 903e 5b28 5d3e a2fb fa3d d0e2 523e
000000d0: 4922 3a3e 8257 803e b994 033e b9b1 e03d
000000e0: 95eb 103e 981c 5a3e 384d 4f3e 6350 d53d
000000f0: 8c18 763e 0a98 4f3e fca3 5d3e ea56 dd3d

bn2.running_mean f4 [64]
0.37360337 0.12807228 -0.18501489 -1.3662194 1.1547953 -0.63346833 -0.29881898 0.29796985
-0.07519946 -1.5107038 0.35782346 0.9239801 -0.2172635 0.5618394 -0.34776103 0.40135348
0.15166555 0.62602866 0.95425177 -0.34805718 0.25540128 0.73665065 0.31878126 0.78526884
-0.21094295 0.55952895 0.5382944 -0.5595074 0.6262888 -0.74147564 0.97839296 -0.44104278
1.0409694 1.7977037 -0.4236302 -0.11928058 -0.1224363 -0.47475803 0.42905962 -0.38360614
-0.55321467 -0.4242708 -0.62686306 -0.46343377 0.6635583 -0.048678257 0.46184573 -0.3362318
0.3666985 0.6789674 -0.2761805 -0.40203732 -0.40730608 -1.5721223 0.14052522 0.04165735
1.0818537 0.76121056 0.14784114 0.15996437 -0.92253447 -0.777583 -0.32059076 0.7178697
00000000: f148 bf3e 6125 033e 8b74 3dbe 47e0 aebf
00000010: 55d0 933f fb2a 22bf cdfe 98be 818f 983e
00000020: 2d02 9abd be5e c1bf a334 b73e f689 6c3f
00000030: 537a 5ebe b5d4 0f3f bc0d b2be 347e cd3e
00000040: 374e 1b3e 6a43 203f d849 743f 8d34 b2be
00000050: f5c3 823e 2395 3c3f 4c37 a33e 6107 493f
00000060: 6e01 58be 4a3d 0f3f a9cd 093f e13b 0fbf
00000070: 7654 203f 59d1 3dbf f677 7a3f 5cd0 e1be
00000080: 7c3e 853f 281b e63f 0fe6 d8be 6049 f4bd
00000090: e2bf fabd 7c13 f3be b4ad db3e 0668 c4be
000000a0: 7a9f 0dbf 063a d9be 197a 20bf 3147 edbe
000000b0: f5de 293f da62 47bd 0b77 ec3e 9326 acbe
000000c0: e8bf bb3e cfd0 2d3f 8867 8dbe d6d7 cdbe
000000d0: 6c8a d0be 4e3b c9bf d8e5 0f3e e6a0 2a3d
000000e0: 2f7a 8a3f b2de 423f ab63 173e b3cd 233e
000000f0: 382b 6cbf ae0f 47bf 7924 a4be 4fc6 373f

bn2.running_var f4 [64]
2.9547095 2.6806223 4.1903815 3.4325445 2.5362859 4.204878 4.05727 4.305568
3.2093582 2.9673078 3.387835 3.8271918 2.468172 2.8253047 3.3607612 4.043408
2.5467117 3.8234754 2.9081147 1.9048587 2.7131956 2.7646248 4.6885324 4.753153
2.9874208 4.997121 2.590279 3.4302685 4.028424 3.7906938 2.1818726 4.555448
0.8296418 2.718837 3.755808 3.5313337 3.287314 4.3749366 1.992459 4.3192344
4.6186976 5.221116 4.381677 3.7270555 3.4998693 3.3468342 5.5177236 4.0994153
3.578456 3.1029453 3.8383827 3.9504373 3.7184243 3.208592 2.8945427 2.851064
1.5725335 4.074477 3.5939713 3.1871774 2.4244533 4.475018 2.988225 1.0651802
00000000: f619 3d40 518f 2b40 9b17 8640 cfae 5b40
00000010: 8252 2240 5c8e 8640 28d5 8140 37c7 8940
00000020: 2066 4d40 5fe8 3d40 4ad2 5840 b6f0 7440
00000030: 88f6 1d40 cbd1 3440 b616 5740 9963 8140
00000040: 53fd 2240 d2b3 7440 8d1e 3a40 69d2 f33f
00000050: ffa4 2d40 9def 3040 7508 9640 d419 9840
00000060: e731 3f40 6ae8 9f40 22c7 2540 8589 5b40
00000070: d9e8 8040 ba9a 7240 cda3 0b40 3bc6 9140
00000080: 6863 543f 6d01 2e40 295f 7040 5f01 6240
00000090: 5a63 5240 7bff 8b40 e608 ff3f 2b37 8a40
000000a0: 5fcc 9340 6213 a740 b336 8c40 1488 6e40
000000b0: dcfd 5f40 8832 5640 3191 b040 692e 8340
000000c0: 6c05 6540 a896 4640 10a8 7540 f7d3 7c40
000000d0: aafa 6d40 9259 4d40 3040 3940 d577 3640
000000e0: c748 c93f 1e62 8240 a003 6640 b7fa 4b40
000000f0: 3e2a 1b40 5933 8f40 143f 3f40 d357 883f

fc3.weight f4 [3, 64]
-0.2418164 -0.18144514 0.17606077 0.023550456 -0.14645995 -0.12632944 -0.094180726 0.053259075
0.17901842 0.04729542 -0.16538437 -0.0071869893 0.06468542 -0.16995831 -0.12804136 -0.17603344
-0.18145406 -0.07249263 0.074241936 -0.13780269 0.13369688 -6.438029e-06 -0.062225495 0.033602588
-0.07584707 -0.06689614 0.16544302 0.09972011 -0.117672645 0.020591995 -0.22518009 0.15724568
0.12190526 -0.14597936 -0.056738447 -0.0034789478 -0.09964369 0.017225707 0.100562714 0.14669548
0.14563662 0.17596391 0.1063558 0.14496902 -0.110065 0.16823499 -0.15587117 0.20576857
-0.086256705 -0.026319206 0.1149556 -0.060992595 0.21000764 0.079882525 0.15515946 0.15086114
0.22817786 -0.020962251 -0.20120896 0.058233663 0.16990788 0.10342131 -0.055850495 0.15499091
0.22634716 0.22325073 -0.086136565 0.04003364 0.22955255 0.18220554 0.13133754 -0.23748098
-0.08325788 0.10731776 0.11749679 -0.317507 0.0025704459 -0.10267908 -0.00554246 -0.14240474
-0.04384745 -0.21166198 -0.14816938 0.010256607 -0.04748868 -0.3795975 -0.26147163 -0.15047377
0.18386929 -0.20541431 -0.095114954 0.20336019 -0.27034223 0.11503385 0.28358066 -0.0052839406
-0.1781903 0.157261 0.15573618 0.1809953 0.21460186 0.15211743 -0.27664426 -0.07451276
0.0065420573 0.009964362 0.0078091086 -0.042674452 -0.36331597 -0.02263033 -0.43772367 -0.019277792
-0.35530892 -0.4129069 -0.06607739 0.14893797 -0.17469846 0.10628477 -0.09035533 -0.09102438
-0.25373548 -0.26068255 -0.17438163 -0.17799164 0.18503796 0.21376792 0.20511968 -0.24111006
-0.05242153 -0.28050894 -0.10729946 -0.508408 0.076615945 -0.38433596 -0.1685428 0.18327089
-0.15243435 -0.39426285 -0.21741946 0.23728481 -0.30636773 0.1997611 0.1501467 0.18381938
0.16710201 0.2695562 -0.14690384 0.22870512 -0.18974103 0.23149239 0.22881651 0.2887764
-0.30137765 0.19979891 -0.18309684 -0.35724097 0.2060059 -0.32226467 -0.052366253 -0.04094066
-0.07168882 -0.20861182 -0.22329783 -0.17872405 -0.29208916 -0.31001005 0.14617309 -0.13970926
-0.16687757 -0.13781732 -0.3224363 -0.27053016 0.16955794 -0.043319248 0.0853947 -0.01699255
0.059378237 0.19995543 -0.18826084 -0.3234144 -0.055720203 -0.36826167 -0.0062380363 -0.16860798
0.08281731 0.2411625 0.22174004 -0.15666148 -0.4838055 -0.23000403 0.22566216 0.082839526
00000000: b89e 77be c1cc 39be 4649 343e e3ec c03c
00000010: 99f9 15be 815c 01be d3e1 c0bd 3026 5a3d
00000020: 9b50 373e d8b8 413d 855a 29be d680 ebbb
00000030: ca79 843d 8d09 2ebe 461d 03be 1c42 34be
00000040: 18cf 39be 0477 94bd 280c 983d 261c 0dbe
00000050: d6e7 083e 3f06 d8b6 29e0 7ebd dea2 093d
00000060: b555 9bbd d800 89bd e569 293e 0f3a cc3d
00000070: 5bfe f0bd 8bb0 a83c 9c95 66be 0305 213e
00000080: 77a9 f93d 9d7b 15be 9366 68bd 0fff 63bb
00000090: fe11 ccbd ed1c 8d3c d3f3 cd3d 5737 163e
000000a0: c421 153e e22f 343e 12d1 d93d c272 143e
000000b0: c269 e1bd cb45 2c3e b19c 1fbe ffb4 523e
000000c0: 5ba7 b0bd 609b d7bc d76d eb3d 5fd3 79bd
000000d0: 3e0c 573e 7399 a33d 1fe2 1e3e 587b 1a3e
000000e0: 75a7 693e 07b9 abbc b909 4ebe 6c86 6e3d
000000f0: 55fc 2d3e 8dce d33d 7dc3 64bd f0b5 1e3e
00000100: 8dc7 673e d79b 643e 5e68 b0bd 50fa 233d
00000110: d30f 6b3e 1794 3a3e 597d 063e 372e 73be
00000120: 1b83 aabd 6ac9 db3d 28a2 f03d 4790 a2be
00000130: ed74 283b 6949 d2bd 869d b5bb 8cd2 11be
00000140: 6299 33bd ebbd 58be b7b9 17be 540b 283c
00000150: 7d83 42bd 9b5a c2be 9cdf 85be cc15 1abe
00000160: 3b48 3c3e 2158 52be a1cb c2bd a73d 503e
00000170: 4c6a 8abe de96 eb3d 7c31 913e e824 adbb
00000180: 8577 36be 0709 213e 4e79 1f3e d556 393e
00000190: 97c0 5b3e acc4 1b3e 51a4 8dbe 259a 98bd
000001a0: c15e d63b 9041 233c 8de3 ff3b 68cb 2ebd
000001b0: 8d04 babe 3e63 b9bc 511d e0be 76ec 9dbc
000001c0: 0deb b5be 8868 d3be 9553 87bd 3283 183e
000001d0: 27e4 32be d4ab d93d 370c b9bd fd6a babd
000001e0: 9ee9 81be 2f78 85be 1991 32be 7143 36be
000001f0: 977a 3d3e fae5 5a3e e50a 523e 8ee5 76be
00000200: f5b7 56bd de9e 8fbe d2bf dbbd 0727 02bf
00000210: d2e8 9c3d afc7 c4be 7c96 2cbe 5dab 3b3e
00000220: c017 1cbe d2dc c9be 35a3 5ebe cafa 723e
00000230: 3bdc 9cbe 2c8e 4c3e 0ec0 193e 263b 3c3e
00000240: ca1c 2b3e 4503 8a3e f66d 16be ad31 6a3e
00000250: 794b 42be 570c 6d3e e04e 6a3e 80da 933e
00000260: 2c4e 9abe 1698 4c3e bd7d 3bbe 4ae8 b6be
00000270: 36f3 523e e0ff a4be ff7d 56bd 65b1 27bd
00000280: 97d1 92bd 569e 55be 30a8 64be 7003 37be
00000290: b68c 95be a3b9 9ebe 66ae 153e f20f 0fbe
000002a0: f4e1 2abe fc1f 0dbe 5f16 a5be ee82 8abe
000002b0: 99a0 2d3e 866f 31bd 6be3 ae3d f633 8bbc
000002c0: 9836 733d 1ec1 4c3e 73c7 40be 9296 a5be
000002d0: de3a 64bd cb8c bcbe 7168 ccbb 92a7 2cbe
000002e0: 1f9c a93d 4df3 763e d20f 633e de6b 20be
000002f0: 5bb5 f7be 2d86 6bbe fb13 673e c5a7 a93d

fc3.bias f4 [3]
-0.07489425 -0.02263743 -0.07280333
00000000: 2862 99bd 2272 b9bc ea19 95bd
