app/core/models/gnn_model.pt (torch, 20188 bytes, 5 tensors)

conv1.bias f4 [64]
000000 64 11 94 3d 24 bd df 3d a0 4f bb 3c ca 7c c1 3d
       0.072298795 0.109247476 0.022865117 0.0944763
000010 d5 c0 a6 3d 98 59 b7 3d 9f 4f be 3d 8d 2f a1 3d
       0.081422485 0.089526355 0.0929253 0.07870398
000020 97 36 ca 3c 54 c5 f9 bb 0c 27 18 3b cc bf cc 3d
       0.024684234 -0.0076224003 0.0023216633 0.0999752
000030 e5 29 83 3d 97 eb ae 3d 74 52 c6 3d 42 a2 98 3d
       0.06404475 0.08541029 0.096836954 0.07452823
000040 19 c2 cf 3d b2 4f b6 3d 20 3a b3 3d 0d 9e 8a 3d
       0.10144443 0.089019194 0.08751321 0.06768427
000050 5a b0 9a 3d 30 15 df 3d 01 57 a5 3d b8 5e 95 3d
       0.07553168 0.10892713 0.08073235 0.07293457
000060 e7 ac 9f 3d 93 0a bb 3d 95 f9 96 bc 5a e1 36 3d
       0.077966504 0.09132876 -0.018429557 0.044648506
000070 f8 ba 01 be f8 da 10 be 22 8b 61 3d 6a 86 9c 3d
       -0.12668979 -0.1414603 0.055064328 0.07642825
000080 89 97 83 ba fd 25 cf bb 96 b0 92 3d 69 d5 76 bc
       -0.0010039668 -0.006321667 0.07162587 -0.015065529
000090 d3 ed d5 3d 34 33 81 bc b4 9b a9 3d 34 57 0d bb
       0.10445752 -0.015771486 0.08281651 -0.002156687
0000a0 c6 55 98 bc 29 1f cc 3d 60 39 ad 3d 4e 1e e1 3d
       -0.018595587 0.09966881 0.08458209 0.10992108
0000b0 a5 92 9b bb ac 3e be bc 43 f6 a5 3d fe 33 ce 3d
       -0.004747706 -0.023223244 0.08103611 0.100685105
0000c0 e1 ce 52 bc a6 65 af 3d 0c d9 db 3d b5 15 f3 3d
       -0.012866707 0.0856431 0.10734758 0.11869375
0000d0 43 f3 1d bd 48 39 db 3d f9 6f b1 3d fb 54 d3 3d
       -0.03856207 0.10704285 0.08663935 0.10318943
0000e0 bb 07 92 3d a8 b9 af 3d 7c a6 94 3d 72 c0 b3 3d
       0.07130381 0.08580333 0.07258317 0.087769404
0000f0 b4 f0 cd 3d da 2e 6d bd fb 07 b2 bc 9b bf 26 3d
       0.10055676 -0.05790601 -0.021732321 0.040710073

conv1.lin.weight f4 [64, 1]
000000 a4 19 ef be d9 26 49 3e de 32 1d bd 0b 28 2d 3e
       -0.4669925 0.19643725 -0.03837859 0.16909806
000010 a1 dd ac 3d ca 8e bd 3d bd 2c bd bd 61 7b a6 3d
       0.0844071 0.092557505 -0.09237049 0.081290014
000020 7d a0 c1 3d fc 09 c2 b9 f1 82 d9 bc 05 61 35 3e
       0.09454439 -0.00037010002 -0.026551696 0.17712791
000030 ef 0a 87 3d e3 d3 ae bd d2 2f ce 3d 5b d8 98 3d
       0.06593882 -0.08536508 0.10067715 0.074631415
000040 58 0d cc bd 6c f8 33 bd c6 39 b9 3d 4d 44 95 3d
       -0.099634826 -0.043938085 0.090442225 0.07288418
000050 5b 8e 9a bd 4e c4 47 3e cf a6 1f bd 05 ef 41 3e
       -0.075466834 0.19508478 -0.03897744 0.18938835
000060 c8 32 9e bd 34 17 b9 bd f3 ed 94 be 92 5a 40 3d
       -0.077245295 -0.09037629 -0.2908779 0.046961375
000070 20 72 a7 3e 71 50 ba 3e 0a 72 0f 3e c3 9d c5 bc
       0.32704258 0.36389497 0.14008346 -0.024123078
000080 cf 25 85 38 69 2d 87 bb cb 10 92 bd 22 15 f8 bb
       6.3489766e-05 -0.0041252864 -0.07132109 -0.0075708786
000090 7a 55 0d be 3d 92 76 be 6a 62 18 3e 1b c9 7b 3d
       -0.13802138 -0.24079223 0.14881292 0.061471086
0000a0 6a 84 37 3c fd 26 36 3e e1 85 5a 3e 4e d0 dc bd
       0.011201004 0.1778831 0.21340133 -0.107819185
0000b0 b5 f8 86 3d ea 50 bc be be d8 2c 3c 24 b9 38 3e
       0.06590406 -0.36780483 0.010549722 0.18039376
0000c0 44 6a b3 bb c1 d3 5c bc 81 a2 d8 bd f6 dd 5a 3e
       -0.0054753143 -0.01347822 -0.1057787 0.21373734
0000d0 6b 3f 53 3e e6 04 12 be 19 6e a6 3d a8 56 3d 3e
       0.20629661 -0.14259681 0.08126468 0.18490088
0000e0 b9 02 ec bc f8 28 b5 3d 71 47 95 bd 02 df b8 3d
       -0.028809892 0.08845705 -0.07289017 0.0902691
0000f0 38 0f 09 be 20 94 a8 3e c3 bd 85 3c 06 4b 20 3e
       -0.13384712 0.3292551 0.016325837 0.15653619

conv2.bias f4 [64]
000000 bf 07 68 bc 00 00 00 00 74 20 83 bc a1 69 bb 3d
       -0.014162003 0.0 -0.016006686 0.091510065
000010 12 ae ce bc dc f0 e7 bc 23 6e c0 3d 99 84 ba 3d
       -0.025229488 -0.028313093 0.09396007 0.09107322
000020 ef 0b bb 3d 4d fb f0 bc fb 50 c0 3d 25 b0 d3 3d
       0.091331355 -0.029416705 0.09390446 0.10336331
000030 26 01 72 bc 2c 24 b5 3d aa 6e 40 ba bd 55 d1 3d
       -0.014770782 0.0884479 -0.0007340709 0.102214314
000040 ff 0f b7 3d cb ef 56 bc 00 00 00 00 00 00 00 00
       0.08938598 -0.013118695 0.0 0.0
000050 00 00 00 00 37 2f d2 bc fc bd eb bc 07 a2 94 bc
       0.0 -0.02565728 -0.028777115 -0.018143667
000060 dc e8 c2 3d 3c 27 cb 3d 00 00 00 00 a2 bc c9 3d
       0.09517071 0.09919593 0.0 0.09850432
000070 00 00 00 00 ef fc 30 bc f0 1b 5c bc 9e 0d 35 bd
       0.0 -0.010802492 -0.013434395 -0.04420244
000080 ed 5d 47 bc 2e 66 ab 3d d8 c1 c1 3d f5 61 34 bc
       -0.01216839 0.083690986 0.09460801 -0.011009683
000090 f0 5e ba 3d 3e 1f 0d bc 59 6d 17 bd 28 93 cc 3d
       0.09100139 -0.008613406 -0.036969516 0.09989005
0000a0 18 5f 06 bd fc d0 b5 3d d1 5c 60 bc c9 16 98 bc
       -0.032805532 0.08877751 -0.013694004 -0.018565552
0000b0 00 00 00 00 24 d3 be 3d 0b fd be 3d c9 63 c2 3d
       0.0 0.09317616 0.09325608 0.09491689
0000c0 ef 8f cf 3d 00 00 00 00 d4 71 be 3d 4b bc 10 bd
       0.10134875 0.0 0.09299055 -0.03533582
0000d0 1e 9f be 3d 91 09 38 bc 0c 83 bf 3d b5 3d a4 bc
       0.09307693 -0.01123275 0.09351167 -0.020048955
0000e0 55 ff be 3d c3 f8 c4 bc 19 e2 bc 3d ba 5b 47 bc
       0.093260445 -0.0240444 0.09222812 -0.012167865
0000f0 24 17 ae bc be 3a 01 bd ad 23 ca 3d 16 a6 af bc
       -0.021251269 -0.03155016 0.09870086 -0.0214415

conv2.lin.weight f4 [64, 64]
000000 d4 e2 4e 3d 8a 87 9f 3c 1d 50 a6 bd cc a4 a0 bd
       0.05050929 0.01947381 -0.08120749 -0.078439325
000010 04 76 49 be ee b7 26 be 7e b0 c7 bc 3e 93 01 be
       -0.19673926 -0.16281101 -0.02437615 -0.12653825
000020 a6 74 08 be 77 4e 44 3e 4c 33 09 3e d8 31 cb bd
       -0.13325748 0.19170557 0.13398474 -0.09921616
000030 32 a4 29 bd bb be 5a be c9 6b 88 3d 35 35 c4 bd
       -0.041416354 -0.2136182 0.066611834 -0.09580461
000040 f1 f0 11 be bd b5 fc bd 94 94 02 be 31 76 4a be
       -0.14252068 -0.12339351 -0.1275199 -0.19771649
000050 34 ce d6 3d e7 67 c9 3c 63 b9 cd 3d 07 7c 5d be
       0.10488549 0.024585677 0.10045125 -0.21629344
000060 41 1d 3e bd dc 0c fe bd 90 09 e6 3d 93 68 06 3e
       -0.046414617 -0.124047965 0.11232293 0.1312583
000070 07 27 38 3e d9 48 23 3e 74 1d 18 bd e0 32 2c bd
       0.17983638 0.15945758 -0.037137464 -0.042040706
000080 67 28 ee 3b f6 0a d7 3d 98 1a 3c bc 3f a5 e2 bb
       0.007268 0.105001375 -0.01148095 -0.0069166715
000090 c1 6b 9c bd aa 6e 3d 3d 0d e7 8e 3d cb aa 86 bd
       -0.0763774 0.046248116 0.06977663 -0.06575545
0000a0 3b 45 07 be 78 2a 80 bd cc 15 e6 3c 56 95 e3 3c
       -0.13210003 -0.062581 0.028086565 0.02778117
0000b0 35 0a 01 3e fb 72 9f 3d 55 c9 38 3e a2 04 28 3e
       0.1260155 0.07785603 0.18045552 0.16408017
0000c0 da 49 fc 3d 06 d5 17 3e 64 de ce bd 82 71 d3 3c
       0.123187736 0.14827356 -0.101010114 0.02581096
0000d0 6c ac cd 3d 8f c4 22 bc ff 78 06 3e d0 5c 81 bc
       0.100426525 -0.0099345585 0.13132094 -0.015791327
0000e0 18 be 3c 3e f9 af 7a bd 9c 49 41 bc 5f 0a 19 be
       0.1843189 -0.061202977 -0.011797335 -0.14945363
0000f0 84 94 cd bb d9 2b d3 3d 24 9c 4f 3e 16 79 50 be
       -0.006273808 0.10311098 0.20274407 -0.2035869
000100 96 2e 59 3d ba 8b 9b 3d 82 67 85 3d 45 e1 a7 3c
       0.053022943 0.0759501 0.06513883 0.02049316
000110 9c 9a 86 bd 49 04 d1 bd 5a f9 bb bb 3e 29 cc 3d
       -0.06572458 -0.102058955 -0.005736512 0.09968804
000120 d9 14 9d bd ea 9d 61 3d cf ac 3c 3e 4a 35 a9 3d
       -0.07669992 0.05508224 0.18425296 0.08262117
000130 62 43 51 bd 92 e3 d6 bd 3c 7b b8 3d 0a 8f 36 3e
       -0.051089652 -0.10492624 0.0900788 0.17828003
000140 a4 91 9b bc 97 6e 3f bd 0e b8 f3 3d 2c 7b 42 3e
       -0.018990345 -0.046736326 0.1190034 0.18992299
000150 84 4a 66 bd 33 43 f1 3c b7 bf 30 be a9 07 f4 3c
       -0.056223407 0.029450988 -0.17260633 0.029788809
000160 66 f8 32 be 05 75 36 be c6 65 8c bd 9f 2a 4b be
       -0.17477569 -0.17818077 -0.06855349 -0.19840477
000170 1a 08 c9 3d 92 23 52 be 15 8b 74 bd a7 4e 04 be
       0.098159984 -0.20521381 -0.05970295 -0.12920628
000180 62 64 a4 3d 18 8e 01 3d a2 3f 56 3d 1d f2 39 be
       0.08026959 0.03162965 0.05230678 -0.18158765
000190 ac 9e 7e bd cc 10 ea bd d9 d0 21 be a9 9d 47 be
       -0.06216304 -0.11428985 -0.15802325 -0.19493736
0001a0 ea a0 4c 3e d9 b5 14 be 21 da e9 3d 1c 63 3b 3e
       0.19983259 -0.14522494 0.11418558 0.18299526
0001b0 48 f9 f1 bb 64 be 89 bd 78 0f 22 be b9 1e c6 bc
       -0.007384453 -0.06725767 -0.15826213 -0.024184572
0001c0 ba 23 3a 3e 11 e8 09 bd 71 25 04 3c e7 c6 96 bd
       0.18177691 -0.03366858 0.008065567 -0.07362156
0001d0 9e 4b b3 bd b0 30 26 bd 10 a2 d6 bb 44 2f 39 be
       -0.08754657 -0.040573776 -0.006550081 -0.18084437
0001e0 a1 a7 b0 bc e7 64 14 be 6f 3a e2 bd a4 51 58 bd
       -0.021564307 -0.14491616 -0.110463016 -0.052812234
0001f0 8d b4 4b be ac 57 21 be 7b 02 6f bd 47 26 47 3e
       -0.19893093 -0.157561 -0.058351975 0.19448195
000200 d8 66 3c be 6f 7e 83 bd 54 b7 2e 3d 45 d4 96 3d
       -0.18398607 -0.064206 0.042655304 0.07364706
000210 1a ae 85 bd 2a 4b 48 3d ce 04 17 bd d7 b9 02 be
       -0.06527348 0.048899807 -0.036869816 -0.12766205
000220 61 69 2b 3e 06 88 1c 3e 8b 00 27 be ab 40 9b bd
       0.16739418 0.15286264 -0.16308801 -0.07580694
000230 ec 77 74 3d c3 27 bb 3d 2a e7 47 3e be d4 4f bb
       0.05968468 0.09138443 0.19521776 -0.0031712498
000240 50 f0 3a 3e 97 c7 4a 3e 19 2e 7d bd 41 d6 1c be
       0.18255734 0.198027 -0.06181154 -0.15316106
000250 21 b7 ea bc 12 7e 35 be d0 71 ff bc a7 38 25 3d
       -0.028651776 -0.17723873 -0.0311822 0.04033723
000260 15 52 51 3e 80 9f 96 bd 8d 19 bc bc bb c1 bd bd
       0.20441468 -0.07354641 -0.022961402 -0.09265467
000270 21 eb f9 3d 99 58 e8 bd f4 e2 5a 3d 50 48 4b 3e
       0.122030504 -0.11345024 0.053439096 0.19851804
000280 5c fc c9 bd e3 72 ec bd 58 13 98 3d ab 2b f9 3d
       -0.09862587 -0.115453504 0.074255645 0.12166532
000290 77 05 46 3e a4 e0 fe bd 81 4e ff bd d0 fb 62 bc
       0.19338022 -0.124451905 -0.12466145 -0.013853982
0002a0 04 cc dc bc 4a 81 48 3e 9a 99 2a 3d 3f 11 ef 3d
       -0.026952751 0.1958057 0.041650392 0.11673211
0002b0 62 56 40 be 74 0e af bd 9b b1 6a be b5 a4 12 be
       -0.18782952 -0.085476786 -0.22919314 -0.14320643
0002c0 df b9 ca bc 32 77 20 3d 05 62 42 be fa ba 2a 3d
       -0.024746833 0.039176174 -0.18982704 0.04168222
0002d0 37 a9 79 3d e6 8e 3b be b1 a1 1b 3d fc c9 4a be
       0.06095239 -0.1831623 0.037995998 -0.19803613
0002e0 59 05 1f 3e 77 14 0a bd 21 22 1c 3e 02 3d dc 3d
       0.15529384 -0.033710923 0.15247394 0.10753824
0002f0 f8 01 1d be fc e9 37 3d cb ff 31 3e 38 6d 0a 3c
       -0.15332782 0.04490088 0.17382734 0.008448891
000300 9d 9c 3e 3e a8 e2 3d 3e 7a 53 5f 3c 5f 26 99 bd
       0.1861443 0.18543494 0.013630742 -0.07478022
000310 31 5c 0f 3e 64 6b 8c 3d 81 6f 2c bd 2b c0 bf 3d
       0.14000012 0.06856421 -0.042098526 0.09362825
000320 aa 07 06 be 50 1b 47 3d cd 29 21 3d 50 0d 7e 3e
       -0.13088861 0.04861003 0.039346505 0.24809766
000330 d8 af 4b 3e 61 d2 29 bb 69 8c 06 3e e2 63 9c bd
       0.19891298 -0.002591275 0.131395 -0.07636239
000340 74 da 81 3e 6f 86 da bd b4 60 15 3d 76 96 87 bd
       0.2536198 -0.106701724 0.036469176 -0.06620495
000350 e1 fc 76 3e 10 7d 61 3e 69 76 2d bd 8f 91 ff bc
       0.24119903 0.22020364 -0.042349253 -0.031197337
000360 41 f6 2d 3e 5a 90 5e bd f1 47 74 3b 03 a8 e3 bd
       0.1698847 -0.054336883 0.0037274326 -0.1111603
000370 fa 72 eb bd ff ae dc be c3 e2 05 be ed ae 06 be
       -0.114965394 -0.4310226 -0.13074784 -0.13152666
000380 a4 e2 01 3e 32 35 41 3e 3a 27 c2 bd 21 ba 30 be
       0.12684113 0.18867949 -0.09480138 -0.17258503
000390 16 b1 38 3e 93 be 92 bd fc f0 0e 3e 8d 21 65 3e
       0.18036303 -0.071652554 0.13959116 0.2237608
0003a0 a5 4e 3f be a2 ea 59 bd e5 e9 d1 bd 00 10 b5 bd
       -0.18682344 -0.05320228 -0.1024969 -0.088409424
0003b0 9c 32 37 be 10 f3 6b be c3 2b 93 3d 28 66 3f 3e
       -0.178904 -0.2304194 0.07186081 0.18691313
0003c0 88 e9 13 bd 63 9e 70 bd 9a 29 4a 3e 70 f7 bb 3a
       -0.036111385 -0.0587448 0.19742432 0.001434071
0003d0 2a 60 3f bd 6e 9f 1d 3e da 41 11 3e 50 c9 e5 3d
       -0.04672257 0.15392849 0.14185277 0.11220038
0003e0 0c 98 2d 3e e9 19 8c 3e 2b ee 36 3e 92 3f be bc
       0.16952533 0.27363518 0.17864291 -0.023223672
0003f0 aa 4c 17 be 31 7b b3 3e 6c 60 9b bd f9 89 2d 3d
       -0.14775339 0.35054925 -0.075867504 0.04236791

fc.weight f4 [1, 64]
000000 42 bc ce bd a0 b9 9c bb 8e 56 d2 bd 9c 28 d4 3d
       -0.10094501 -0.0047828704 -0.10270415 0.10359308
000010 e3 9c 21 bd 27 d1 6c bd fe 90 1b 3e 5a ff ef 3d
       -0.03945626 -0.05781665 0.15192029 0.11718626
000020 6d f1 dc 3d b9 6f 86 3b 99 be 2d 3e 9f 9c b1 3d
       0.10788236 0.004102674 0.16967238 0.08672451
000030 ab 50 cf bd 43 8d a2 3d 37 4e 2a bb d1 49 2c 3e
       -0.10122808 0.079371 -0.002598656 0.16825034
000040 49 c1 bb 3d 27 3c a8 bd 80 02 b6 3d 38 27 2c 3d
       0.091677256 -0.08214598 0.088871956 0.04202959
000050 20 c6 ee 3d e2 94 e3 bd 52 ab 28 bc 85 3b db bd
       0.11658883 -0.111123815 -0.010294752 -0.10704712
000060 4c 27 69 3d 10 e8 18 3e 00 0d d9 bc 04 ef e0 3d
       0.056922242 0.14932275 -0.026495457 0.109830886
000070 40 8b 1c 3c ad 73 6d bd 0b 34 e2 bd 6f ef 70 bb
       0.009554684 -0.057971645 -0.11045083 -0.0036763807
000080 b7 60 29 bd 0d 19 65 3d 33 64 ad 3d 00 55 6a 3b
       -0.041352 0.055932093 0.08466377 0.003575623
000090 6e 5a ed 3d 40 fd b8 bd 5f ea 06 be fc c2 fb 3d
       0.11589514 -0.090326786 -0.13175343 0.1229305
0000a0 80 91 be bd d9 67 78 3d 1f 5e 1b bb 8b 62 d4 bd
       -0.09305096 0.06064591 -0.0023707224 -0.10370358
0000b0 60 82 54 3c 16 89 2b 3e 06 96 aa 3d 85 43 13 3e
       0.012970537 0.16751513 0.08329396 0.14381225
0000c0 c4 da 27 3e fe 12 9d bd 84 fa 16 3e 7d 57 34 ba
       0.16392046 -0.07669638 0.14744002 -0.0006879492
0000d0 51 c1 26 3e 05 3e 2e bd 34 0f e0 3d d0 92 57 bd
       0.16284682 -0.042539615 0.109404 -0.052630246
0000e0 fa bf 16 3e af fd 52 ba 62 ae 0c 3e 79 79 41 bd
       0.14721671 -0.0008048666 0.13738397 -0.047234986
0000f0 88 6e c0 bd 5e 55 fa 3a fb 64 3c 3e 3e 7b 93 bd
       -0.09396082 0.0019098928 0.18397896 -0.07201241
