app/core/models/vae_model.pt (torch, 61396 bytes, 10 tensors)

fc1.weight f4 [128, 7]
0	0xbdece1ed	-0.115665294
1	0x3e816db4	0.2527901
2	0xbe8a87d3	-0.2705675
3	0x3e9dd095	0.30823198
4	0xbe00ac4f	-0.1256573
5	0xbea825c3	-0.3284131
6	0xbeb6efe3	-0.35729894
7	0x3dd82ac6	0.105550334
8	0x3e9ef8fc	0.31049335
9	0x3eaeec06	0.34164447
10	0x3d99d6ce	0.07511674
11	0xbeb552e8	-0.35414815
12	0x3ea0342c	0.31289804
13	0x3e05264b	0.13002889
14	0x3d711057	0.058853474
15	0x3d8696f8	0.06571764
16	0xbc17f048	-0.009273596
17	0x3e298940	0.16556263
18	0xbe6ba234	-0.23011094
19	0x3dc67323	0.09689929
20	0x3e2e9ba4	0.1705156
21	0xbda3e298	-0.08002204
22	0xbe2cdf51	-0.16882063
23	0xbe6c3069	-0.23065342
24	0xbd74cd3b	-0.059766036
25	0x3e718495	0.23585732
26	0xbc7e4034	-0.015518237
27	0x3e882b10	0.26595354
28	0x3d8042c5	0.06262735
29	0x3e5240c3	0.20532517
30	0xbd98f6a4	-0.07468918
31	0xbe02100c	-0.12701434
32	0xbe91ea19	-0.28498915
33	0x3da33639	0.079693265
34	0xbe513f09	-0.20434202
35	0xbdae1c81	-0.085015304
36	0x3e960061	0.29297164
37	0xbd109df7	-0.035306897
38	0x3dbcaca3	0.09212615
39	0x3e7c0bc7	0.24613868
40	0xbeb7bd32	-0.35886532
41	0xbd6e4468	-0.058170706
42	0x3daa19e6	0.08305721
43	0x3ea2a39f	0.31765458
44	0xbe42695c	-0.18985504
45	0x3e7744bb	0.24147312
46	0xbc67d2c1	-0.014149369
47	0xbe047aa5	-0.1293741
48	0xbeb63801	-0.35589603
49	0x3d8073fc	0.06272122
50	0x3e9b948b	0.30386767
51	0x3d6b134a	0.057391442
52	0x3e97efc5	0.29675117
53	0xbe5ccd4a	-0.21562687
54	0x3db28849	0.087174006
55	0x3e4689ca	0.193885
56	0xbdc4dcc6	-0.09612422
57	0x3e6637c3	0.22482209
58	0xbe73f520	-0.23823977
59	0xbe97ed64	-0.29673302
60	0x3dd528bc	0.1040816
61	0xbe605784	-0.21908385
62	0xbdfd9599	-0.12382049
63	0xbeae3e39	-0.34031847
64	0x3e220a87	0.15824328
65	0x3e391167	0.18073045
66	0xbe02c3af	-0.1276996
67	0xbeae8f08	-0.340935
68	0xbe3323f6	-0.17494187
69	0xbe45304c	-0.19256705
70	0xbdc2260c	-0.09479913
71	0xbd88c649	-0.06678445
72	0xbe8592ba	-0.26088506
73	0x3e6b8144	0.2299853
74	0x3e929576	0.28629655
75	0xbe132c08	-0.14372265
76	0xbe326fcf	-0.17425464
77	0x3cad6515	0.021166364
78	0xbd710375	-0.058841188
79	0x3db1a279	0.08673567
80	0x3eb90734	0.36138308
81	0x3d0aeca2	0.033917077
82	0xbea51136	-0.32239693
83	0x3e681883	0.226656
84	0x3df9326a	0.12167819
85	0xbead3cf0	-0.33835554
86	0xbe4d3ec7	-0.20043479
87	0x3eaa0061	0.33203414
88	0x3eb69912	0.35663658
89	0x3d71fd1e	0.059079282
90	0xbea0ae7e	-0.31383127
91	0xbd9ea1da	-0.077457145
92	0xbe3c8223	-0.18409018
93	0x3de11711	0.10990728
94	0x3e66bc1f	0.225327
95	0x3e8871ef	0.26649424
96	0x3ebedf17	0.3727958
97	0x3e892538	0.26786208
98	0xbe3cc44a	-0.18434253
99	0xbe23c841	-0.1599436
100	0x3cecb356	0.028894108
101	0x3dfb1a98	0.12260932
102	0xbe7661b9	-0.24060716
103	0x3e9a3221	0.3011637
104	0xbe0b764a	-0.13619342
105	0xbe87467a	-0.26420957
106	0x3cbb6067	0.022873117
107	0x3e23bf95	0.15991051
108	0x3b1151c2	0.0022173976
109	0x3ce466db	0.027881077
110	0x3dbf1a31	0.093311675
111	0x3e2d5b93	0.16929464
112	0xbd903846	-0.07041983
113	0x3e6f2c6f	0.23356794
114	0x3e30aa8c	0.17252558
115	0x3e5d066e	0.21584484
116	0x3eb21c5f	0.3478727
117	0xbd9c4982	-0.07631208
118	0xbde99791	-0.11405862
119	0x3e6ebf96	0.23315272
120	0x3d46be22	0.04852117
121	0xbe5cc63f	-0.2156
122	0xbc8ea932	-0.017414663
123	0x3e247769	0.16061176
124	0xbe49b785	-0.19698913
125	0x3e19b53a	0.15010539
126	0xbe9c043a	-0.30471975
127	0xbe4d7a6d	-0.20066233
128	0xbdcfd67a	-0.1014833
129	0xbdc5c245	-0.096561946
130	0x3e4d5bd6	0.20054564
131	0xbca0de0c	-0.01963713
132	0x3e126784	0.142973
133	0xbe9480de	-0.29004568
134	0x3c15f9b4	0.009153772
135	0xbe76be17	-0.24095951
136	0xbeae2295	-0.3401076
137	0xbdcbd5bf	-0.09952878
138	0x3e0622c6	0.13099203
139	0xbe2199fc	-0.15781397
140	0x3e8497ae	0.25896972
141	0x3eaf7d4f	0.3427529
142	0xbe33e974	-0.17569524
143	0xbe2b6e4c	-0.16741294
144	0xbe77f163	-0.24213175
145	0xbe82f1aa	-0.25575
146	0xbe3977ee	-0.18112156
147	0xbe6f7ba2	-0.23387006
148	0x3e3c9061	0.18414451
149	0x3e8d176e	0.27556938
150	0x3d75fa6f	0.060053285
151	0x3eac0f27	0.3360531
152	0x3cf2a50c	0.029619716
153	0x3e203879	0.15646543
154	0xbe1add9d	-0.15123601
155	0xbd5f6272	-0.054537244
156	0x3dc90157	0.09814709
157	0x3e9ec35d	0.31008425
158	0x3e8b127d	0.27162543
159	0xbeb9ce70	-0.36290312
160	0xbe98dff4	-0.29858363
161	0x3cb0ac6a	0.021566588
162	0xbe9bf6fd	-0.30461875
163	0xbea915af	-0.33024356
164	0xbe899566	-0.26871794
165	0x3de8e9eb	0.11372741
166	0x3dcee3da	0.10102053
167	0xbddd201e	-0.107971415
168	0x3e28c3ef	0.16480993
169	0xbeaaf992	-0.33393532
170	0xbe846ba9	-0.25863388
171	0x3e92c17e	0.28663248
172	0x3e985024	0.29748642
173	0x3e17f1c5	0.14838322
174	0x3e8a022e	0.26954788
175	0xbd919903	-0.07109263
176	0x3eb1e291	0.3474317
177	0x3bf5abd0	0.0074972883
178	0x3e4c5394	0.19953758
179	0xbd7a36c9	-0.061087403
180	0x3dd0c0c5	0.10193018
181	0xbdd85142	-0.10562374
182	0xbe8f6c3e	-0.2801227
183	0x3e8c4406	0.27395648
184	0xbe4dd765	-0.20101698
185	0x3e9905f5	0.29887357
186	0x3eabc1a0	0.33546162
187	0xbe37d04c	-0.17950553
188	0xbd9dca36	-0.07704584
189	0x3e996139	0.29956988
190	0x3dcf44c6	0.10120539
191	0x3eb76e29	0.35826233
192	0xbeb5c310	-0.35500383
193	0xbdc96c7f	-0.09835147
194	0xbe6a12ba	-0.22858706
195	0x3caa8330	0.020814508
196	0x3e1875bc	0.14888662
197	0xbe48a933	-0.19595794
198	0xbe9fe019	-0.3122566
199	0x3d5863dc	0.05282961
200	0xbe69b34e	-0.22822306
201	0xbd9c0fe2	-0.07620217
202	0xbd9f8abe	-0.07790135
203	0xbe4e18c4	-0.20126635
204	0xbdfd2579	-0.12360663
205	0x3eab0107	0.3339922
206	0xbd91bfc5	-0.07116655
207	0xbe01f45f	-0.12690876
208	0x3c99bc60	0.018766582
209	0x3df3592d	0.11882243
210	0x3e86c7e4	0.2632438
211	0x3ca04d1f	0.019568024
212	0xbe026741	-0.127347
213	0xbc1c54d4	-0.009541709
214	0xbe835c9a	-0.25656587
215	0x3e8defc5	0.27721992
216	0xbdbeb563	-0.093119405
217	0xbe150b5a	-0.14555112
218	0xbe182353	-0.14857225
219	0x3e7018ce	0.23446962
220	0x3df08d77	0.11745732
221	0x3ea700ee	0.32617897
222	0x3e9626ea	0.29326564
223	0xbda2f52a	-0.079569176
224	0x3e9ae3ed	0.3025202
225	0x3e1fc2d3	0.15601663
226	0xbd78177e	-0.06056928
227	0x3e1fb008	0.15594494
228	0xbe898ace	-0.26863712
229	0x3e540fb3	0.20709114
230	0x3eb6f7f8	0.3573606
231	0xbe6291e2	-0.22125962
232	0xbe0f2c42	-0.13981727
233	0xbe73f527	-0.23823987
234	0xbdfbef90	-0.12301552
235	0xbe835c23	-0.25656232
236	0x3e8b02a3	0.2715045
237	0xbeb734c8	-0.35782456
238	0xbbff6c9b	-0.007794929
239	0xbe1f2eda	-0.15545216
240	0xbd937bf8	-0.072013795
241	0xbe850f2d	-0.2598814
242	0x3e6efdfb	0.23339073
243	0xbc89f81e	-0.016841944
244	0xbea93202	-0.33045965
245	0xbeb8c8ce	-0.36090702
246	0x3dca85bf	0.09888791
247	0xbeabd20a	-0.33558685
248	0x3df51690	0.11967194
249	0xbe3851da	-0.17999974
250	0xbe30d26d	-0.17267771
251	0x3ea2383f	0.31683537
252	0xbe36c03a	-0.17846766
253	0xbea7bd65	-0.32761684
254	0xbd5d3f19	-0.054015253
255	0xbe7a4539	-0.24440469

fc1.bias f4 [128]
0	0x3e225601	0.1585312
1	0x3ba2f39f	0.0049728896
2	0xbe68ea31	-0.22745587
3	0x3c2431eb	0.010021667
4	0x3eae82f3	0.3408428
5	0x3ea65b24	0.3249141
6	0x3e8160bd	0.25269118
7	0x3cf5150c	0.029917262
8	0xbe5ef92d	-0.2177474
9	0x3dedb5ab	0.11606916
10	0x3df41316	0.11917703
11	0x3d92a8f3	0.07161131
12	0x3dcfc2d4	0.101445824
13	0xbea6c09e	-0.3256883
14	0xbebce0e8	-0.3689034
15	0x3da901a5	0.08252267
16	0xbeb69bd1	-0.35665753
17	0x3da4414c	0.08020267
18	0x3d88a66b	0.06672367
19	0x3e715781	0.23568536
20	0x3e0790f9	0.13238896
21	0xbea875de	-0.32902426
22	0x3e8cf936	0.27533883
23	0xbdc0af84	-0.09408477
24	0x3ebed787	0.3727381
25	0xbe843f44	-0.25829518
26	0x3e061af2	0.13096216
27	0xbe3aaf25	-0.18230875
28	0xbebbcc22	-0.36679178
29	0x3cbae2c0	0.022813201
30	0x3eb4a8cc	0.35285032
31	0x3df01a66	0.11723785
32	0xbd844061	-0.06457592
33	0x3eb16996	0.34650868
34	0xbe3e81ba	-0.18604174
35	0x3e9da977	0.30793354
36	0xbec467da	-0.38360482
37	0xbe9d43ca	-0.3071578
38	0x3e8e9ec9	0.27855518
39	0xbe5469c8	-0.20743477
40	0xbe068a67	-0.13138734
41	0x3e8df133	0.27723083
42	0x3eb65013	0.35607967
43	0xbe85927d	-0.26088324
44	0xbdae9c8d	-0.085259534
45	0x3d0e6315	0.03476246
46	0xbea6e116	-0.32593602
47	0xbe8248bf	-0.25446126
48	0x3df14955	0.11781565
49	0xbdc32f3f	-0.09530496
50	0xbe24f1f6	-0.16107926
51	0x3d9c40f1	0.07629574
52	0xbe82f7b9	-0.25579622
53	0x3e9044ac	0.28177392
54	0xbd6faf3b	-0.058516722
55	0x3e947a1a	0.28999406
56	0xbe848686	-0.25883883
57	0xbe61060a	-0.2197496
58	0x3e16cf31	0.14727475
59	0x3dec7980	0.11546612
60	0xbd99db07	-0.07512479
61	0xbd42d872	-0.0475697
62	0x3e05ca21	0.13065387
63	0xbdc4af44	-0.09603742
64	0xbe2f6b83	-0.17130856
65	0x3e81cab9	0.25349978
66	0x3d614c4e	0.05500441
67	0xbe5c90d7	-0.21539627
68	0x3e149e8a	0.14513603
69	0x3d9c248a	0.07624157
70	0x3e9b2a8d	0.303059
71	0xbeb0cca7	-0.34531137
72	0xbe393bb8	-0.18089187
73	0x3e5de51c	0.2166943
74	0x3ea31620	0.31852818
75	0x3dcef3d1	0.10105098
76	0xbd7eacac	-0.06217639
77	0xbce2cdd8	-0.027686045
78	0xbe63fb98	-0.22263944
79	0x3e37c010	0.1794436
80	0x3c92aa89	0.017903583
81	0xbe9f68ab	-0.31134543
82	0x3e943464	0.2894622
83	0x3dc45bcc	0.09587821
84	0x3d8200aa	0.06347783
85	0x3e1f29e1	0.1554332
86	0xbe353b16	-0.17698321
87	0x3e83cef4	0.2574383
88	0x3e84665a	0.25859338
89	0xbe670cad	-0.22563429
90	0xbc1c6130	-0.009544656
91	0x3e1f0ac1	0.15531446
92	0xbdeddf3b	-0.116148435
93	0xbd899a49	-0.06718881
94	0x3ea6ce81	0.32579425
95	0xbcbfc6f9	-0.023410307
96	0x3e13a905	0.14419945
97	0x3be699ae	0.007037363
98	0xbe879a66	-0.26484984
99	0xbe0c4928	-0.13699782
100	0xbe71d57d	-0.23616596
101	0xbe51f549	-0.20503725
102	0x3e416286	0.1888524
103	0x3cf1eb69	0.029531198
104	0xbea6ffb2	-0.32616955
105	0xbdba1311	-0.09085668
106	0x3e89bfdd	0.26904193
107	0xbe40fde6	-0.18846855
108	0x3e13a869	0.14419712
109	0xbe047dfe	-0.12938687
110	0xbe17ba6e	-0.14817211
111	0xbdafe0c2	-0.08587791
112	0xbdbdd2ad	-0.09268699
113	0x3d484493	0.048893522
114	0xbdd8e85e	-0.105911955
115	0x3eaf3e03	0.34227
116	0x3e874719	0.2642143
117	0x3e6a199d	0.22861333
118	0x3df1ffb0	0.11816347
119	0xbc41546a	-0.011799911
120	0xbe3ff6ab	-0.1874644
121	0x3e519d7c	0.20470232
122	0x3dc1305b	0.09433051
123	0x3becd20c	0.007227188
124	0xbe789252	-0.24274567
125	0xbd5e7405	-0.054309864
126	0x3eabf513	0.33585414
127	0x3e0a2d3b	0.13493817

fc_mu.weight f4 [32, 128]
0	0x3d066fd9	0.03282151
1	0xbcae0f5b	-0.021247556
2	0xbded1863	-0.11576917
3	0x3d82b934	0.06382981
4	0xbd278382	-0.0408969
5	0xbac0e50d	-0.00147167
6	0x3d915871	0.07096947
7	0x3d0e48e9	0.0347375
8	0x3d4d9dec	0.050199434
9	0x3ca6e4f8	0.020372853
10	0xbd57a535	-0.052647788
11	0x3ce406dc	0.027835302
12	0xbc51830a	-0.01278759
13	0xbc730b6f	-0.014834269
14	0xbd2db494	-0.04240854
15	0x3dc11c42	0.09429218
16	0x3c3f4a95	0.011675497
17	0x3da7e76f	0.08198439
18	0x3cc1d153	0.023659384
19	0x3b9eb72c	0.004843613
20	0xbcfbd81f	-0.030742703
21	0x3db95c1a	0.0905077
22	0x3d5eebd6	0.05442413
23	0xbbda1f56	-0.0066565676
24	0x3cadbf16	0.021209281
25	0x3d2d69d2	0.042337246
26	0x3cfc4472	0.030794356
27	0x3d1c2d91	0.038129393
28	0xbb2849e5	-0.002567881
29	0xbc35338e	-0.011059655
30	0xbd22ec7d	-0.039776314
31	0xbc3503e8	-0.011048295
32	0xbdb23061	-0.08700634
33	0xbdd1cdc2	-0.10244323
34	0x3cb26d3d	0.021780604
35	0xbc1c0197	-0.009521863
36	0x3c95e6fb	0.018298617
37	0xba5b0e21	-0.00083562924
38	0x3ca65d9d	0.02030831
39	0x3db917f8	0.09037775
40	0xbb505c3c	-0.0031793257
41	0xbdf19e24	-0.11797741
42	0x3deb16ba	0.11478944
43	0x3cb86d37	0.022513015
44	0x3d428b8f	0.047496375
45	0xbcee2d56	-0.029074352
46	0x3ddd1fe3	0.107970975
47	0xbcf15aed	-0.029462302
48	0x3d8c11e5	0.068393506
49	0x3cf3f6cf	0.029780773
50	0x3cdf2e07	0.027243627
51	0xbd5e778a	-0.05431322
52	0xbc2db9de	-0.010603396
53	0x3d7ab629	0.061208878
54	0x3cbfeeda	0.023429323
55	0xbc864359	-0.016389536
56	0x3d1f6494	0.03891428
57	0x3c6234c7	0.013806528
58	0x3d644bad	0.055736233
59	0x3d814a53	0.06313004
60	0xbda65bf5	-0.08123008
61	0xbd45d01a	-0.048294164
62	0xbe008541	-0.12550832
63	0xbb4d4fdd	-0.003132812
64	0x3b15df1b	0.0022868577
65	0x3d4a6434	0.049411967
66	0x3affdb67	0.0019520343
67	0x3c867f1f	0.016418038
68	0x3a9295b9	0.0011183537
69	0xba7b505d	-0.0009586865
70	0xbda9848b	-0.08277234
71	0x3c8e7cab	0.01739343
72	0xbc554823	-0.013017687
73	0xbdbe0dfc	-0.09280011
74	0xbdd708e0	-0.1049974
75	0xbd951df7	-0.07281106
76	0xbd0d4916	-0.03449353
77	0x3d63b978	0.0555968
78	0x3d0ff3dc	0.03514467
79	0xba2e6da9	-0.0006653914
80	0xbca24b61	-0.019811334
81	0xbd46e0da	-0.04855428
82	0x3da132bd	0.07871006
83	0xbc95425c	-0.01822012
84	0x3c3a287a	0.011362189
85	0x3da6cb94	0.08144298
86	0x3ceec124	0.029144831
87	0x3d0a4b77	0.033763375
88	0x3d0fb3ed	0.0350837
89	0x3d94bbb1	0.07262362
90	0x3d6c67a3	0.057716023
91	0x3da66e1d	0.08126471
92	0x3ce8ef64	0.028434463
93	0xbd95209b	-0.072816096
94	0x3d211169	0.039323244
95	0x3d13ba47	0.03606632
96	0xbda14b95	-0.07875744
97	0x3d722665	0.059118647
98	0xbdb2ff47	-0.087400965
99	0xbd842b17	-0.06453531
100	0x3db2b31e	0.0872557
101	0xbd014270	-0.0315575
102	0xbb8ab17b	-0.004232583
103	0xbc9be0b4	-0.019028045
104	0xbd82feaf	-0.06396233
105	0xbd2a4378	-0.04156825
106	0x3bbf8079	0.0058441726
107	0xbd13a122	-0.03604234
108	0x3d264629	0.040594254
109	0xbd987c04	-0.07445529
110	0xbcfa162a	-0.030528147
111	0xbd1b57dd	-0.03792559
112	0x3d91a355	0.07111231
113	0xbd0f860e	-0.035039954
114	0xbbeefe0a	-0.0072934674
115	0xbd588382	-0.05285979
116	0xbd6d5288	-0.057940036
117	0xbb9152b2	-0.004434907
118	0xbd19c324	-0.037539616
119	0xbc05ae17	-0.008159182
120	0xbac18349	-0.0014763857
121	0x3d8ae077	0.067810945
122	0xbd08284f	-0.033241566
123	0x3db1f72c	0.086897224
124	0x3cfa9565	0.030588815
125	0xbcb97063	-0.022636598
126	0xb85c27e8	-5.2489253e-05
127	0x3bc8ca77	0.0061276513
128	0x3cbcf229	0.02306469
129	0x3d087844	0.03331782
130	0x3c22ca4f	0.009935929
131	0x3d8120bb	0.06305071
132	0xbd0988d7	-0.033577766
133	0xbd4a3eea	-0.049376406
134	0x3d180068	0.037109762
135	0xbc1e1653	-0.009648877
136	0xbc75e8c2	-0.015009107
137	0xbd119d81	-0.035550598
138	0x3d909bfa	0.07061
139	0x3d808ef7	0.062772684
140	0xbcac6574	-0.02104447
141	0xbd82d11c	-0.06387541
142	0x3d0f2022	0.034942754
143	0x3c40ea47	0.011774606
144	0x3cf1f970	0.029537886
145	0x3d2bcbc1	0.04194236
146	0xbdb60153	-0.08886971
147	0xbd2468fc	-0.040139183
148	0x3c6f6980	0.0146125555
149	0x3d6ec977	0.0582976
150	0xbce8fd02	-0.028440956
151	0xbcd5534f	-0.026040701
152	0xbd069b08	-0.032862693
153	0xbca6d219	-0.020363854
154	0xbd00c19c	-0.03143464
155	0xbd4eb439	-0.050464842
156	0xbd9976e9	-0.074933834
157	0xbdd6e220	-0.10492349
158	0x3de03487	0.10947519
159	0x3cdd6b4f	0.027028708
160	0xbcfcddba	-0.030867446
161	0xbd6cb17b	-0.057786446
162	0x3ca75dd7	0.020430489
163	0xbd7a6ba9	-0.06113783
164	0xbd1c0320	-0.038088918
165	0x3caed787	0.021343006
166	0x3d89e843	0.067337535
167	0x3cdcefe8	0.026969865
168	0x3c9d1f53	0.019179976
169	0x3d9f2299	0.07770271
170	0x3aa564f6	0.001261859
171	0x3d4ab27f	0.049486633
172	0xbd9fc281	-0.078007706
173	0x3d555480	0.05208254
174	0xbc5b635f	-0.013390391
175	0xbd0ea3aa	-0.03482405
176	0xbcae6c61	-0.021291913
177	0xbd156687	-0.03647473
178	0xbc1e6ff3	-0.009670245
179	0x3ba8ad16	0.0051475866
180	0xbd725cb5	-0.059170444
181	0xbd781ac2	-0.060572393
182	0xbc1fb031	-0.009746597
183	0xbd680d93	-0.05665357
184	0x3d3b3035	0.04570027
185	0xbd0a06ea	-0.033698
186	0x3c3f90ae	0.011692209
187	0xbd5970c3	-0.053086054
188	0x3b9e7959	0.004836243
189	0xbd068d85	-0.032849807
190	0xbb2e16eb	-0.0026563953
191	0x3d8cfb99	0.06883926
192	0x3df80663	0.12110593
193	0xbdb3509b	-0.08755609
194	0xbcb708b3	-0.022343015
195	0xbd719275	-0.058977563
196	0xbd8e5c6c	-0.06951222
197	0x3d8c5a3e	0.0685315
198	0xbd25166a	-0.04030458
199	0x3cf26ba2	0.029592339
200	0xbd6170bd	-0.055039156
201	0x3d316ac5	0.043314714
202	0x3dc68a64	0.09694365
203	0xbc9cc5e2	-0.019137327
204	0x3d879960	0.06621051
205	0x3c67a3b6	0.014138153
206	0xbd91f15f	-0.07126116
207	0x3c29a94d	0.010355306
208	0x3cbd5bcd	0.023115063
209	0x3d76812d	0.060181785
210	0xbb795797	-0.0038046592
211	0xbc0e44e2	-0.008683415
212	0x3d3181c6	0.043336652
213	0xbc2a25ba	-0.010384971
214	0x3d55dba1	0.052211408
215	0x3d0a9e9f	0.03384268
216	0x3c149412	0.009068506
217	0x3cd1cbeb	0.025609931
218	0x3d2a2069	0.041534815
219	0xbd541642	-0.05177904
220	0xbd316b2c	-0.043315098
221	0xbcb84373	-0.0224931
222	0xbd5b801e	-0.05358898
223	0x3d4267d8	0.047462314
224	0x3d386b5d	0.045024265
225	0xb954cece	-0.00020294936
226	0x3d8d5cc7	0.069024615
227	0x3d229979	0.039697144
228	0x3d1d0bc1	0.038341288
229	0xbceb40a7	-0.028717352
230	0xb9f48bc3	-0.00046643437
231	0x3d238730	0.039923847
232	0x3d2a95c9	0.041646753
233	0x3cc43827	0.023952557
234	0x3d52f5cc	0.05150394
235	0xbb777828	-0.0037760828
236	0x3dbf61fc	0.09344861
237	0x3c0f00a3	0.008728179
238	0x3d88925c	0.06668541
239	0x3d48200b	0.048858684
240	0x3d2aa372	0.04165978
241	0xbad286e6	-0.0016061931
242	0xbd223d93	-0.039609503
243	0xbd6fecfb	-0.05857561
244	0xbd8ab21e	-0.067722544
245	0x3c9d9fee	0.0192413
246	0x3ca82d3c	0.020529382
247	0x3c64d344	0.013966385
248	0x3cb92185	0.022598991
249	0x3cf4c963	0.029881185
250	0x3cf61013	0.030036962
251	0x3d4d36d7	0.050101127
252	0x3d87c691	0.066296704
253	0x3c8799cd	0.01655283
254	0xbd5a002c	-0.05322282
255	0x3d16c865	0.036812205

fc_mu.bias f4 [32]
0	0xbd2e2134	-0.042512134
1	0xbc8c3981	-0.017117264
2	0xbcbd8d6b	-0.023138722
3	0x3d60abe5	0.05485143
4	0xbdb0f149	-0.086397715
5	0x39008b53	0.00012258934
6	0xbd04efb0	-0.032455146
7	0xbce21e3e	-0.027602311
8	0x3db39378	0.08768362
9	0xbd0701c5	-0.032960672
10	0xbda937fc	-0.08262631
11	0x3d849253	0.06473222
12	0xbd993dc5	-0.07482485
13	0x3b7d3047	0.0038633512
14	0x3c7147ff	0.014726638
15	0xbd18fd00	-0.037350655
16	0xbc814ebb	-0.015784612
17	0xbcb442cc	-0.022004507
18	0xbd72d962	-0.059289344
19	0xbd199e66	-0.037504576
20	0xbc02955a	-0.0079701785
21	0x3d89f6a4	0.06736496
22	0x3d6b2e6c	0.05741732
23	0xbd5c9fd1	-0.05386335
24	0x3cfcbc2d	0.030851448
25	0x3cb5b206	0.022179615
26	0xbd4160f1	-0.04721159
27	0xbdabbd0b	-0.083856665
28	0x3d5a28a9	0.053261433
29	0x3d7ec429	0.06219879
30	0xbd7ba474	-0.06143613
31	0x3ce51562	0.027964298

fc_logvar.weight f4 [32, 128]
0	0xbd83cc83	-0.06435492
1	0x3d2064bf	0.03915858
2	0xbc8eeda5	-0.017447302
3	0xbd3bdadc	-0.045863017
4	0xbd7f64db	-0.062352043
5	0xbb3f4aee	-0.0029188949
6	0xbd351de1	-0.044217948
7	0x3c98e5a8	0.018664196
8	0xbd1988b0	-0.03748387
9	0x3ba8074c	0.005127823
10	0x3d8e1ac8	0.06938702
11	0x3b50ac47	0.0031840967
12	0x3d10227d	0.03518914
13	0xbd6754f9	-0.05647752
14	0xbca02a75	-0.019551495
15	0xbdbd6f3f	-0.09249734
16	0xbd1d0248	-0.038332254
17	0x3d13f218	0.03611955
18	0x3d978eb2	0.07400264
19	0xbc840b6f	-0.016118733
20	0xba017649	-0.00049385853
21	0x3d375e21	0.044767503
22	0x3d750815	0.05982216
23	0xbd19c592	-0.037541933
24	0x3d576382	0.052585132
25	0x3d394184	0.045228496
26	0xbd8444db	-0.06458446
27	0xbdb353d6	-0.08756225
28	0x3c39394f	0.011305167
29	0x3d20a3d5	0.039218742
30	0xbda1d049	-0.07901055
31	0x3ca4ee90	0.020133287
32	0x3d0d0a14	0.03443344
33	0x3d69382e	0.056938343
34	0xbd487628	-0.048940808
35	0xbc4b41f6	-0.012405863
36	0x3aadf02b	0.0013270428
37	0x3c2a82d3	0.0104071675
38	0xbdb3e3fb	-0.08783718
39	0x3cfba3fb	0.03071784
40	0xbd4a8069	-0.049438868
41	0xbd1574a9	-0.03648821
42	0xbd35406f	-0.0442509
43	0xbce2139e	-0.027597245
44	0x3c709c37	0.014685682
45	0x3cacc442	0.021089677
46	0x3d494d59	0.04914603
47	0x3dd69b25	0.1047881
48	0xbc2f6f5c	-0.0107077025
49	0x3d9c0823	0.076187395
50	0x3c53e7c1	0.012933672
51	0x3d0a39e3	0.03374661
52	0x3cbfd312	0.023416076
53	0xbde4a37a	-0.11163993
54	0xbd73a847	-0.059486654
55	0xbcc1e109	-0.023666875
56	0xbdb4cee7	-0.08828526
57	0x3d529b75	0.051417787
58	0xbd22b11f	-0.039719697
59	0x3cd33a2b	0.025784573
60	0x3d58c802	0.052925117
61	0x3cabb20a	0.02095892
62	0xbcec4555	-0.028841654
63	0xbdb5383a	-0.08848615
64	0xbd85a1d6	-0.065250084
65	0x3cb2871a	0.021792937
66	0x3d64e71f	0.055884477
67	0x3d78d86b	0.060753267
68	0x3d8585d0	0.06519663
69	0xbddaad39	-0.10677571
70	0xbbae0e57	-0.005311768
71	0xbd5267b7	-0.05136844
72	0xbdce054c	-0.10059604
73	0xbc56757b	-0.013089533
74	0x3d9a372a	0.07530053
75	0xbd6dcca5	-0.058056492
76	0xbd8ec142	-0.06970455
77	0xbbe68139	-0.0070344475
78	0x3d4f8ae7	0.050669577
79	0x3d71aae7	0.059000876
80	0x3c7a2606	0.015267855
81	0xbd1fb8cb	-0.03899459
82	0xbd281230	-0.04103297
83	0xbc662f98	-0.014049433
84	0xbd146918	-0.036233038
85	0x3c421507	0.011845834
86	0x3bf8cee5	0.007593023
87	0xbc6b4f27	-0.014362133
88	0xbd63701a	-0.05552683
89	0xbbb5dec6	-0.0055502383
90	0xbdc18147	-0.09448486
91	0xbd67b240	-0.056566477
92	0xbd009874	-0.03139539
93	0x3d26c7f7	0.040718045
94	0xbc9f1e63	-0.01942367
95	0x3d69ceb7	0.057081904
96	0x3b0d6ad4	0.0021578567
97	0xbd5504b7	-0.05200645
98	0x3cb0470a	0.021518249
99	0x3d34ffa9	0.04418913
100	0x3cc09ac7	0.023511304
101	0xbd9b8f82	-0.07595731
102	0x3d51ca78	0.05121848
103	0xbd9aad64	-0.07552603
104	0x3ddb2204	0.10699847
105	0x3d5a0c5d	0.053234447
106	0x3d2bf7dd	0.041984428
107	0x3c8b0341	0.016969325
108	0xbb400033	-0.0029296994
109	0xbc7d19d9	-0.015448057
110	0x3d3ace72	0.045607038
111	0xbd4eceea	-0.050490297
112	0x3d0dea96	0.034647547
113	0x3db3a441	0.08771563
114	0x3d704328	0.058657795
115	0x3cdf8ceb	0.027288875
116	0xbdc107ab	-0.09425291
117	0xbdab4c63	-0.08364179
118	0x3d53a749	0.051673207
119	0x3d178668	0.036993414
120	0xbc8675ce	-0.016413596
121	0x3d45287b	0.04813431
122	0xbd8b0268	-0.06787568
123	0x3c85a0d5	0.016312042
124	0xbd010036	-0.03149434
125	0xbdd1cbe9	-0.10243971
126	0x3d0220c8	0.031769544
127	0xbd267079	-0.040634606
128	0x3c23fd69	0.010009148
129	0x3d372975	0.04471727
130	0xbc510e33	-0.012759733
131	0x3ce913ea	0.028451879
132	0x3cb130b0	0.021629661
133	0xbda74e53	-0.08169236
134	0x3daf6bda	0.08565493
135	0x3d5bbb05	0.053645153
136	0x3d96e688	0.07368189
137	0xbc988ca1	-0.018621745
138	0xbd4a2c42	-0.049358614
139	0xbda48f02	-0.08035089
140	0x3cbb822c	0.02288922
141	0xbca72746	-0.02040447
142	0x3d19ad4c	0.037518784
143	0xbc8aa149	-0.01692261
144	0xbc144d88	-0.009051688
145	0x3c2b0c7f	0.010439991
146	0xbd2fb80e	-0.042900138
147	0xbc125d84	-0.008933429
148	0xbcb09f72	-0.021560404
149	0xbdafa132	-0.085756674
150	0xbc34f4a3	-0.011044654
151	0x3be537ec	0.006995192
152	0x3c1b3d38	0.009475045
153	0xbd68b696	-0.056814753
154	0x3d034800	0.032051086
155	0xbc9c40be	-0.01907384
156	0x3d61f989	0.055169616
157	0xbd80039d	-0.06250689
158	0xbd7ec45a	-0.062198974
159	0xbcba704a	-0.022758622
160	0xbcd7817c	-0.02630686
161	0x3cd31554	0.025767006
162	0x3ca55049	0.020179885
163	0x3d6f9c25	0.05849852
164	0x3d1db21e	0.038499944
165	0x3d6eb9ad	0.058282543
166	0x3b37e89f	0.0028062237
167	0xbdb9983d	-0.0906224
168	0x3d4a1f95	0.049346525
169	0xbd2047d1	-0.03913099
170	0x3a8c0702	0.0010683241
171	0xbd2f01a8	-0.04272619
172	0xbd89d1aa	-0.06729443
173	0xbdbdb91a	-0.09263821
174	0xbd0508b0	-0.03247899
175	0x3d86c0e6	0.06579761
176	0x3c24d601	0.010060788
177	0x3d78deb8	0.060759276
178	0x3d2fccb9	0.042919848
179	0x3d6fbaab	0.05852763
180	0x3d1c0a70	0.03809589
181	0x3ca88155	0.020569483
182	0xbc0bc19e	-0.008530049
183	0xbdc879d6	-0.09788863
184	0x3d2b5760	0.041831374
185	0xbcb5a369	-0.022172647
186	0xbc20ec87	-0.0098220175
187	0x3ceabbae	0.028653946
188	0x3cd1fa3e	0.02563202
189	0xbbe02855	-0.0068407455
190	0xbc873b1f	-0.016507683
191	0xbd11f36a	-0.03563253
192	0xbd99f03b	-0.075165235
193	0xbdc3412b	-0.09533914
194	0x3ca50fc9	0.020149129
195	0x3d740667	0.05957642
196	0x3d0c9b65	0.034327883
197	0x3c38b562	0.011273714
198	0x3ce409c9	0.027836697
199	0x3ce82099	0.028335856
200	0x3cee4604	0.02908612
201	0x3d698211	0.057008807
202	0x3d6f115e	0.058366172
203	0x3d8c88cd	0.0686203
204	0x3d232cb2	0.039837547
205	0x3c240c63	0.010012719
206	0x3d09ea5e	0.033670776
207	0xbd1b01ea	-0.037843622
208	0x3d1f0d3c	0.03883098
209	0x3c980746	0.018558156
210	0x3d1d9a3e	0.038477175
211	0x3d967369	0.073462315
212	0x3d0a225c	0.033724174
213	0x3d6ac580	0.057317257
214	0xbdb5e64f	-0.088818185
215	0x3c28c4f8	0.010300867
216	0x3d0b0a94	0.033945635
217	0xbb123864	-0.0022311443
218	0x3b8d0274	0.004303271
219	0xbd77ff45	-0.06054618
220	0xbcec684d	-0.028858328
221	0xbd830688	-0.0639773
222	0xbd92b722	-0.07163836
223	0x3c8177c2	0.015804175
224	0xbdae869f	-0.08521771
225	0x3ca00ae3	0.019536441
226	0x3d80bd56	0.06286113
227	0x3c8f7745	0.017512927
228	0x3d1c338e	0.038135104
229	0xbd65e126	-0.05612292
230	0xbd892f7c	-0.0669851
231	0xbd8e3be5	-0.06945018
232	0x3d97e43f	0.07416581
233	0x3d621264	0.05519332
234	0xbbe2cd41	-0.006921441
235	0xbd925f31	-0.071470626
236	0xbcb49c2c	-0.022047125
237	0x3da73447	0.08164268
238	0x3d1b29ae	0.037881546
239	0x3d47a856	0.048744522
240	0xbc559d0c	-0.013037931
241	0xbd55a5c4	-0.05216004
242	0x3d19c716	0.03754338
243	0xbcbdd753	-0.023173964
244	0x3d4122dc	0.047152385
245	0xbdaf71ca	-0.085666254
246	0x3d3577d5	0.044303734
247	0x3d17d08f	0.03706413
248	0xbd74fe57	-0.05981287
249	0xbcd6dc89	-0.026228206
250	0xbd4cb7ad	-0.049979854
251	0x3d2ee5be	0.042699568
252	0xbd920b48	-0.07131058
253	0x3d29f439	0.041492674
254	0x3d3ba712	0.045813628
255	0x3ce36101	0.027756216

fc_logvar.bias f4 [32]
0	0xbc552be2	-0.013010951
1	0xbcd6f345	-0.026239047
2	0xbd6761cb	-0.056489747
3	0xbc7854de	-0.015156953
4	0xbd30dd45	-0.04317977
5	0x3d964059	0.07336492
6	0x3d427625	0.047475953
7	0x3d873121	0.066011675
8	0xbbce072f	-0.0062874774
9	0x3d7bde8c	0.061491534
10	0x3d559e3f	0.05215287
11	0xbd889e78	-0.066708505
12	0x3d17e2ff	0.037081715
13	0x39f6d135	0.00047076648
14	0xbdbb2d31	-0.09139479
15	0x3d2d23bf	0.04227042
16	0x3bb425a5	0.0054976516
17	0x3d70a1c2	0.058748014
18	0xbd90590e	-0.07048236
19	0x3b2fccac	0.0026824875
20	0xbdb8bf5f	-0.09020876
21	0x3c64be73	0.013961422
22	0xbd393c7b	-0.045223694
23	0x3d8ba708	0.06818968
24	0xbbe6ac07	-0.00703955
25	0xbd6d7447	-0.05797222
26	0x3d8cef07	0.06881528
27	0xbdbe2d9e	-0.092860445
28	0xbbc2faa7	-0.0059502902
29	0x3c3a3eda	0.011367524
30	0xbcf59897	-0.029979987
31	0x3d55353c	0.05205272

fc3.weight f4 [128, 32]
0	0x3d30f07c	0.043198094
1	0x3e08295a	0.13297024
2	0xbd8281d1	-0.06372417
3	0xbdac238a	-0.08405216
4	0x3cf22cb7	0.029562337
5	0x3df34b9c	0.11879656
6	0x3d9f37c6	0.0777431
7	0x3d7125e6	0.058874033
8	0x3da899a4	0.082324296
9	0xbde77d00	-0.11303139
10	0x3e3b44ce	0.18287966
11	0x3cfaceab	0.030616125
12	0x3b67ae17	0.0035351568
13	0xbda604eb	-0.08106407
14	0x3c52e0c2	0.012870969
15	0xbe1a1b4b	-0.15049474
16	0x3d30dea1	0.043181065
17	0x3dfe11a1	0.12405706
18	0xbe1bc668	-0.15212405
19	0xbba6e684	-0.0050933976
20	0x3defb24f	0.117039315
21	0xbd07865c	-0.03308712
22	0x3e2eea4c	0.17081565
23	0xbe00ddde	-0.12584636
24	0xbdf13f26	-0.11779623
25	0x3e451644	0.19246775
26	0x3db79ceb	0.089654766
27	0x3d559ea0	0.05215323
28	0x3e051a0b	0.12998216
29	0x3d9f2e23	0.07772472
30	0x3cc03f1a	0.02346759
31	0xbdce6c64	-0.100792676
32	0x3e139ce7	0.14415322
33	0xbdb87cc2	-0.09008171
34	0x3dda3fdb	0.10656711
35	0xbd2c3dff	-0.04205131
36	0x3d3586cd	0.04431801
37	0xbdd04efe	-0.101713166
38	0x3e0e65de	0.13906047
39	0xbdb36631	-0.08759726
40	0x3d794231	0.06085414
41	0x3d060526	0.032719754
42	0x3dbc565c	0.09196159
43	0x3e1f4ecb	0.15557401
44	0xbcaee59d	-0.021349723
45	0xbe1fcdcf	-0.15605853
46	0x3dd18d5b	0.102320395
47	0xbe17ed67	-0.14836656
48	0xbdcccf8d	-0.10000525
49	0x3d161c21	0.03664792
50	0x3e3a0e5f	0.18169545
51	0x3e10ae4c	0.14128989
52	0x3e529940	0.20566273
53	0x3e1c844b	0.15284841
54	0x3e2a205b	0.16613905
55	0xbd07dbf9	-0.033168767
56	0x3db1ca09	0.08681113
57	0xbdf34153	-0.11877694
58	0x3e32d617	0.17464481
59	0x3de247ce	0.11048852
60	0x3e02144a	0.12703052
61	0x3af1262e	0.0018398219
62	0xbe0f5984	-0.13998991
63	0x3dfca993	0.12337031
64	0x37ea4fa5	2.7932061e-05
65	0xbd5898bd	-0.052880038
66	0xbd48a57b	-0.04898594
67	0x3e0447e8	0.12918055
68	0xbcfcca18	-0.030858085
69	0xbc9d52ac	-0.01920446
70	0x3e236e94	0.15960151
71	0x3e1a3421	0.15058948
72	0x3df33e8a	0.11877163
73	0x3db29b13	0.08720984
74	0xbddbdf51	-0.107359536
75	0x3db9b2dc	0.09067318
76	0x3d8128dc	0.063066214
77	0x3dec34a9	0.11533482
78	0x3e149597	0.14510189
79	0xbdfcc253	-0.12341752
80	0x3d111ca4	0.035427704
81	0xbe2c927d	-0.16852756
82	0x3dbb44a1	0.09143949
83	0x3de9196c	0.11381802
84	0x3b37b0ae	0.0028028893
85	0xbd9bba0d	-0.07603846
86	0xbde65725	-0.1124709
87	0xbe0e8ea3	-0.13921599
88	0xbd75a2a0	-0.059969544
89	0xbd767c24	-0.060176983
90	0xbd904a75	-0.070454516
91	0xbde7d8ae	-0.11320625
92	0xbe08c8e8	-0.1335789
93	0x3d1507f0	0.036384523
94	0xbe0aad79	-0.13542737
95	0xbde8da89	-0.11369807
96	0xbd0c20e5	-0.03421106
97	0xbe1b0781	-0.15139581
98	0xbe39c283	-0.18140607
99	0x3ce08d3c	0.027411096
100	0xbe15178b	-0.14559762
101	0xbe1e373e	-0.1545076
102	0x3e06ff2c	0.13183278
103	0x3dbc5257	0.091953926
104	0xbcb20b2d	-0.021733845
105	0x3e25c71f	0.1618924
106	0x3dd93e90	0.10607636
107	0xbdcf937b	-0.101355515
108	0x3d450a4e	0.04810553
109	0xbdd36377	-0.10321706
110	0x3dda3436	0.1065449
111	0xbde25e84	-0.11053184
112	0x3db6cf3d	0.08926246
113	0xbdb948f8	-0.09047121
114	0x3d41cd79	0.047315095
115	0x3b3a5689	0.0028432927
116	0xbd2736e6	-0.04082384
117	0x3d9054f7	0.07047456
118	0xbdbbb192	-0.09164728
119	0x3dda170b	0.10648926
120	0xbe15b7e3	-0.14620928
121	0x3de71cdb	0.112848006
122	0xbda26bf2	-0.07930745
123	0x3d2d5ee3	0.04232682
124	0xbdaf285d	-0.085526206
125	0xbe3fc40d	-0.18727131
126	0xbdf233c9	-0.118262835
127	0x3e0f8aad	0.14017744
128	0x3e1efbab	0.15525691
129	0xbe2f5b49	-0.17124666
130	0x3e0ec08e	0.13940641
131	0x3a49f69e	0.00077042903
132	0x3a2e4f22	0.0006649365
133	0x3d2a3527	0.041554596
134	0xbdd54551	-0.10413612
135	0xbe17a23a	-0.14807978
136	0x3c9b9d71	0.018995972
137	0xbd4fc0fd	-0.050721157
138	0xbddf60b7	-0.10907119
139	0xbe167a6b	-0.14695136
140	0xbdfdaeac	-0.12386832
141	0x3df870bb	0.12130877
142	0xbe078ef6	-0.13238129
143	0xbe273812	-0.16329983
144	0xbe0db754	-0.13839465
145	0x3dcd5760	0.10026431
146	0xbd76d240	-0.060259104
147	0xbdd0aaf9	-0.101888604
148	0xbd5a17d2	-0.053245373
149	0x3dc9df13	0.09857001
150	0xbda9fca4	-0.083001405
151	0xbdf3bd89	-0.11901385
152	0x3d5d1966	0.0539793
153	0x3c222241	0.009895862
154	0x3e074037	0.1320809
155	0x3dcb6081	0.09930516
156	0xbe01b6d7	-0.12667404
157	0x3c278ca9	0.010226407
158	0xbe0968a1	-0.13418819
159	0x3dc34057	0.09533756
160	0xbd78a606	-0.060705207
161	0x3c83bab4	0.016080238
162	0xbddd6765	-0.108107366
163	0x3e3ae6cb	0.18252103
164	0x3dfa8e4e	0.12234174
165	0x3d530f76	0.051528417
166	0x3e0d50f8	0.13800418
167	0xbdd7c74a	-0.10536058
168	0x3e56811a	0.20947686
169	0x3d18c07a	0.037292935
170	0x3da95057	0.08267277
171	0x3dccfbf7	0.10008996
172	0xbdda3039	-0.10653729
173	0xbdf7f9f4	-0.12108222
174	0xbd5c2d94	-0.053754404
175	0xbe3501b9	-0.17676438
176	0x3dd7b3c7	0.10532337
177	0x3df31716	0.11869638
178	0xbc653876	-0.013990512
179	0xbdb46167	-0.088076405
180	0x3d007e82	0.031370647
181	0xbd8f7a29	-0.07005722
182	0x3d991cc2	0.07476188
183	0x3c8ab10b	0.016930124
184	0x3e2743fb	0.16334526
185	0xbdb6e142	-0.08929683
186	0x3cd7fc6c	0.026365481
187	0xbc41b2b6	-0.011822393
188	0x3d8e4c99	0.069482036
189	0xbe21bab3	-0.15793876
190	0x3e2e15fe	0.17000577
191	0x3d7e16ff	0.06203365
192	0x3cd2e5d1	0.02574435
193	0x3cc596a8	0.02411969
194	0xbe287577	-0.1645106
195	0x3df67391	0.12033761
196	0xbd9f3e9c	-0.07775614
197	0x3e000aa2	0.12504056
198	0x3e2e7dfe	0.1704025
199	0x3ddbdc08	0.10735327
200	0xbe05451c	-0.13014644
201	0x3d28decb	0.041228097
202	0x3cc2248d	0.02369907
203	0x3d140796	0.036140047
204	0x3a78aafe	0.0009485929
205	0x3e06fb0d	0.13181706
206	0x3e289f6c	0.16467065
207	0xbc5cf7d2	-0.013486819
208	0xbcc464e2	-0.023973886
209	0x3dfda3cd	0.12384758
210	0xbda1d8ae	-0.079026565
211	0xbdba2e92	-0.09090914
212	0xbcd68629	-0.02618702
213	0x3de69104	0.11258128
214	0x3e0d10b1	0.13775899
215	0xbdedc059	-0.11608953
216	0x3df0b019	0.11752338
217	0xbcb7e52b	-0.022448143
218	0xbcd19166	-0.025582027
219	0x3dc988ea	0.098405674
220	0xbc86980a	-0.01642992
221	0x3e00c2a0	0.12574244
222	0x3e18e5f8	0.14931476
223	0x3e506253	0.20350008
224	0xbdbd48e5	-0.09242419
225	0xbdc46c8a	-0.09591015
226	0x3e0e680e	0.13906881
227	0x3c8cfb91	0.0172098
228	0x3e06a4ac	0.13148755
229	0x3a2aac55	0.0006510665
230	0x3dce6740	0.10078287
231	0xbc854fde	-0.016273435
232	0x3d9235f1	0.07139195
233	0xbd9602c7	-0.073247485
234	0xbada558e	-0.0016657577
235	0x3dd40f72	0.103545085
236	0xbe0aff6b	-0.13573997
237	0x3e16839d	0.14698644
238	0xbd2fdc27	-0.042934563
239	0x3d611532	0.054951854
240	0xbd90b4ba	-0.07065721
241	0xbd8692e6	-0.065709874
242	0x3c9a111b	0.018806985
243	0x3d879cc9	0.06621701
244	0xbe3b81e7	-0.18311273
245	0x3c445415	0.011982937
246	0xbdf9c783	-0.12196257
247	0x3d5612e4	0.05226411
248	0x3cb98e61	0.0226509
249	0x3e11adde	0.14226481
250	0xbcbb0592	-0.022829805
251	0xbe0295e3	-0.1275249
252	0x3dec21eb	0.11529907
253	0xbd5d931c	-0.054095373
254	0xbe01be9e	-0.12670371
255	0x3e079fce	0.13244554

fc3.bias f4 [128]
0	0x3d69b02b	0.057052772
1	0xbe0623c7	-0.13099585
2	0xbdf88564	-0.12134817
3	0x3bcc52e4	0.0062354673
4	0x3e05922d	0.13044043
5	0xbd0abf9a	-0.03387413
6	0x3c7b0ff2	0.015323626
7	0x3cabee78	0.020987734
8	0xbd8cce30	-0.06875265
9	0xbc5f6f1b	-0.013637329
10	0x3dd5ad53	0.104334496
11	0x3c9ccb88	0.01914002
12	0xbcbe2a5f	-0.023213563
13	0x3c47dc27	0.0121984845
14	0x3d435f70	0.04769844
15	0x3dbf21ca	0.093326166
16	0x3e12c419	0.14332618
17	0x3e1063e1	0.14100601
18	0xbd23e071	-0.040008966
19	0x3e2435e6	0.16036186
20	0xbdc0f7e6	-0.09422283
21	0x3e3ed909	0.1863748
22	0xbdd1179f	-0.102095835
23	0x3e08632f	0.13319086
24	0x3dfa39b3	0.122180365
25	0x3b6480a9	0.0034866726
26	0x3e0f2eb3	0.13982658
27	0x3e09917a	0.13434401
28	0x3e34ee85	0.17669113
29	0xbe19999b	-0.15000002
30	0x3d90d7e7	0.0707243
31	0xbe2c3d2f	-0.16820215
32	0xbd3a3739	-0.04546282
33	0x3cd9a683	0.026568657
34	0x3e47682d	0.19473334
35	0x3d5b6ffc	0.053573593
36	0x3ded8836	0.11598246
37	0xbc25845c	-0.010102358
38	0xbdb4eebb	-0.08834597
39	0xbe01c178	-0.12671459
40	0x3bae1d9c	0.0053135883
41	0xbe03b6a4	-0.1286264
42	0x3de01a93	0.10942569
43	0xbc9a99cc	-0.018872164
44	0x3e336f92	0.1752303
45	0xbe41787a	-0.18893614
46	0xbdb7e522	-0.089792505
47	0xbd2d6f4a	-0.04234246
48	0xbd7c0e54	-0.061537102
49	0xbdb8b900	-0.09019661
50	0xbd85b6c2	-0.06528999
51	0x3d8b54ad	0.0680326
52	0xbe3baf30	-0.18328547
53	0x3e294b25	0.16532572
54	0x3e302192	0.17200306
55	0xbe171964	-0.1475578
56	0x3c607d9e	0.0137018245
57	0xbd8e4523	-0.069467805
58	0x3c74c5e6	0.014939761
59	0xbdf1a3f2	-0.11798848
60	0xbe01f66a	-0.12691656
61	0xbe14d7a9	-0.14535393
62	0xbd24c433	-0.040226173
63	0xbdf06f70	-0.11740005
64	0x3e20265d	0.15639634
65	0x3e4ac104	0.19800192
66	0xbdffe09e	-0.12494014
67	0xbd81a510	-0.06330311
68	0x3d9f09a0	0.07765508
69	0x3cdc8aa2	0.026921574
70	0xbd35adcd	-0.044355202
71	0xbd864454	-0.06556001
72	0xbdf9aa80	-0.121907234
73	0x3d82115c	0.06350967
74	0xbd23c445	-0.0399821
75	0xbdb0512c	-0.08609232
76	0x3dad1714	0.084516674
77	0x3e1e19a2	0.15439466
78	0x3def1320	0.1167357
79	0xbdb2709c	-0.08712885
80	0x3ac6e38c	0.0015174015
81	0xbe21cc94	-0.15800697
82	0xbdf62ee5	-0.12020663
83	0x3db5a0eb	0.08868583
84	0xbdb03c38	-0.08605236
85	0x3dc1846d	0.09449086
86	0xbe1f63e7	-0.15565453
87	0xbdba8092	-0.09106554
88	0x3d01a96a	0.031655706
89	0xbda655ac	-0.08121809
90	0x3e2e6de7	0.17034112
91	0xbe259d4c	-0.16173285
92	0xbd801030	-0.062530875
93	0x3bbf99f4	0.00584721
94	0xbd404029	-0.046936188
95	0x3e2c7479	0.16841306
96	0x3cd97938	0.02654706
97	0x3de50474	0.1118249
98	0x3c8ce02f	0.017196743
99	0xbd47d2ff	-0.048785206
100	0xbe12eb91	-0.14347674
101	0xbd71995d	-0.05898415
102	0x3dccf022	0.10006739
103	0x3d7cd78f	0.06172901
104	0x3e1b1fb3	0.15148811
105	0x3e305226	0.17218837
106	0x39a0cf75	0.00030672146
107	0x3d33eb24	0.04392542
108	0xbcf11fd2	-0.029434118
109	0x3db13fc1	0.08654738
110	0xbdc5240f	-0.09626018
111	0xbdb3e68f	-0.0878421
112	0xbd3c36a9	-0.045950565
113	0x3e078d28	0.1323744
114	0x3e0bfe62	0.13671258
115	0x3df2146c	0.118203014
116	0xbcd0eb05	-0.025502691
117	0x3e1817e1	0.14852859
118	0x3e19df3f	0.15026568
119	0x3d6ddf14	0.058074072
120	0xbc5d1b1c	-0.013495233
121	0xbe134e15	-0.14385255
122	0xbd9a5b43	-0.07536938
123	0xbbfdb548	-0.0077425577
124	0x3b001561	0.0019543993
125	0x3e1ebbac	0.15501279
126	0x3d727ef3	0.0592031
127	0x3e19adba	0.15007678

fc4.weight f4 [7, 128]
0	0xbcd3a3cd	-0.025834942
1	0xbdb76b1b	-0.089559756
2	0xbca62c88	-0.020284906
3	0xbd1dc2a6	-0.03851571
4	0xbbfe315a	-0.007757348
5	0x3dc19820	0.09452844
6	0xbd4c1692	-0.049826212
7	0x3b29f6cd	0.0025934458
8	0x3cd70192	0.026245866
9	0x3d0027d0	0.03128797
10	0xbd30d9e4	-0.043176547
11	0xbdbe18be	-0.09282063
12	0xbd74710d	-0.059678126
13	0xbc91a5b6	-0.017779212
14	0xbdc856bc	-0.09782168
15	0xbd0b2296	-0.03396853
16	0x3dab5881	0.0836649
17	0xbd85b588	-0.06528765
18	0x3d35ca6c	0.044382498
19	0x3d466f3c	0.048445925
20	0xbc8a4a44	-0.016881116
21	0x3d7372b2	0.059435554
22	0xbd8778b9	-0.06614823
23	0x3a91d29a	0.0011125386
24	0x3d70bf75	0.058776338
25	0xbdb33319	-0.087499805
26	0x3bec5d61	0.00721328
27	0xbbc36c1d	-0.005963816
28	0xbd370569	-0.044682894
29	0xbddd30ca	-0.108003214
30	0x3ac287ef	0.0014841537
31	0xbd1e7cef	-0.038693365
32	0x3c2a11b4	0.010380197
33	0x3d7c8f23	0.061659943
34	0xbd83e371	-0.064398654
35	0xbd6cae4e	-0.057783417
36	0x3d56f6da	0.05248151
37	0xbc80bb6a	-0.015714366
38	0x3d8750ac	0.06607184
39	0x3c8e038d	0.017335678
40	0x3d7806fe	0.060553543
41	0x3d46294c	0.048379228
42	0x3dfbb408	0.122901976
43	0x3cff4159	0.03115909
44	0x3d446108	0.0479441
45	0x3cb6247b	0.022234192
46	0x3d6e0daa	0.0581185
47	0x3d16a37c	0.036777005
48	0x3ac07793	0.0014684073
49	0x3d0fce3e	0.035108797
50	0xbd83a024	-0.06427029
51	0xbd2540dc	-0.040345058
52	0x3d0a95b8	0.03383419
53	0x3d2fb3dc	0.042896137
54	0x3d644076	0.055725537
55	0x3cc14565	0.02359266
56	0x3d9ead6f	0.077479236
57	0xbd55ab40	-0.05216527
58	0xbc094548	-0.008378334
59	0x3d6aa1d5	0.05728324
60	0xbd419042	-0.047256716
61	0x3db5af55	0.088713326
62	0x3dc5167f	0.096234314
63	0x3b8df3c2	0.0043320367
64	0xbd4439f7	-0.047906842
65	0x3db3a76f	0.0877217
66	0x3d10b69a	0.035330392
67	0x3dc5413d	0.09631584
68	0x3d237f3f	0.039916273
69	0xbd873f0e	-0.066038236
70	0x3df44dfe	0.11928938
71	0xbbd914f1	-0.006624811
72	0x3d2fa345	0.042880315
73	0x3c98fd4a	0.018675465
74	0xbcc1d9ce	-0.023663428
75	0x3da361ed	0.07977662
76	0x3d8d128a	0.06888302
77	0xbcac41b3	-0.021027422
78	0xbd989b9e	-0.074515566
79	0xbc09bed9	-0.008407318
80	0x3c38afb5	0.011272361
81	0x3d43fc2b	0.047847908
82	0xbd45ca51	-0.048288647
83	0x3bb3f9fc	0.005492447
84	0x3d1db4a8	0.038502365
85	0xbd0e397b	-0.034722786
86	0xbd6bb153	-0.057542156
87	0xbcb0a268	-0.021561816
88	0xbdd7aee1	-0.105314024
89	0xbdbbb447	-0.091652445
90	0xbda7ffb4	-0.082030684
91	0x3dd190dc	0.10232708
92	0xbd11e601	-0.03561974
93	0xbdb464f7	-0.0880832
94	0xbdbdcac7	-0.09267192
95	0xbc8f3fbe	-0.01748645
96	0x3dc3ef55	0.09567133
97	0x3bf42633	0.0074508428
98	0xbc8490b9	-0.01618229
99	0x3de52f9b	0.11190721
100	0x3d79c30a	0.06097702
101	0xbd751bc6	-0.05984094
102	0xbd8806df	-0.066419356
103	0xbdc7c51b	-0.09754392
104	0x3c6c6974	0.014429439
105	0xbd83c42a	-0.064339
106	0x3b28688a	0.0025697076
107	0xbdb2b8c9	-0.08726651
108	0xbb93fd2a	-0.0045162635
109	0x3d7187e1	0.058967475
110	0xbdc8f365	-0.09812049
111	0x3ccf5493	0.025308883
112	0xbdf958a6	-0.121751115
113	0x3da857f0	0.08219898
114	0x3d5a2e6a	0.05326692
115	0xbd9aad59	-0.07552595
116	0x3d804f2b	0.062651
117	0xbd7a0c23	-0.06104673
118	0xbc7706d5	-0.0150773125
119	0x3d8c8dbb	0.068629704
120	0x3dd1ae11	0.10238279
121	0xbd9d1097	-0.0766918
122	0x3d25efca	0.040511884
123	0x3d29d6f1	0.04146475
124	0x3d19c1e7	0.037538435
125	0xbdb75617	-0.08951967
126	0xbd0ecdc9	-0.03486422
127	0xbba8ba2e	-0.0051491475
128	0x3c19d8a3	0.009390029
129	0x3d92521c	0.07144567
130	0x3d89c859	0.067276664
131	0xbd1aa30a	-0.037753142
132	0x3d9ffbda	0.07811709
133	0xbcbc7f68	-0.02300997
134	0xbda31d93	-0.07964625
135	0xbd0a2ae2	-0.033732302
136	0xbd29bb94	-0.041438654
137	0xbd40e226	-0.047090672
138	0x3d35ecd0	0.044415295
139	0x3d0fc13b	0.03509639
140	0x3d1eccbe	0.038769476
141	0x3dda26a9	0.10651905
142	0x3d022e29	0.031782303
143	0x3d8b06ea	0.06788428
144	0xbd78c652	-0.060736008
145	0xbdaa4470	-0.08313835
146	0x3c306210	0.010765567
147	0x3c4e5ef2	0.012595879
148	0xbd3d2e0c	-0.04618649
149	0x3d7733b0	0.060352027
150	0x3d8fb091	0.07016099
151	0xbda6d688	-0.08146387
152	0xbbd4fb84	-0.0064997096
153	0x3da4e933	0.08052292
154	0x3c967035	0.018364051
155	0x3d9783dc	0.07398197
156	0xbdb56117	-0.08856409
157	0x3ae28542	0.0017282146
158	0xbc9bb0c3	-0.019005185
159	0x3c9f1efd	0.019423956
160	0xbd4377fb	-0.047721844
161	0x3c6ef16b	0.014583926
162	0xbd248c00	-0.040172577
163	0xbd3f79ea	-0.046747126
164	0xbda66bbb	-0.08126017
165	0xbd5ddf70	-0.054168165
166	0xbcd4e66f	-0.025988786
167	0xbda34865	-0.079727925
168	0x3c19b94c	0.009382557
169	0xbd86c544	-0.06580594
170	0xbd57691c	-0.052590474
171	0x3d820ac8	0.063497126
172	0x3d544737	0.05182573
173	0xbd7acae2	-0.06122864
174	0xbd51d1c7	-0.05122545
175	0x3da6c919	0.08143825
176	0xbce96f75	-0.02849553
177	0x3cecf597	0.0289257
178	0xbd9cc690	-0.0765506
179	0x3cb40273	0.021973824
180	0x3d932374	0.071844965
181	0xbd74038d	-0.0595737
182	0x3c7b356b	0.01533256
183	0xbd8f5d46	-0.07000212
184	0xbd21250a	-0.039341964
185	0xbda4ccef	-0.080469005
186	0xbc22668a	-0.0099121425
187	0xbc2ee7e3	-0.010675403
188	0xbdbb1e63	-0.09136655
189	0xbd005cbd	-0.031338442
190	0xbd491a36	-0.049097262
191	0xbd0f8828	-0.035041958
192	0x3bf83722	0.0075749317
193	0x3cf870db	0.030327251
194	0xbcac9b84	-0.02107025
195	0x3cf28b04	0.029607303
196	0x3d9e04e0	0.077157736
197	0xbc9b955e	-0.018992122
198	0xbb6e627e	-0.0036374624
199	0x3d1c08f2	0.03809447
200	0x3ce2dbd9	0.027692722
201	0x3d7e3acc	0.06206779
202	0x3cb19065	0.021675298
203	0xbd4c72b4	-0.049914077
204	0x3dda360a	0.106548384
205	0x3d3422ac	0.04397838
206	0x3dac03cf	0.08399164
207	0x3c408310	0.011749998
208	0xbccbc68e	-0.024874952
209	0xbd5cd7ca	-0.05391673
210	0xbdd28dec	-0.10280976
211	0xbcfdd0a6	-0.03098328
212	0xbd33fcb5	-0.043942172
213	0x3dba03f9	0.09082789
214	0xbd4553ae	-0.048175506
215	0x3dc9766e	0.09837042
216	0x3d21bc97	0.039486494
217	0xbccc652d	-0.024950588
218	0x3d0dc429	0.0346109
219	0xbc63f29d	-0.013912824
220	0x3c00eeb7	0.007869414
221	0xbd8f4ddc	-0.06997272
222	0x3cfe4124	0.03103692
223	0x3cc63a4d	0.024197722
224	0x3aea5909	0.0017879318
225	0x3d8d7d8c	0.06908712
226	0xbdab1cf0	-0.08355129
227	0xbca26b35	-0.01982651
228	0xbd8d6294	-0.06903568
229	0xbd21ede8	-0.039533526
230	0xbd21ec98	-0.039532274
231	0x3de3e4f0	0.11127651
232	0xbc894ae4	-0.016759343
233	0x3c69bda9	0.01426641
234	0x3d8098fe	0.06279181
235	0x3b8bb52b	0.0042635403
236	0x3dc9b0bf	0.09848165
237	0xbd6d95a9	-0.058004055
238	0x3d296d7a	0.04136417
239	0x3cd0a2df	0.025468288
240	0x3da701f1	0.08154667
241	0x3da5b959	0.08091993
242	0x3db58537	0.08863299
243	0x3d2d8983	0.04236747
244	0xbd97a303	-0.07404139
245	0xbbbbf54e	-0.0057360297
246	0xbda647de	-0.08119176
247	0xbdc2451a	-0.09485836
248	0x3c98e44f	0.018663554
249	0x3db5cf01	0.088773735
250	0xbdb08e24	-0.08620861
251	0x3d3eb5eb	0.04656021
252	0xbd3ce2c2	-0.04611469
253	0x3d2f49c6	0.042794965
254	0x3db2b5d7	0.087260894
255	0xbd7ca2d6	-0.06167873

fc4.bias f4 [7]
0	0x3cb7dd13	0.022444284
1	0xbda32d3b	-0.079676114
2	0x3c84d522	0.01621491
3	0xbd87dced	-0.06633935
4	0xbc28dc93	-0.010306495
5	0xbd38ea84	-0.045145527
6	0x3d195a6c	0.03743975
