models/NexaMat_2.pt (torch, 60570 bytes, 10 tensors)

encoder.0.weight f4 [128, 6]
000000 96 1b 74 be 9b 1e af 3d 94 2c 87 be 75 fd a5 3d
       -0.23838648 0.085507594 -0.26401198 0.08104984
000010 4f d1 86 be 2f 8a b2 3e 57 13 16 be 57 6d 3c 3d
       -0.26331565 0.3487105 -0.14655815 0.046002712
000020 52 a6 0c bc a5 f3 a5 3e 0e d9 8f bd 23 88 5c 3b
       -0.008584576 0.3241245 -0.07023822 0.003365048
000030 ab fa 2e 3e e8 be a3 be 6a ae 4c bd d3 50 bf bd
       0.1708781 -0.31981587 -0.04997102 -0.09341588
000040 0f ed d5 bd b2 5d bc ba 39 c6 2d 3e 8f bb 9d be
       -0.10445606 -0.0014371185 0.16970147 -0.30807158
000050 4b 83 64 bd 89 88 e1 bd ba b5 8e be 9e 4f cc bd
       -0.055789273 -0.1101237 -0.2787302 -0.09976123
000060 2e 8f 1d be 70 1b 3e be 7e b4 24 3d c7 e3 03 3d
       -0.1538665 -0.18565154 0.040211193 0.032199647
000070 98 50 d9 3c fd e7 0a 3e 39 0d c9 bc 26 a3 98 3e
       0.026527688 0.13565059 -0.024542438 0.29811972
000080 3e d8 42 be e6 ab f2 bd e0 ee 2c 3e f8 5e f2 3d
       -0.19027802 -0.11849193 0.16887999 0.1183452
000090 c8 1c 85 be 4d a7 49 bd 3f 40 83 be fb fa d0 bd
       -0.2599852 -0.049231816 -0.25634953 -0.10204121
0000a0 4f 70 84 be 0f 76 b2 bc d9 a1 87 3e 02 47 a4 bb
       -0.25866935 -0.02178481 0.26490667 -0.0050133476
0000b0 b5 57 4e 3e b3 69 2e 3e 79 f8 1f 3e d1 32 89 be
       0.20150645 0.17032509 0.15622129 -0.26796582
0000c0 5e 34 af bd 23 25 46 be c4 fe 54 3e 5b ba d9 3d
       -0.0855491 -0.19350104 0.2080031 0.106312476
0000d0 04 dc 6d be a9 36 e4 be 50 2c f6 3d 60 0a 83 be
       -0.2322846 -0.44572952 0.12020171 -0.25593853
0000e0 b5 94 ba 3d 5a 14 17 be d3 76 b8 3d 47 c5 e6 bd
       0.09110395 -0.14753857 0.09007039 -0.112680964
0000f0 34 0d 9a be 76 d3 9c 3e 45 43 4b 3d b1 38 2c 3e
       -0.30088198 0.30630082 0.0496247 0.16818501
000100 d9 d0 55 be 26 7a 8d be 32 00 4b 3e 8b b7 0a bd
       -0.2088045 -0.27632254 0.19824293 -0.033866446
000110 cd c2 06 3d eb 86 53 3e 74 54 87 3e e1 aa 64 be
       0.03290062 0.20656936 0.2643162 -0.2233081
000120 4a 55 69 be a2 14 9d bd f7 ba d2 3e b2 ce eb 3c
       -0.22786441 -0.07669951 0.41158268 0.028785083
000130 c1 fb 77 3d b6 4e 6e bd 47 28 6a bc 4b 32 16 bb
       0.060542826 -0.058180533 -0.014291829 -0.002291816
000140 cb 5f 7a bd e3 ce e5 3c 4c 4e 32 3e ca 1f b8 3e
       -0.06112651 0.028052753 0.1741268 0.35961753
000150 0d 58 d5 bd aa e5 ec bd dd a1 c6 3d ee 98 a4 3e
       -0.10417185 -0.115672424 0.09698842 0.32147926
000160 b8 b3 0e 3e 54 07 5c 3d f5 c1 f2 bc 4b 86 df 3d
       0.13935745 0.053717926 -0.029633502 0.10914286
000170 c5 b4 f1 bd 05 c4 62 be 9b 4b 82 3e 12 2c a0 3e
       -0.11802057 -0.22145088 0.25448307 0.31283623
000180 04 74 0f 3e 2a 56 08 3c 4a b1 be 3e ab d1 02 3e
       0.140091 0.008321324 0.37244636 0.12775294
000190 16 8f 07 3d 57 fc 2f bd 1b 2d 49 3e 1a 62 be bd
       0.03309544 -0.04296526 0.19646113 -0.09296055
0001a0 4b a2 50 be 19 86 83 bd dc 53 50 be 7d fd 33 be
       -0.2037441 -0.064220615 -0.2034449 -0.17577167
0001b0 a2 40 8a bd 08 b8 81 3c 58 20 a1 be 4b b0 54 3e
       -0.06750609 0.015834823 -0.3146999 0.20770375
0001c0 65 65 7f be 2f c4 37 3d 30 d0 f2 bd 0c 19 b6 3c
       -0.24941023 0.04486483 -0.11856115 0.02222874
0001d0 f0 a8 8e bd aa e0 18 3e 14 b8 9a 3e 45 1c 50 be
       -0.06965816 0.14929453 0.30218565 -0.20323284
0001e0 3a 31 65 bc 3b 9a 15 3e 89 52 c0 bc b6 d2 ed 3d
       -0.013988787 0.14609616 -0.023476856 0.116124555
0001f0 c0 36 a0 bd 8f d2 31 be 3e 2c 97 3d 49 b2 db bd
       -0.07822943 -0.17365478 0.073814854 -0.107273646
000200 85 95 bb bd 10 7b 28 3d be 2f 9e bd 97 5b 48 3e
       -0.09159378 0.041132987 -0.0772395 0.19566189
000210 6d 47 f5 3c 81 00 a7 be a9 6b b6 3e 1a e5 0c bd
       0.029941285 -0.32617572 0.35629013 -0.034398176
000220 af 59 8f bd 4a b9 58 bd a8 fd b0 3d 04 fe 4f be
       -0.06999528 -0.05291108 0.08642131 -0.20311743
000230 0a 86 01 bd 84 fe ba bd 6e 90 6f 3d dd 61 81 3d
       -0.03162197 -0.09130576 0.05848735 0.06317494
000240 4b 88 b2 3e 88 37 ed 3d 3a 1b 14 be 4a 03 ae 3d
       0.34869608 0.11582857 -0.14463511 0.08496721
000250 a9 41 37 3d 8e da e8 3c 6c 05 94 3d 72 6e 82 be
       0.044740353 0.028424527 0.07227597 -0.25474888
000260 30 ac 40 3e 80 0f 92 3e 3f 7f f1 bd fd 0d a8 3d
       0.18815684 0.2852745 -0.117918484 0.08205793
000270 8e c4 34 be 66 d7 08 3e 5d d2 8f 3d 51 d8 7e be
       -0.17653105 0.13363418 0.070225455 -0.24887206
000280 5a 9e 16 3e 51 a2 b1 bd d7 53 67 be 22 fb 94 3e
       0.14708844 -0.086735375 -0.22590576 0.2909785
000290 49 d2 1e be 8e c0 d8 3d fd 0a 2e bd 15 e2 77 bd
       -0.15509905 0.10583602 -0.042490948 -0.060518343
0002a0 f8 bf 36 3d 66 5c 08 3e 37 c9 bf 3d 4c 8b 8b 3e
       0.04461667 0.13316497 0.093645506 0.27254713
0002b0 18 5e 54 be 43 88 e7 3d ce f7 27 be cb 7e 35 be
       -0.20739019 0.11305287 -0.16403124 -0.17724149
0002c0 31 07 65 be 67 e6 a1 3d 1a 58 91 3e de 9e 2c bd
       -0.22366025 0.07905274 0.2838753 -0.042143695
0002d0 2f 2c 26 3d 46 30 9f 3a 80 c6 8f bd 16 87 25 bd
       0.04056948 0.0012145124 -0.07020283 -0.04041203
0002e0 f6 bd 43 3e e4 51 7e 3e a5 ae df 3d 51 ed 40 be
       0.19115433 0.24835926 0.10921983 -0.18840529
0002f0 d3 82 cd ba 30 ba 4e 3d 24 55 09 3e 23 79 bd 3e
       -0.0015679247 0.05047053 0.13411385 0.37006482
000300 1f e9 1c 3e b4 b7 93 bd 40 52 4f be ba 91 15 bd
       0.15323304 -0.07212773 -0.2024622 -0.03651593
000310 2d 54 a7 bc d0 c6 a3 3c 7a e2 47 3e c7 f9 4f be
       -0.02042588 0.019992262 0.19519988 -0.20310126
000320 be 3f a8 be 90 01 2c 3e 16 e2 1e be 6e 54 49 3e
       -0.3286113 0.16797471 -0.15515932 0.19661114
000330 e5 8d bc bd ae bd a5 be e5 76 33 3e 15 2c 4f be
       -0.09206752 -0.32371277 0.17525823 -0.2023166
000340 93 1b 1a be 66 21 55 be 24 c9 f8 bd cf 5d 7b be
       -0.15049581 -0.20813522 -0.121477395 -0.24547504
000350 02 66 94 3e 5c 19 d2 3d f8 e5 4f bd 1e 75 22 bd
       0.28984076 0.10258743 -0.050756425 -0.039662473
000360 d7 73 ac 3c 79 e4 7a be b2 10 80 be bc 98 03 be
       0.02105133 -0.24501218 -0.25012738 -0.12851232
000370 45 da 84 3c bb 42 7a 3a cc 1f fc bd 7d c0 59 3d
       0.01621736 0.0009546687 -0.12310752 0.053162087
000380 cd 8c 19 be c7 8f 55 3e b4 ca 96 3e c4 ac c0 ba
       -0.14995117 0.20855628 0.29451525 -0.0014699926
000390 d7 2b 0c bb 6d 2d d7 3c 11 87 78 be 46 21 1b be
       -0.0021388435 0.026266778 -0.24270274 -0.15149412
0003a0 f0 e9 4f be fd 94 bf bd 23 03 24 3e 2d 50 20 3d
       -0.20304084 -0.09354589 0.16016822 0.03913896
0003b0 79 65 40 3d f9 b3 c1 3c f3 1d 3f 3d f4 54 87 bd
       0.046971772 0.023645388 0.04665942 -0.066080004
0003c0 aa 24 58 bc 6d 56 05 3e 5b 8f 2d 3e b6 15 94 3c
       -0.013192335 0.1302125 0.16949217 0.018076759
0003d0 38 53 15 3e 8a 4a 49 3e 65 90 40 be a1 87 9a bd
       0.14582527 0.1965734 -0.18805082 -0.075454004
0003e0 40 34 fe 3c 6b c3 77 3e d5 bd f5 bc ae de c5 3d
       0.031030774 0.2419564 -0.029997746 0.096616134
0003f0 7d 05 5d be a9 f5 25 bd c1 cb 6a bd 60 fb 6d 3e
       -0.21584125 -0.040517483 -0.05732322 0.23240423

encoder.0.bias f4 [128]
000000 c6 d6 8d be 7c 11 14 bf c1 e5 92 be 37 70 d1 be
       -0.27702922 -0.5783918 -0.28690913 -0.40905926
000010 b4 85 14 3d b5 26 ae bc e7 c3 a8 3e 9c e8 3c 3e
       0.03626032 -0.021258691 0.32961962 0.18448108
000020 39 f4 1a bf 87 74 9c 3e c2 b0 22 3d a4 6e 18 be
       -0.60528904 0.30557653 0.03971935 -0.14885956
000030 8e 09 2b be d1 75 f2 bd 03 a6 8e bd de 08 08 3e
       -0.16702864 -0.11838878 -0.06965258 0.13284633
000040 9e a6 52 be e6 fb db bd 68 bb 84 be de 7e 4c bd
       -0.20571372 -0.10741405 -0.2592423 -0.049925677
000050 ee cf 50 3e 95 c4 e4 3c d1 37 31 be 4c d0 a3 3d
       0.20391819 0.027925769 -0.17306449 0.07998714
000060 18 fa 5e be fb ce 21 3c 67 82 d7 be 24 48 7e be
       -0.2177509 0.009876008 -0.42091677 -0.24832207
000070 3f 2c 5b 3e 38 d6 2c bc 9c 3c 7c 3d dc 0d b2 be
       0.21403597 -0.010549121 0.06158124 -0.347762
000080 61 b8 26 be 64 91 af 3e 8d 0f 94 3e 53 4d 60 3e
       -0.16281272 0.34290612 0.28918114 0.21904497
000090 80 03 c0 be c2 55 88 3b 89 d2 33 3e b5 f6 9f 3e
       -0.3750267 0.0041606138 0.17560782 0.3124291
0000a0 f8 d3 20 3e d5 c4 07 be af 66 22 be 09 33 93 be
       0.1570586 -0.13258679 -0.15859483 -0.28749874
0000b0 3d 1a ab 3e b5 7d f9 bd 4c a9 ac 3e 07 a5 b4 be
       0.33418456 -0.1218218 0.33722913 -0.35282156
0000c0 fc 46 e1 be d5 79 68 3e 21 5d d4 3d 4c a6 a4 bc
       -0.4399947 0.22702725 0.103693254 -0.020098828
0000d0 4f 37 e5 be bf 2c 6f 3e 15 c4 0f 3b 74 86 a3 3e
       -0.4476876 0.23356913 0.0021936942 0.31938517
0000e0 2e 38 ba 3e 1c e5 9f 3e f5 e2 58 3b ff 34 7f 3d
       0.36370987 0.31229484 0.0033094261 0.0623064
0000f0 dd 5e 2e be fa 2f 20 be 75 05 5b 3d 1a c7 42 3e
       -0.17028375 -0.15643302 0.053472 0.19021264
000100 e6 30 3f be 6c 70 a8 bc 5d aa 56 be 93 d6 f4 3d
       -0.18670997 -0.02056142 -0.20963426 0.11954989
000110 0c cb 3c be a1 f0 cb be 1f 2d 4d 3e 54 09 93 3c
       -0.18436831 -0.39832023 0.20036744 0.017948784
000120 25 f1 7a 3d 48 bc cf be b9 c8 32 be f1 8f c8 3d
       0.06126513 -0.40573335 -0.17459382 0.0979308
000130 59 cc a6 be d8 79 ae bd d2 bf ec bd d5 f6 23 3d
       -0.3257778 -0.085193336 -0.11560024 0.04003032
000140 73 ff bb be 09 fa 30 3e 22 9a b9 3d 9c 96 36 3e
       -0.3671833 0.17282881 0.090626016 0.1783089
000150 75 a4 60 be 4d 29 8d be 36 2b e3 3d 4c 74 e6 be
       -0.21937735 -0.27570572 0.11092226 -0.45010602
000160 ea d3 1c bd a4 f7 90 3b 45 10 12 3d 69 dd ca bd
       -0.038288034 0.0044240523 0.035660047 -0.09905512
000170 9a 5f a4 3d 79 b9 d5 3e 5f 10 7e bd 5f 36 85 3e
       0.08026047 0.41743067 -0.06202733 0.26018044
000180 1c 26 70 be c5 2c 03 3e fe e6 f0 3e 5a 93 40 3d
       -0.23452038 0.12810047 0.47051233 0.047015525
000190 90 63 52 3e 5b fe 6d 3e 4e 54 06 3e 70 8e 0a 3d
       0.20545793 0.2324156 0.13118097 0.033827245
0001a0 8f 68 19 3e 60 5f d9 3c cc 55 46 3e a2 31 89 be
       0.14981292 0.026534736 0.19368666 -0.2679568
0001b0 3e 3d b1 be da 6e 11 be a0 8c 86 bd a8 63 03 be
       -0.34617037 -0.14202443 -0.06569791 -0.12830985
0001c0 db 68 6b be d3 67 96 be 68 a8 65 be 22 6d fc bd
       -0.22989218 -0.29376087 -0.22427523 -0.12325503
0001d0 9b 38 a7 bd 99 9e 53 3e e7 4c 18 3e 0a 21 27 3e
       -0.081650935 0.20665969 0.14873086 0.16321197
0001e0 ec 6e 50 be 20 e2 84 3d 0f 70 cb 3d 39 63 14 3e
       -0.20354813 0.064884424 0.09933483 0.14490975
0001f0 52 6e 3c be 49 c9 40 be 51 11 dc be 30 96 8f be
       -0.18401459 -0.18826784 -0.4298196 -0.2804427

fc_mu.weight f4 [32, 128]
000000 20 4f 14 be 42 1e a1 bd fc 2f 07 be cc e9 f4 bc
       -0.14483309 -0.07867099 -0.13201898 -0.02989664
000010 3a d5 b2 bc 22 a1 21 3d fc f0 41 be e2 37 d5 3d
       -0.02183019 0.03946031 -0.18939584 0.104110494
000020 75 45 93 bd 1c 43 ab b9 e5 b4 a8 bd f8 68 3d 3d
       -0.07190982 -0.00032665662 -0.08237628 0.046242684
000030 41 b4 04 3d b3 5b 2d bd e2 c2 55 bd 87 4c 84 bd
       0.032398466 -0.04232378 -0.052187808 -0.06459909
000040 69 16 d4 3d 41 5f 44 bc b2 fb 8d 3d 7e 29 e9 bd
       0.10355837 -0.011985601 0.06932773 -0.11384867
000050 e6 a9 83 3d 03 30 d3 bd d5 6d b2 3d 8f f6 b4 3c
       0.0642889 -0.10311892 0.08712355 0.022090225
000060 0c 39 f9 3d 6c 0b 79 3d cc aa e4 3c 59 ba 17 be
       0.12169084 0.06080191 0.027913474 -0.1481718
000070 b6 2f b6 3d 01 18 09 be 3c ec ab bd cf e4 8e bc
       0.08895819 -0.13388063 -0.083946675 -0.017443089
000080 dc be 41 be 1f dd 9e bc 93 c7 9a bd 26 e0 23 bd
       -0.18920463 -0.019392548 -0.07557597 -0.040008686
000090 8c 03 9c bc df 4b 53 bd db 93 9b 3c 21 ea 01 3e
       -0.01904466 -0.05158603 0.018991401 0.1268697
0000a0 f0 2d 85 3d 1a 4f ba bd a4 8a fe bd b1 df 42 3e
       0.065029025 -0.09097119 -0.12428787 0.19030644
0000b0 20 98 6e ba e2 7c 16 3d 1a 60 5f bd 7f 4d 06 bd
       -0.0009101648 0.03674019 -0.05453501 -0.03278875
0000c0 f9 2a a4 3d b5 6d e2 bd a0 26 47 3e cd 36 f8 3d
       0.08016009 -0.11056081 0.19448328 0.121198274
0000d0 16 a3 53 3d 05 40 85 bc ce 84 65 bd 6d 61 0a 3e
       0.051669203 -0.016265878 -0.056034856 0.13513727
0000e0 0b 7e 7b 3d d6 b2 dd bd dc a6 1f bd d6 6b d5 bd
       0.0613995 -0.10825126 -0.03897749 -0.10420959
0000f0 0b 18 ad bd 82 13 b4 3c 60 73 30 3e 7e e1 bf 3c
       -0.084518515 0.021981958 0.17231512 0.023422953
000100 17 7a ea 3d 37 74 77 bd 9f 7f d6 bd 93 c3 c1 3c
       0.11449068 -0.060413565 -0.104735605 0.023652827
000110 89 36 21 3d b7 1f 73 bc 91 20 9f 3b 9d f1 1b 3e
       0.03935865 -0.014839104 0.004856177 0.15228887
000120 bc a9 11 3d 00 2e ae 3c 42 76 c6 bd 8f 63 d4 3c
       0.035562262 0.021262169 -0.09690525 0.02592638
000130 05 a0 db bc 46 98 1b be 1a 21 2f 3e 7d 37 c2 3c
       -0.026809702 -0.15194806 0.17102471 0.0237081
000140 8d fb 95 bd 81 75 fc 3d ea 3a 86 3c 8d f0 ec 3c
       -0.0732337 0.123270996 0.016385514 0.028923297
000150 74 77 e4 bc 3b 54 9f 3e 14 86 97 bd a9 56 b2 bd
       -0.027888991 0.3111895 -0.0739862 -0.08707935
000160 cb dd 20 3e 6d 34 0b bc 6c 3d a8 3b 02 df 7f bd
       0.15709607 -0.008496386 0.005134275 -0.062468536
000170 02 83 1e 3d fa b5 45 bd 1b ef d5 3d a5 7d 00 3e
       0.038699158 -0.04826925 0.104459964 0.1254793
000180 1e 92 61 bd 9c e0 89 bd c7 b5 c4 bd dd 8c 88 bc
       -0.05507099 -0.06732294 -0.09604984 -0.016668731
000190 d4 f6 f2 3d 0d de a9 bd 5b 59 d4 bd 90 4f 32 bd
       0.11863485 -0.08294306 -0.10368606 -0.043532908
0001a0 13 1b be 3c 40 ec 37 bc 5a ae 00 3e 27 f9 aa 3b
       0.02320627 -0.01122576 0.1256651 0.0052176896
0001b0 5d 55 db 3d 19 fb 09 be c9 45 b4 3d 35 61 3a bd
       0.10709641 -0.13474692 0.08802373 -0.04550286
0001c0 ba e0 37 be bf ae 53 be ec f9 84 3d 2f 6c c0 3d
       -0.1795682 -0.20672129 0.06492981 0.093956344
0001d0 b6 fa 99 bd cb b7 55 bd 97 96 83 3d 63 8b 4d 3b
       -0.075185224 -0.05217723 0.06425207 0.0031363599
0001e0 ab 0a 89 3e 8c 66 14 be 0d 9d 7e 3d a2 8d fa 3b
       0.26765952 -0.14492244 0.062161494 0.0076462785
0001f0 f9 0a 25 bd 58 d1 00 3d 36 7b 64 3d 4b 6c 53 bd
       -0.040293667 0.031449646 0.055781566 -0.051616948
000200 f5 b7 8f bc ce bf 96 bc a6 cf 87 bc cd 50 c6 3c
       -0.017543772 -0.018402006 -0.016578507 0.02420845
000210 44 f4 cd 3c e4 9f da bb 6b 21 5c bc 45 89 8c 3c
       0.025140889 -0.0066718925 -0.013435702 0.017155299
000220 22 a7 4d 3c d0 00 04 3c 5d db 43 3c 28 d6 85 bc
       0.012552055 0.008056834 0.011954156 -0.01633747
000230 6d 1b 43 bc 49 e9 33 3d 0b 21 5a 3d 6a b2 7a 3c
       -0.011908394 0.04392365 0.05325417 0.015301326
000240 ec d9 66 3c d4 80 76 bc 73 a8 8c bc b6 0a d5 bc
       0.014090043 -0.015045363 -0.017170167 -0.026006084
000250 06 01 04 3d 21 d8 13 3d 28 d9 e0 bc 64 26 41 3c
       0.03222754 0.03609479 -0.027447298 0.011788938
000260 62 03 c7 3a cd 5f b3 bb 9f 4a 19 3d e0 a0 90 3c
       0.0015183503 -0.005474067 0.03742468 0.017654836
000270 97 5b 11 bc c5 55 a9 bc 27 99 b0 bd 60 1c db bc
       -0.008871934 -0.02067078 -0.086229615 -0.026746929
000280 ed 81 f5 3c 15 2b dd 3c a8 8e e7 bc e7 8c 83 3c
       0.02996918 0.026998082 -0.028266266 0.016058398
000290 59 a4 03 bc 50 41 07 3c e4 3e db bc f7 2f 35 bd
       -0.008034789 0.008255318 -0.026763387 -0.044235196
0002a0 dd dd 93 bc 4e 13 22 bb bf 61 a7 bc c8 07 e6 3c
       -0.018050129 -0.0024730745 -0.020432351 0.028079882
0002b0 e1 be 43 3d f6 b3 0e 3c d5 ee d9 ba e1 0f 26 bc
       0.04778946 0.008709898 -0.0016626964 -0.010135622
0002c0 68 eb c0 3c 54 6f 0f 3d f5 26 9a 3c ae 88 66 3b
       0.02354975 0.03501828 0.018817404 0.0035176682
0002d0 a4 33 0f 3b a3 34 63 bd a5 4d 07 3d 7b a2 17 3c
       0.0021850849 -0.05547012 0.033033032 0.009255047
0002e0 cf cf fd ba 52 71 11 3d 27 e5 9a 3d b0 c6 0a bc
       -0.00193643 0.03550846 0.075632386 -0.008470222
0002f0 29 47 e3 bc ec 5d 33 3c 1d 5d 7c bc 4f 96 08 3c
       -0.027743893 0.010947686 -0.015403059 0.008336618
000300 6e 91 ff 3b a7 95 e7 3a f0 11 76 3c de a0 9a bc
       0.007799319 0.0017668501 0.015018925 -0.018875536
000310 58 23 2f ba de 0f 00 3c 1a 69 a0 3c 4a 09 b8 3b
       -0.0006680987 0.007816283 0.019581366 0.0056163417
000320 07 81 d2 3b 4c ce 30 bc 0c dd e3 bc 79 a8 e5 3c
       0.0064240727 -0.0107913725 -0.027815364 0.028034436
000330 18 69 aa bc 67 91 42 3d f7 f6 80 bc 2c 77 79 bc
       -0.020802066 0.047501948 -0.015742762 -0.015226167
000340 26 af 77 bc e1 e2 f0 3c 11 e2 a8 bc 6c 1e 54 3c
       -0.015117442 0.02940506 -0.02061561 0.012946706
000350 fe df ad 3b 78 a8 6d bc cf 9b 16 3c 9d 59 c3 bc
       0.005306243 -0.014505498 0.009192421 -0.023846442
000360 f5 d3 44 3c 60 76 8c 3b b6 61 23 ba bb b1 af bc
       0.012013425 0.0042865723 -0.00062325166 -0.021447053
000370 4c 6d 0d bd e5 f3 3a 3d af 0c b3 bc 87 e4 85 bc
       -0.03452806 0.045642752 -0.021856634 -0.016344322
000380 81 45 ae bb 76 d7 9b bc 8b 18 b8 3c 55 19 8c 3c
       -0.005318344 -0.019023638 0.02247264 0.017101923
000390 8f b9 da bc 96 a7 88 bb f0 7c 76 bd 55 83 eb 3c
       -0.02669981 -0.0041703684 -0.060177743 0.028749147
0003a0 8b 13 70 bc 78 90 cc bc 08 af f3 3a 6c 6f a1 3c
       -0.014653097 -0.024971232 0.0018591592 0.01970645
0003b0 61 d3 7d bc 1a 28 57 bd 60 3a 8f 3c 2c 45 08 3d
       -0.015492291 -0.05252848 0.01748389 0.033269092
0003c0 82 d3 07 bc bb 42 b0 bc 6b 02 c1 3c e1 e3 9f bc
       -0.0082901735 -0.021516195 0.023560723 -0.01951784
0003d0 fe ad 2f 3d 60 78 d3 bc dc 23 d9 3b a6 b3 83 3c
       0.04289054 -0.025814235 0.006626589 0.016076874
0003e0 24 61 2d 3c 0b a0 34 3d e8 3d 2a bd 82 1b 37 bc
       0.010582242 0.04409794 -0.041562945 -0.011175992
0003f0 6e 5f cb 3c 0d e1 93 3c 2d 11 82 bc 53 2b de 3c
       0.024825778 0.018051649 -0.01587733 0.027120268

fc_mu.bias f4 [32]
000000 37 a0 c6 bb 01 3d 26 bd d9 fd 60 bd 82 0d 41 3d
       -0.0060615796 -0.04058552 -0.054929588 0.047132023
000010 c1 b8 42 3d ab 09 85 bd ad 8c 65 bd 0e b8 d9 3c
       0.047539476 -0.06495985 -0.056042362 0.026577022
000020 ad 5d 16 3d 72 b6 b1 bd f5 67 94 3c 3d f3 12 bd
       0.03671043 -0.08677377 0.018115977 -0.0358765
000030 9f 15 02 bc 28 6a 4f bd 4e 5c 8b bd bf 4d 46 3c
       -0.007939725 -0.050638348 -0.06804715 0.012103497
000040 2f 09 07 3d 95 76 90 bc b7 c9 44 3d 39 6b 3a bc
       0.032967743 -0.01763467 0.048043933 -0.011378103
000050 ef 54 2b 3d 80 fb 9b bc 3f 96 04 bd 42 e4 4c 3d
       0.041829046 -0.019040823 -0.03236985 0.05002237
000060 14 27 7b bc 9e c3 a6 3c 98 e4 99 3b 3c fa 5c 3d
       -0.015329141 0.02035695 0.00469644 0.05394958
000070 1d ae 15 bd cd 8a 55 bd c2 50 04 bd cf 75 f8 3c
       -0.036543 -0.052134324 -0.03230358 0.030329613

fc_logvar.weight f4 [32, 128]
000000 32 04 4c 3d 8e fc ad bc be 25 63 bd cc 4f 89 3d
       0.04980869 -0.021238592 -0.055455916 0.06704673
000010 3d 34 6d bd b9 3c 8e bd 6a a9 dc bd df 14 27 bd
       -0.057911146 -0.06945176 -0.10774501 -0.04079139
000020 21 7b b6 3d db 1f ea bc fe b9 02 bd 4b 35 44 3d
       0.08910204 -0.028579643 -0.031915657 0.047902387
000030 2b 0e 3b bd 9a 04 66 bc 5b 7b 20 bd 47 d6 72 3d
       -0.04566781 -0.014039183 -0.03918014 0.059286382
000040 32 06 0f 3d 66 f9 89 bc 8b 01 33 3a 3d 8b 30 3d
       0.034918018 -0.016842555 0.0006828538 0.043101538
000050 9d c7 18 3b 4a 79 ba bc ca ec 5f bd ac fd 8a bd
       0.0023312338 -0.022762913 -0.05466918 -0.06786665
000060 1a f3 99 3d 85 25 55 bd 59 24 10 3d f8 19 4b bd
       0.07517071 -0.052037735 0.035190914 -0.049585313
000070 b3 c6 ca bd 80 85 78 3d cb e9 b6 3d bf 56 88 3b
       -0.0990118 0.06067419 0.08931311 0.0041607316
000080 67 b0 a5 3d f7 87 a0 bd f3 ab 57 bd b0 9e 36 bd
       0.08090287 -0.07838433 -0.052654218 -0.04458493
000090 49 64 da 3c e4 74 8d 3c 6a 60 44 bc 96 49 44 bd
       0.026659148 0.017267652 -0.0119858775 -0.04792174
0000a0 30 c2 cb bd f5 3c 36 bc 48 94 b4 bc 34 88 cb bd
       -0.09949148 -0.011122932 -0.022043362 -0.09938088
0000b0 1f cf 0b bd 57 16 5b bd 11 e1 84 bc 94 23 d3 3c
       -0.034133073 -0.0534881 -0.016220601 0.0257738
0000c0 77 92 68 bc a6 d8 96 bc ce a1 f7 bc 8b 92 1a 3c
       -0.014195076 -0.018413853 -0.030228522 0.009434353
0000d0 07 8d 96 3d da 84 52 bd b4 5a 4c bc 10 bf da 3a
       0.073511176 -0.05139623 -0.012472797 0.0016689021
0000e0 37 00 45 bc a1 93 6e bd 6f aa 8e bd 72 5d b3 bc
       -0.012023977 -0.05824626 -0.069661014 -0.021895144
0000f0 de 96 26 3d 4a 45 2a ba 33 07 03 bc d9 42 dc bc
       0.040671222 -0.000649531 -0.007997322 -0.026887344
000100 00 33 f2 bc 4f 65 a0 3d 7d 20 7f 3d 7d c0 a5 bc
       -0.029565334 0.07831823 0.062286843 -0.020233387
000110 07 1e 21 bd 54 d1 1f bd 37 88 3e bd 34 b9 80 3c
       -0.039335277 -0.03901799 -0.046516623 0.015713312
000120 bf 80 88 3b 24 1d b4 3d 7a c1 2d 3d 27 7b b1 bc
       0.0041657384 0.08794621 0.04242084 -0.021665169
000130 dd 77 c0 3d be 0a 78 bd ab c9 a6 bd a9 31 93 bb
       0.09397862 -0.06055712 -0.08143934 -0.004492004
000140 5a 56 6c bb 25 43 74 bd dd 3a c2 3c 4d bc 4f bd
       -0.0036062212 -0.059634347 0.023709709 -0.050716687
000150 12 e6 55 3d fe 1b ac bd f5 03 04 bd 7e 2c 84 3d
       0.052221365 -0.084037766 -0.032230336 0.06453799
000160 56 2c 09 bd 7e 06 f0 bc f6 76 94 bc bf 36 98 3d
       -0.033489548 -0.02929997 -0.018123131 0.07432317
000170 0a 7c 3a bd 80 56 d6 bd ce 04 2b 3d ec 4f c6 3c
       -0.04552845 -0.10465717 0.04175263 0.024208032
000180 d6 65 e2 3d 74 dc 6d bc 7f a4 b9 3c d5 78 0b bd
       0.1105458 -0.014517892 0.022661446 -0.03405078
000190 c9 93 f7 bd e2 de 95 bc fb 16 27 bd 7f 46 83 bd
       -0.12088735 -0.018294755 -0.0407934 -0.064099304
0001a0 0d 4f 94 3c 07 38 80 bc 8a b4 53 3c de 84 0a 3d
       0.0181041 -0.015651716 0.012921462 0.03381812
0001b0 6f 38 2f 3c 59 ea 3f 3d 41 5a cd 3c e6 d2 05 bd
       0.010694607 0.04685435 0.02506745 -0.03267183
0001c0 43 90 5a 3d e9 75 e8 3c be a5 94 bd 53 7c e3 3c
       0.053360235 0.028376536 -0.07258175 0.027769243
0001d0 94 f6 2d bd 5b ce 11 bd a6 c1 2f 3b 0d 76 85 bc
       -0.042471483 -0.035597187 0.0026818304 -0.016291643
0001e0 f8 82 13 bd cd ae 69 bd 31 a3 98 bd e2 24 3f 3d
       -0.036013573 -0.05705147 -0.07453001 0.046666034
0001f0 55 c4 24 3b e3 3e b5 bd c7 21 a9 3c 7b 67 84 bd
       0.0025141437 -0.08849885 0.02064599 -0.0646505
000200 c0 97 fd bb 12 3a f8 bc cf 36 84 3d e2 29 7a bc
       -0.0077390373 -0.030301128 0.064557664 -0.015268775
000210 3f b5 cd 3b 23 e2 20 3d a2 ec 62 ba 79 00 bb bc
       0.0062777097 0.03927816 -0.0008656477 -0.022827374
000220 5a 5f 5a 3b 33 30 76 bd 9d 35 b0 3c ea 65 a0 3c
       0.0033320994 -0.06010456 0.02150994 0.019579846
000230 de ad 2b 3d a8 ce 51 3d 37 b2 f3 bc 6b 89 1b 3c
       0.04191386 0.051222473 -0.029748065 0.009493212
000240 70 1d 18 3d 9f 61 2a bd bb 40 8a bc 72 e5 1f bd
       0.03713745 -0.041597005 -0.016876569 -0.039037175
000250 b8 ab 80 bd 6d af 07 bd 33 64 33 bd 26 a5 fe 3b
       -0.06282753 -0.033126283 -0.04379673 0.007771152
000260 15 a4 b2 3b 1d ee 90 bd 45 51 3e bd 18 12 ac 3c
       0.005451689 -0.070766665 -0.046464223 0.021004722
000270 2e 38 29 3d ae eb d4 3c 3b b1 6a 3a 6e cb 0a 39
       0.041313343 0.025991287 0.0008952801 0.00013236489
000280 6a a4 14 3d eb 9f d3 3c 13 d4 ca 3c 27 ed 02 3d
       0.03628961 0.02583309 0.024759328 0.031964447
000290 b7 cb 29 bd db cd b0 3c 8b c3 e5 3c 96 32 c8 3c
       -0.041454043 0.021582535 0.028047344 0.024438184
0002a0 e3 a5 41 3d 7b a9 a2 bc 15 a8 43 3c c1 26 f8 3a
       0.047277343 -0.019856205 0.011941929 0.0018932448
0002b0 86 dd 19 bd 88 c3 74 bc bc 47 29 3d 94 03 88 bb
       -0.037564777 -0.014939196 0.041328177 -0.004150817
0002c0 21 22 76 3c b0 b3 8f 3c 7e fa 3f bd 2b 93 1d 3c
       0.015022785 0.017541736 -0.046869747 0.009617607
0002d0 55 56 6a 3b 1f 08 f9 3c 27 a7 29 bd ce 5b 2a bc
       0.0035757024 0.03039938 -0.041419175 -0.0103978645
0002e0 0c 12 f4 3c 71 9a 0b bd 1d 57 82 bc d9 db ce bc
       0.029793762 -0.034082834 -0.01591068 -0.025251316
0002f0 90 fa 52 3d 40 62 ed bc d8 1d e1 bc bc dc 91 b9
       0.051508486 -0.028977513 -0.02748005 -0.00027821015
000300 4c 58 e0 3b d5 13 c3 bb 9e 3b dc bb c4 c2 71 bc
       0.0068464633 -0.005953292 -0.006720974 -0.014755908
000310 50 1f 8a bc 70 9e 20 3d d1 44 18 3b 8b 0a eb 3c
       -0.016860634 0.039213598 0.0023234377 0.02869155
000320 b5 17 9c 3c c7 5c d9 bc de 97 d5 3b 8e e3 70 bd
       0.019054273 -0.026533497 0.006518348 -0.058810763
000330 d2 e3 49 bc c4 84 65 3c 41 e1 0a bd 69 1e 2b 3d
       -0.012322383 0.014008705 -0.033906225 0.04177705
000340 54 c6 85 bc 4d a5 6d bb 1c 25 57 bd 6c 4d 13 3d
       -0.016329922 -0.0036261857 -0.052525625 0.035962507
000350 5c ae 34 3c 4d e6 48 bc c2 7b f1 3b 7f 1e 3a ba
       0.011027899 -0.012261939 0.0073694894 -0.0007099881
000360 d7 f0 03 bd 97 32 0f 3c 3e 1e ef bb e6 7d 47 3c
       -0.032212105 0.008740089 -0.0072973063 0.012176013
000370 15 af 42 bd 2c 80 5e 3d 1c ed b5 3c b9 c2 89 3d
       -0.047530252 0.054321453 0.02220779 0.067265935
000380 98 2e 8a bc d1 d7 a2 bc 97 4d c7 bc 0b e7 1a 3d
       -0.01686792 -0.0198783 -0.02432899 0.037817996
000390 51 3c 2d 3d 39 d0 58 bc 0b 38 f9 3b 25 e3 49 3c
       0.04229385 -0.013233238 0.007605558 0.012322222
0003a0 1b f7 4c 3c fd 04 41 bd c4 30 27 bd 45 b1 6a 3b
       0.012510086 -0.047123898 -0.04081799 0.0035811227
0003b0 1c 3c 21 3d fa e3 a2 bc 7d 9c 70 bc 8b 35 e7 3c
       0.039363965 -0.019884098 -0.014685747 0.028223773
0003c0 cb 97 2f bd b3 62 01 bd 71 97 e8 3c c2 2e cd 3c
       -0.04286937 -0.031588268 0.028392525 0.02504671
0003d0 f5 25 3c bc b3 9a 7e bc f3 aa f1 3b 2d 8c e1 3c
       -0.011483659 -0.015539813 0.007375115 0.027532661
0003e0 23 69 84 bc b6 55 1d 3d c1 53 87 3d 2b 17 24 3d
       -0.016163414 0.03841182 0.06607772 0.040061157
0003f0 f2 ed 87 bd 8f d4 2e 3d 54 c9 95 3b d7 4c a8 bc
       -0.06637181 0.04268318 0.0045711193 -0.020544453

fc_logvar.bias f4 [32]
000000 5e 51 8c bd 2c b2 62 bd 70 18 d7 bd 75 fe 52 bd
       -0.06851457 -0.0553457 -0.10502708 -0.0515122
000010 c0 a0 f8 3c be 31 e0 3b 5a 33 01 bb a0 a3 46 be
       0.03035009 0.006841867 -0.0019714446 -0.19398355
000020 13 32 39 bd 9b 8b b7 3d a9 28 a7 3b 24 4b 32 3d
       -0.04521377 0.089621745 0.0051012826 0.04352869
000030 0f 02 7b bd 4f 7c b5 3c 1c bf a1 3c a2 f9 a0 bb
       -0.06128126 0.022154002 0.019744448 -0.004912571
000040 4b b7 85 be ae 12 ab 3b 86 5e e3 3c c0 a1 ef 3c
       -0.26116404 0.0052207327 0.027755033 0.029251933
000050 60 c5 77 bc f0 25 ce 3a 3f c3 0a bd 83 20 ad 3c
       -0.015122741 0.0015727859 -0.033877607 0.021133667
000060 56 c6 99 bc d6 a6 0b bd 5f 45 05 bc a8 eb 3e 3d
       -0.018771332 -0.034094654 -0.008134215 0.046611458
000070 4d 52 8d 3c 8d bc 42 bd 82 13 86 bc 61 d8 83 b9
       0.017251158 -0.047543097 -0.016366724 -0.00025147482

decoder.0.weight f4 [128, 32]
000000 63 14 8c 3c 83 ce 62 bd 03 2d 5f 3e e5 f6 47 3d
       0.017099565 -0.055372726 0.21794514 0.04881944
000010 71 5b 25 3d c9 32 05 bd 04 5b 67 3d 73 5d fe be
       0.04037041 -0.032519136 0.056483284 -0.4968067
000020 48 67 f7 3b e8 2f c7 3d 3f 4d 66 bd 21 f7 89 3c
       0.007550154 0.09725934 -0.05622601 0.016841473
000030 ed 6a 6d bd 88 0e fd 3a bc 38 0e 3c ae a9 24 3d
       -0.0579633 0.0019306699 0.008680519 0.04020088
000040 ca 58 49 3e 0d 4a 25 3c f0 24 80 3d 38 34 05 bd
       0.19662777 0.010088456 0.06257045 -0.032520503
000050 f6 45 fe 3c 33 ba 43 bc 73 07 e0 bc dd 2d 80 bd
       0.03103922 -0.011946249 -0.027347302 -0.06258748
000060 69 50 fe 3c 4a c1 1e bd 5a 70 37 bd 20 4a 01 3d
       0.031044202 -0.038758554 -0.04478488 0.03156483
000070 b7 78 ca bb f6 c1 11 bd ef 0f cf bb d2 b1 c8 3c
       -0.006178941 -0.035585366 -0.006319038 0.024498854
000080 b6 b5 f9 bd 78 59 b2 3d 25 68 23 be cc 67 4a bd
       -0.12192862 0.08708471 -0.15957697 -0.049415395
000090 54 52 ab 3c c5 a1 f7 3c ab ed 70 3d a8 e0 6b bc
       0.02091328 0.030228505 0.058820408 -0.014396824
0000a0 3a c8 e7 3c d8 1b 81 3d 2c 2a ef 3d 66 96 86 3d
       0.028293718 0.06304139 0.116779655 0.06571655
0000b0 f8 3b c5 3c 5b e9 34 be 1c 7f fd bd de 15 c3 3d
       0.024076447 -0.17667143 -0.1237776 0.09525655
0000c0 30 59 1e 3e 36 6e 21 bd e5 e8 af 3d 12 8e 05 be
       0.1546371 -0.039411746 0.08589343 -0.13042477
0000d0 41 67 a4 bd 42 ed b0 3d 5b cb ca bc ce d9 82 3d
       -0.080275066 0.08639003 -0.02475517 0.06389199
0000e0 5f e2 ec bb 7d db 9b bd 3a 31 40 3d f4 fc d4 3d
       -0.007229134 -0.076102234 0.046921946 0.103998095
0000f0 cc 70 c1 bd 23 c8 24 bd 65 56 c2 bd 1f 0c 62 bd
       -0.094453424 -0.040229928 -0.09489135 -0.05518734
000100 55 70 94 3d 89 bc a5 3c 9d 6f 29 bf 8e 42 14 bc
       0.07247988 0.020231502 -0.66185933 -0.009049071
000110 a5 b2 04 bd 32 b0 6c 3c aa 24 2e bc 68 98 af bd
       -0.03239693 0.014446305 -0.010628859 -0.08573991
000120 0a 9e 9f bc bd 12 ec 3b ee 52 53 3a b5 8b fd bc
       -0.019484539 0.007204382 0.0008061369 -0.030950407
000130 ed f8 2b bc 66 0b 1b bd b6 1d 82 bc d9 2a f1 3a
       -0.01049636 -0.037852667 -0.015883308 0.001839961
000140 8a b6 81 3d 91 0b 8e bc 68 70 ea bc aa 37 00 3d
       0.06333645 -0.0173395 -0.028618053 0.031303085
000150 51 74 a7 3c ef 1e 76 bc 24 00 4f 3d b1 18 a4 3c
       0.020441206 -0.015022024 0.050537243 0.020031305
000160 95 ca dd 3b 45 84 b9 bc e6 ec cb 3c 2b 02 90 bc
       0.0067685344 -0.022646079 0.024893235 -0.017579159
000170 21 a1 88 bc d9 f0 41 3d 23 32 68 bd 25 a1 0e 3d
       -0.016678395 0.04734883 -0.05668844 0.03482165
000180 e3 28 15 3d ea f0 64 bd da 12 bf be ec 69 ec bc
       0.036415946 -0.055893816 -0.3731907 -0.028859101
000190 a4 6e 7b bc 73 26 e3 3a 69 53 5c 3d 55 ba dd 3b
       -0.015346203 0.0017330184 0.053790484 0.0067665973
0001a0 8f 71 2c bd 6f 33 92 3d af c1 d4 bc 3b 89 89 3d
       -0.042100485 0.071387164 -0.025971262 0.06715628
0001b0 9e e9 8c bd 28 c1 60 3d 2a a5 8f 3d e5 cd 2c bd
       -0.068804964 0.05487171 0.070139244 -0.042188544
0001c0 b7 b2 39 3e 8c b2 43 3d 5b 18 1b be d3 e5 d9 3d
       0.1813458 0.047777697 -0.1514601 0.106395386
0001d0 10 00 a1 3d 6f 2d c3 bd 72 f0 89 bd a2 a5 aa bb
       0.0786134 -0.0953015 -0.067353144 -0.0052077333
0001e0 a1 36 d4 3d 8d 69 af bd 72 a7 84 3d 26 36 9b 3b
       0.10361982 -0.08565054 0.0647725 0.0047366796
0001f0 72 f4 15 3d bf e0 75 bd 88 7a e4 3c df ba 3e 3d
       0.036610074 -0.060028788 0.027890459 0.046564933
000200 97 53 59 3e 4b db 82 bd cc 8d 1a 3e 4f ed 12 3d
       0.21223293 -0.06389483 0.15093154 0.035870846
000210 38 f3 be bd 42 1f a8 ba 26 e9 c1 bd 09 69 98 bd
       -0.09323734 -0.0012826698 -0.09468298 -0.07441909
000220 4a 13 d8 3c d1 80 cc bb 98 6d 1d bc d1 51 c1 3d
       0.026376385 -0.006240942 -0.009608649 0.09439433
000230 95 79 46 bd 98 9b bf bc 58 09 13 bd 6a 47 e0 3c
       -0.048455793 -0.023389623 -0.035897583 0.027377803
000240 33 3d 04 3e cb a4 9d bd 86 3d b4 ba ff a8 d4 3d
       0.1291397 -0.076974474 -0.0013751246 0.10383796
000250 56 a6 ed 3b 53 33 14 be 79 26 45 bd f0 fd 89 bd
       0.007252495 -0.14472704 -0.048132394 -0.06737888
000260 20 86 3d 3c 67 8b c0 3d 61 7e 99 3d 82 8d d3 bd
       0.011567622 0.09401589 0.07494808 -0.10329725
000270 e5 4d ad 3d 30 4b ea bd 3b f1 94 3d bd 21 b0 3d
       0.08462123 -0.11440122 0.072725736 0.08600185
000280 9b eb 26 be 87 5d d3 3d 9f ff 8a 3b f8 e3 5f bd
       -0.16300814 0.10320573 0.004241898 -0.054660767
000290 3b ed 40 bd 19 92 31 bd fa 14 ea bd ae 06 1c 3e
       -0.04710124 -0.04335222 -0.11429782 0.15236923
0002a0 ae 84 e2 3c f4 2c ba bc 6b a2 15 3d 00 bb 4f 3b
       0.027651157 -0.022726513 0.036531847 0.0031697154
0002b0 21 eb 82 bd 33 a5 ab bd ed 70 ce 3c 7d 16 a8 3c
       -0.063925035 -0.083811186 0.025200332 0.020518536
0002c0 95 24 da be e6 87 da 3d 61 92 4c 3d c1 0d 88 3d
       -0.42606035 0.10670452 0.049944285 0.06643248
0002d0 6d ab 9e bc c8 82 bc 3d 84 95 43 bd 0d 50 20 3e
       -0.019368852 0.09204632 -0.04775001 0.15655537
0002e0 3d 97 64 bd 99 ba a2 3d 81 69 2d bd c5 2a e2 3c
       -0.055808295 0.07945747 -0.042336944 0.027608285
0002f0 e0 6b 13 bd c1 d7 95 3d 7e 88 4e bd 6b ff 34 3d
       -0.03599155 0.073165424 -0.050423138 0.044188898
000300 bd 0a 36 3d 6b 81 39 ba f8 1b af 3d 33 bb 9a bd
       0.044443835 -0.0007076475 0.085502565 -0.07555237
000310 57 20 5c bc 1c 29 71 3d d9 3a 01 bd e7 4c 0d bf
       -0.013435445 0.058877096 -0.031550262 -0.5519547
000320 83 b1 11 3e 24 85 a3 3c f3 aa 8e 3c 41 84 54 3c
       0.14227872 0.019960947 0.0174155 0.012970985
000330 ff b6 b6 3c c5 9d 9c bc f6 5e 5e bc 0d ab 56 bd
       0.022304056 -0.0191182 -0.013572445 -0.05240922
000340 2a ee 50 3e 73 60 21 3c 1f b0 31 bd b2 8e 80 3d
       0.20403352 0.009849655 -0.043380853 0.06277217
000350 d7 42 59 3d 90 51 f3 3d 7a 54 1c 3d d0 1c 11 bc
       0.05304226 0.11880791 0.0381665 -0.008856967
000360 ec 5a af 3d be 48 6e 3d 33 79 84 3d d8 a3 af 3d
       0.08562264 0.05817484 0.064684294 0.085761726
000370 f4 54 d0 3d cc 2e 47 3c 8d f9 66 3b 26 48 7b 3c
       0.101724535 0.012157153 0.0035243959 0.015337026
000380 c0 99 2d be 87 5a 79 3b 39 9d 09 bf 76 f0 d9 bb
       -0.16953182 0.0038048343 -0.5375553 -0.0066509796
000390 43 e7 56 3c 12 80 ac 3b de b7 16 3d bb c8 03 3e
       0.0131166605 0.0052642906 0.036796443 0.12869541
0003a0 4d d0 b2 bb d2 37 90 b9 fc ad 3c 3c b8 7c 56 3b
       -0.0054569603 -0.0002750741 0.0115160905 0.0032728147
0003b0 ac ca b3 bc 71 df df 3c fa 9c 89 bb df d9 5a 3c
       -0.021947227 0.027328225 -0.0041996213 0.013357609
0003c0 6e 67 18 bd 1c 14 72 bc cd 42 49 bb af e4 43 bc
       -0.037208013 -0.014775302 -0.0030709982 -0.011956378
0003d0 2c 8c c1 b9 ad 87 51 3b 4d 80 e4 3b 62 53 95 bc
       -0.00036916265 0.0031971738 0.0069733025 -0.018228237
0003e0 09 aa 4d bb 1c 55 22 3c 84 af e4 bc b3 ac f0 3b
       -0.0031381866 0.009907987 -0.027915724 0.007344806
0003f0 14 a5 d9 3c 8f eb 07 bc a0 8f 25 ba 0a d0 1e bc
       0.026567973 -0.008295908 -0.0006315652 -0.009693155

decoder.0.bias f4 [128]
000000 6b 5d 09 bf 3e 9a 19 be bc a9 16 bf 74 d9 3d be
       -0.5365817 -0.15000245 -0.58852744 -0.18539983
000010 0b c6 60 be c9 9e 5e 3e 78 4c 50 3d 0a 94 29 bf
       -0.21950547 0.21740259 0.050854176 -0.66241515
000020 6e 35 67 3e 64 30 e0 3d 28 46 a9 be 5c 0b 2e bf
       0.22578976 0.1094673 -0.33061337 -0.67986083
000030 ca 40 86 be be c1 ba bd 3d 82 82 be 0f e2 e3 bd
       -0.26221305 -0.09118985 -0.2548999 -0.11127102
000040 5f a1 5f be 11 71 35 be 3c bc 4f 3d 4f 3b 44 be
       -0.21838902 -0.17718913 0.050716624 -0.1916325
000050 82 54 d6 bd f0 09 68 be fd 55 f2 be f1 55 5b be
       -0.10465337 -0.22660041 -0.4733123 -0.21419503
000060 69 2c 23 be 35 b7 df bd b6 0b 07 3d 41 4c 2e bd
       -0.1593491 -0.10923616 0.032970153 -0.04255319
000070 34 eb 11 be 45 0a 92 3b a4 76 ce bd 37 2b 1c be
       -0.14249879 0.0044567906 -0.10081223 -0.1525086
000080 39 6b 7a bd 7c 59 f5 3d f5 ab 2e be f6 ac 54 be
       -0.06113741 0.119799584 -0.17057784 -0.20769104
000090 65 2e 07 bf 43 12 87 be a0 fb ed bd 3d 22 8e bf
       -0.5280517 -0.2638112 -0.11620259 -1.1104199
0000a0 de d4 5e be 79 f1 2c be 24 7c 38 bf a4 71 2c be
       -0.2176089 -0.1688899 -0.72064424 -0.16840225
0000b0 eb 03 9e be 55 b4 41 3d 8d f0 3c 3e 83 d1 c4 bd
       -0.30862364 0.04729112 0.18451138 -0.09610274
0000c0 b2 00 15 bf 12 5f e9 be 7b 52 c6 3d 78 d4 db be
       -0.58204186 -0.45580345 0.09683701 -0.42935538
0000d0 b5 de dc be 6b 54 f3 bd c9 20 c7 bd 5a 38 38 3e
       -0.43138662 -0.11881336 -0.0972305 0.17990246
0000e0 82 ca 04 be 86 c1 23 be 5a f0 a4 bc 1e 3b a9 be
       -0.12967876 -0.15991792 -0.02013414 -0.33052915
0000f0 53 56 23 3e 83 3b 7b bd a2 c9 f3 bd 1b 0b a0 be
       0.15950899 -0.06133605 -0.11903693 -0.31258473
000100 0c 13 e1 bd ff 6a 09 be a4 0d 09 3d 72 5f ef bc
       -0.10989961 -0.13419722 0.033460274 -0.029220317
000110 6d 3a 27 bf 17 9d 13 bc 95 65 f5 bc d9 24 73 bd
       -0.65323526 -0.009009621 -0.029955665 -0.059361313
000120 02 c4 39 bd b7 8d fd be 70 db 9f bd 61 82 b3 bc
       -0.045352943 -0.49522182 -0.07805526 -0.021912755
000130 1d ce 1d bd f2 34 fc bc c3 bc 86 be f1 f8 6e be
       -0.038526643 -0.030786965 -0.2631589 -0.23337151
000140 c1 af 9f be 89 53 10 be 0a b5 cc be 45 b4 73 3d
       -0.31188777 -0.14094366 -0.39981872 0.05949809
000150 86 4d c8 bb 00 1a 30 3e f5 cf 38 bd 3a e4 03 3e
       -0.006112757 0.17197418 -0.0451202 0.1288003
000160 21 96 97 be bc 2c 1b be 81 ed 15 bf 76 33 f4 bd
       -0.29606727 -0.15153784 -0.5856553 -0.11923878
000170 f2 31 3f bd 1b d0 0c be 9f e7 b7 be 28 00 f2 3d
       -0.04667849 -0.13751261 -0.359189 0.11816436
000180 45 18 31 bd 8e c6 ed 3c 8d c1 7d be db aa 3b 3e
       -0.043236036 0.029025342 -0.24780865 0.18326895
000190 6d 11 12 3e 5e 2f 6d bf bf 51 e9 be 59 16 21 be
       0.1426446 -0.926504 -0.4557018 -0.15731181
0001a0 89 61 75 bf 9f 5c 3b be b3 30 26 be 08 fe f6 be
       -0.9585195 -0.18297051 -0.16229515 -0.48240685
0001b0 17 bc 5f be d9 ac 1f be 43 ef 09 be 9f 60 19 bf
       -0.21849094 -0.1559328 -0.13470177 -0.5991306
0001c0 cd 23 1a be 34 49 1a bf ba 6f 52 3e 96 30 f3 bc
       -0.1505272 -0.6026795 0.20550433 -0.029686254
0001d0 cc 8b 80 bc ff 1b 63 3e fd fb 8b be 95 02 8d 3d
       -0.01569166 0.22178648 -0.2734069 0.06885258
0001e0 6f 0b af bd 8c 7a 0f bf ea 98 90 3e 7b cc 39 be
       -0.08547103 -0.56046367 0.28241664 -0.1814441
0001f0 0f cb 4c be 5d 3a 17 3b 8a be c2 bd cb f5 91 3d
       -0.19999336 0.0023075559 -0.09508999 0.071269594

decoder.2.weight f4 [6, 128]
000000 c0 35 7d 3d 9e 73 73 bc 61 5c 38 be a5 a4 32 bd
       0.061818838 -0.014859108 -0.1800399 -0.04361405
000010 a0 0f 45 3d a8 20 91 3d 79 94 ad bb 9d 8c 03 be
       0.048110604 0.07086307 -0.0052972403 -0.12846608
000020 48 90 57 3d 68 c7 a3 ba 9c 01 5b 3c 39 e0 56 3b
       0.05262783 -0.0012495341 0.013367083 0.0032787456
000030 7a 02 87 3d a8 75 47 3c 34 01 4e 3c 15 54 12 3d
       0.06592269 0.0121740475 0.012573529 0.035724718
000040 4e d8 94 3d f4 3a 8e bb 6b a0 97 3d 04 38 7a bd
       0.07267819 -0.004340524 0.07403644 -0.061088577
000050 1c 9b 84 bd 84 6e 2d bd 4f df 26 3e 14 c1 1c be
       -0.06474897 -0.042341724 0.16296123 -0.15308028
000060 3e 43 65 bd 55 59 04 3c 2d 19 2a ba c7 18 02 be
       -0.05597233 0.008077939 -0.0006488737 -0.12704764
000070 cf 72 f8 3c 44 2f 81 bd 00 d2 a0 bc d3 0a 6a bc
       0.030328183 -0.06307843 -0.019631386 -0.014284807
000080 10 57 76 3c a1 bb 0f be e6 57 72 3d 45 c6 08 be
       0.015035406 -0.14036418 0.059165858 -0.13356884
000090 89 30 82 3b 2f 67 d3 bd 1b 8e ff 3d 46 1b c8 3e
       0.003973071 -0.10322415 0.12478276 0.39083308
0000a0 04 91 84 3d 44 a8 b0 bd da 6b a4 bd 87 19 1f 3d
       0.06472972 -0.08625844 -0.080283836 0.038842704
0000b0 42 5d 76 bd a3 54 41 bd f1 01 00 3d af ea 41 bd
       -0.06014753 -0.047199856 0.03125185 -0.047342952
0000c0 62 0e 8b be c2 79 1b bc d7 96 bf bd 37 ae 6d bd
       -0.2715941 -0.009489479 -0.09354942 -0.058027472
0000d0 0b 98 4e bd dd 1f 18 3d e1 44 bb 3c 62 b8 f4 bd
       -0.05043797 0.037139762 0.022859992 -0.11949231
0000e0 35 59 37 3c 69 5e df 3d de 2f b4 3b 0c d1 95 3d
       0.011190702 0.10906679 0.0054988703 0.07315263
0000f0 14 9a b9 3d 6d 9c bf 3c 69 57 11 3d 54 c7 f9 3c
       0.09062591 0.02339002 0.03548375 0.030490555
000100 d6 da 7c be c0 4d 40 bd 1e 3c 1a 3d 71 2b f9 3c
       -0.24692854 -0.04694915 0.03765499 0.030416222
000110 42 d6 ba 3d a0 f1 2f 3d 8c a7 7f 3d 01 32 04 bc
       0.09122898 0.04295504 0.062415645 -0.0080685625
000120 4e f6 02 3d c7 af 2a 3e 75 37 5d 3d 01 89 cf bc
       0.031973176 0.16668616 0.054007966 -0.025333883
000130 e9 36 9e 3d 4f a0 a3 bd 39 21 bf 3d 2e 71 1b bd
       0.07725317 -0.07989561 0.093325086 -0.037949733
000140 66 57 80 3c fe 82 92 bb b6 08 90 3c ef b6 14 bc
       0.015666675 -0.004471182 0.017582279 -0.009076818
000150 26 d6 bc bc 6a 7c b0 bd 15 9b ad ba 91 5f 8c 3d
       -0.023051333 -0.0861748 -0.0013245071 0.06854165
000160 4c c4 fd 3c a1 ca 44 3d 96 5a e9 bd 3c 1b 7d bd
       0.03097739 0.048044804 -0.11394231 -0.06179355
000170 fc 78 51 bd 5b 95 05 be e0 4e 0c 3e 7c db 6f bc
       -0.05114077 -0.13045256 0.13701963 -0.0146397315
000180 1c 0b 53 3d a1 ad f7 3c ec c7 06 bd df 75 b7 3d
       0.051524267 0.03023416 -0.032905504 0.08958029
000190 c5 ec d8 bd 71 1d b9 3d 14 14 72 bc dd 5c 26 bd
       -0.10592035 0.09038819 -0.014775295 -0.040615905
0001a0 0d bb 01 3e 2b 3e 3e 3c 98 af 99 3b 23 85 a4 3d
       0.1266901 0.011611502 0.004690122 0.08033206
0001b0 88 23 85 3c fc 5b 83 bd 68 2c 14 3c 77 94 01 bd
       0.016252294 -0.06414029 0.00904379 -0.031635728
0001c0 7a 9a 6d 3d c2 87 c2 bd 34 90 00 bb cb c5 23 3c
       0.05800865 -0.0949855 -0.0019617202 0.009995888
0001d0 a8 4c 8e bc 56 98 95 3d 8f 01 7c bb a6 fc 5d 3d
       -0.017370537 0.073044464 -0.0038453077 0.054196022
0001e0 33 9a a6 bc d1 2c 1b 3e 06 e0 62 3d a0 2f 77 bc
       -0.0203372 0.15153815 0.055389427 -0.015087038
0001f0 1e 4c 86 bc e0 9d ab 3d c0 7b 8c bc a8 92 9a bd
       -0.016393717 0.08379722 -0.017148852 -0.07547504
000200 9d 25 9d 3d 77 bb bb bc bf b0 35 be 80 44 f1 bc
       0.0767319 -0.022916539 -0.17743205 -0.029451609
000210 e4 ba 79 3c 55 6a 44 bd ba 36 d6 bc c4 92 b9 be
       0.015242312 -0.04795297 -0.026149143 -0.36244786
000220 5a dc 8b bb 4b 7c fa bc 27 d4 8d 3d 02 97 6e 3d
       -0.0042682113 -0.030576846 0.069252305 0.05824948
000230 31 ef 28 be 60 48 98 3e d2 53 04 3d bf 07 b2 3b
       -0.16497494 0.29742718 0.0323065 0.0054330523
000240 61 31 ce 3d c9 5b 18 3c 26 9f ef 3c f9 8c 62 3c
       0.10068012 0.009299227 0.029250693 0.013827556
000250 17 4b 93 bd 87 ec 2a 3c 1f c7 3a 3e ea ff 77 bc
       -0.071920566 0.010432369 0.18240021 -0.015136698
000260 80 38 20 be 3b 31 be 3c 52 87 e2 bb 6f 33 c9 3c
       -0.15646553 0.023216834 -0.006913104 0.024560658
000270 6b 5b 08 3d 94 ec ea bb 4a ef 0c bc b8 2b 85 3d
       0.033290308 -0.0071693156 -0.008601973 0.06502479
000280 71 2c 8b bc 40 8d f7 3d 90 2a 03 3d 87 5d 13 bd
       -0.016988965 0.12087488 0.032023013 -0.035977867
000290 1b 70 72 be 31 a8 d5 bd de 92 73 3d 0f 80 3c bf
       -0.23675577 -0.104324706 0.059466235 -0.736329
0002a0 31 b2 2c 38 9c f4 7d 3a 02 2f ea bc 5e 06 94 3c
       4.117395e-05 0.0009687634 -0.028586868 0.018069442
0002b0 bf fd 42 3d ac c7 11 3c 84 ef cf bd 66 85 de bb
       0.047605272 0.008897703 -0.10153106 -0.0067908047
0002c0 3c 54 87 bc c0 4f df bd 4e 5f 99 bc 31 ae 39 3d
       -0.016519658 -0.10903883 -0.018722203 0.045332137
0002d0 18 6f 50 bc de 75 0b 3d 1d fe 88 3c d8 2f 04 bc
       -0.012721799 0.034047954 0.016722733 -0.008068047
0002e0 a6 7f 29 bd aa 1a aa 3d 28 7f 69 bb df b3 29 3e
       -0.0413815 0.08305867 -0.003562877 0.16572522
0002f0 35 c6 13 bd e1 50 b8 3c a2 d1 29 be 84 1e f4 3c
       -0.036077697 0.022499504 -0.16583875 0.029799707
000300 4d 88 82 bc 43 1c e3 bc aa 27 36 3c 4c 0b 1f bc
       -0.015934134 -0.027723437 0.011117855 -0.009707283
000310 15 5a a5 be 34 f5 c6 3d 4c 16 bb 3c a1 ac 42 3e
       -0.3229529 0.097147375 0.02283778 0.19011165
000320 e5 21 7d 3c 19 ad c9 3d 3b 30 b7 3c a8 f5 ab bd
       0.015449976 0.09847469 0.022361865 -0.083964646
000330 fe 60 eb 3c e4 0e a6 3d 1e 2e 82 3d 00 d9 27 bd
       0.028732773 0.08108309 0.063564524 -0.04097843
000340 49 1a cd bd 21 47 31 bc 9f 1f 78 3b 6b a3 93 3c
       -0.10014779 -0.010820181 0.0037860645 0.01802226
000350 19 83 10 bd e5 73 4e 3d 23 aa c6 3c 2f cf 52 3c
       -0.035281274 0.050403494 0.02425105 0.012866779
000360 51 9c d1 3d 23 b4 99 3e 36 cf 74 be 72 fb 8d bd
       0.10234893 0.30020246 -0.2390717 -0.06932725
000370 5e 3f 13 bd e5 0e 1e bd 88 11 5f 3e f7 73 80 bb
       -0.035949104 -0.038588423 0.21784031 -0.003920074
000380 a2 22 72 3d d8 b7 08 3c c7 42 e1 bd 1d 35 f5 bc
       0.05911506 0.008344613 -0.10999065 -0.029932553
000390 d2 1f 7f 3d c8 52 07 bf 1d a8 37 3e db 95 ba bc
       0.062286206 -0.5286069 0.17935224 -0.022776535
0003a0 e2 8c 1d bf e2 23 1b bd 2c 40 cc bc 98 ea 8e 3d
       -0.61543095 -0.037876017 -0.024932943 0.06978339
0003b0 a9 25 ba bb ca a0 1b bc 7b 20 d0 bc 17 27 88 be
       -0.005680759 -0.009498784 -0.025406113 -0.26592323
0003c0 cf 4f 08 3d c6 4d 5d bd 7c af 23 bd 33 de ba bb
       0.033279236 -0.05402925 -0.039962277 -0.0057027577
0003d0 0a 00 eb bc 97 80 83 3b 68 ec 18 bd cf ac 37 3c
       -0.028686542 0.004013132 -0.03733483 0.011210634
0003e0 b0 25 6e bd 6b e9 1a 3e 15 4d 9f bd c3 d2 7e bc
       -0.05814141 0.15128104 -0.07778374 -0.015553179
0003f0 77 d9 9b bc e2 ac 6b bc ca 1a a2 bc 30 4e 05 3d
       -0.019024594 -0.01438448 -0.019788165 0.03254527

decoder.2.bias f4 [6]
000000 ea 9c 87 3d 8f b5 e9 bd c8 12 71 bd 31 ef 24 be
       0.06621726 -0.11411583 -0.0588558 -0.1610687
000010 74 67 f6 bd 56 d2 f3 bc
       -0.12031451 -0.029763382
