models/NexaMat_1.pt (torch, 20302 bytes, 5 tensors)

conv1.bias f4 [64]
0	0xbb328b6c	-0.0027243746
1	0x3ddc66ac	0.107617706
2	0x3da32cd9	0.079675384
3	0x3daad598	0.08341521
4	0x3dae2ecf	0.08505022
5	0x3da6d318	0.08145732
6	0x3db8aef4	0.09017745
7	0x3dab7b70	0.08373153
8	0xbbcb4ae1	-0.0062039946
9	0x3d1c3bd7	0.038143005
10	0x3da05c5c	0.07830116
11	0x3dcb4f77	0.09927266
12	0x3d7f4ebb	0.062330943
13	0x3db03fd7	0.086059265
14	0x3d9fb32e	0.07797848
15	0x3db6cb86	0.08925538
16	0xbcc320a9	-0.023819285
17	0x3da57561	0.08079029
18	0x3dc4893f	0.0959649
19	0x3daedff0	0.085388064
20	0x3dc330d6	0.09530799
21	0x3d37927a	0.044817425
22	0x3db66bf8	0.08907312
23	0xbcea408f	-0.028595237
24	0x3c6fcfb3	0.014636922
25	0x3d97ed7a	0.07418342
26	0x3dc5e296	0.096623585
27	0x3db5172d	0.08842311
28	0x3d999e13	0.075008534
29	0x3db5d38f	0.08878242
30	0x3dadc078	0.08483976
31	0x3d8bbe03	0.06823351
32	0x3ddab3db	0.10678836
33	0x3da06924	0.07832554
34	0x3da01c93	0.0781795
35	0x3da8ed56	0.08248393
36	0x3d9ecce9	0.07753927
37	0x3dbb7229	0.09152634
38	0xbcab9d6b	-0.020949086
39	0x3d9de8c7	0.077104144
40	0x3d6c7728	0.057730824
41	0x3dc023db	0.09381839
42	0x3db836b5	0.089948095
43	0x3dd4b03f	0.10385179
44	0x3da76fdf	0.081756346
45	0x3da85c65	0.08220748
46	0xbc83729d	-0.016045863
47	0x39c1ed9d	0.00036988864
48	0x3dad5de8	0.08465177
49	0x3dce9169	0.100863285
50	0x3d2f06e1	0.04273117
51	0x3db56c15	0.08858506
52	0x3dbf0598	0.09327239
53	0x3d9a2b30	0.075277686
54	0x3db5bcc2	0.08873893
55	0x3da1ffb2	0.07910098
56	0xb9c90164	-0.00038338744
57	0xbc6728eb	-0.014108877
58	0x3dc126ce	0.094312295
59	0x3d253363	0.04033221
60	0x3db51bf3	0.088432215
61	0xbd0aca7f	-0.03388452
62	0xbd018146	-0.031617425
63	0x3d8ac8e1	0.06776596

conv1.lin.weight f4 [64, 1]
0	0xbe57ba50	-0.21067166
1	0xbe0fb79f	-0.1403489
2	0x3e0285fd	0.12746425
3	0xbd04fee5	-0.03246965
4	0x3da1352f	0.07871472
5	0xbea18285	-0.3154489
6	0xbe85fe8b	-0.26170763
7	0x3d9e357a	0.077250436
8	0x3e59cab3	0.2126873
9	0xbe4c95d2	-0.19979027
10	0xbe8626fd	-0.2620162
11	0x3e895820	0.26825047
12	0x3e8b6bda	0.27230722
13	0xbe74181d	-0.23837323
14	0xbd9e6cfb	-0.0773563
15	0x3e5c71e0	0.21527815
16	0x3e427ae6	0.18992195
17	0xbd340542	-0.043950327
18	0x3e4a315e	0.19745395
19	0x3e30a656	0.17250952
20	0xbe035c10	-0.12828088
21	0x3e8c6fc9	0.27429035
22	0x3e45e331	0.19324948
23	0xbca61f2a	-0.020278532
24	0x3e5a3bcd	0.21311875
25	0xbe8debe8	-0.27719045
26	0xbde74fd0	-0.1129452
27	0x3e290f61	0.16509773
28	0x3d85b5c1	0.065288074
29	0xbdc21a42	-0.094776645
30	0x3da60b85	0.08107666
31	0xbd80a86b	-0.06282123
32	0xbe2794db	-0.16365378
33	0x3df99ade	0.12187742
34	0xbe831300	-0.25600433
35	0xbea278cb	-0.31732783
36	0x3c6ec7ca	0.014574001
37	0x3e290f5f	0.1650977
38	0x3da088eb	0.07838615
39	0xbd395b2e	-0.04525297
40	0x3da72371	0.08161057
41	0x3e8445e6	0.25834578
42	0xbdd15283	-0.10220816
43	0xbe5d8926	-0.21634349
44	0x3d4c26bf	0.04984164
45	0xbe8e6baf	-0.2781653
46	0xbbb1d40c	-0.0054268893
47	0x3db5d8dc	0.08879253
48	0x3e2f281f	0.17105149
49	0xbe64600d	-0.22302265
50	0xbe1e20a3	-0.15442137
51	0xbe4e874d	-0.201688
52	0xbe4821b5	-0.19544108
53	0x3dd9929a	0.10623665
54	0x3e4b2b1b	0.19840662
55	0x3dd2e62d	0.10297809
56	0x3decfa10	0.11571133
57	0x3db5682b	0.08857759
58	0x3e430b70	0.19047332
59	0x3d1b80eb	0.037964743
60	0x3e855837	0.26043865
61	0x3e306bd2	0.1722863
62	0x3dfc48b6	0.12318556
63	0xbd78adb7	-0.060712542

conv2.bias f4 [64]
0	0xbd253e9a	-0.040342905
1	0xbca16b66	-0.019704532
2	0xbcc9e993	-0.02464751
3	0xbcf6397a	-0.030056704
4	0xbcb5e129	-0.022202091
5	0x3d9a984e	0.07548581
6	0x00000000	0.0
7	0xbcb476f6	-0.022029381
8	0x3d95f137	0.07321399
9	0x3d9ad168	0.07559472
10	0x3d9dbf76	0.07702534
11	0xbce8d395	-0.028421203
12	0x3d89bbd6	0.0672528
13	0x3da45e6c	0.08025822
14	0xbccaa9f8	-0.02473925
15	0x3d80c293	0.06287112
16	0xbc54db6c	-0.012991767
17	0x3d904efe	0.070463166
18	0x3d844b17	0.06459635
19	0x3d9cf554	0.0766398
20	0x3dabe812	0.08393873
21	0x3d937b97	0.07201307
22	0x3d833978	0.06407446
23	0xbcb99e3a	-0.022658456
24	0x3da043a2	0.078254
25	0x3d8d7e8c	0.069089025
26	0x3d884af9	0.06654925
27	0xbc7d8a7c	-0.015474912
28	0x3d899978	0.06718725
29	0x3d9cb969	0.07652552
30	0x3d8cd5f1	0.068767436
31	0x3d85967b	0.065228425
32	0xbcdbb354	-0.026818909
33	0xbc8b2ce0	-0.016989172
34	0xbcb8bea5	-0.022551844
35	0x3d9fb014	0.07797256
36	0xbb60bb18	-0.0034291204
37	0x3d8989b6	0.067157194
38	0x3d9ebc7d	0.07750795
39	0x3d9927b2	0.074782744
40	0x3d8a13cf	0.067420594
41	0x3d940371	0.07227219
42	0x3d945101	0.07242013
43	0xbce2b7bd	-0.027675504
44	0xbcbc6d28	-0.023001269
45	0x3d8ab972	0.06773652
46	0x3d922ee9	0.07137854
47	0x3d9b3e8f	0.075802915
48	0x3d9b9644	0.0759702
49	0xbcae0bd1	-0.021245869
50	0xbcd7203c	-0.026260488
51	0xbc839dd9	-0.016066479
52	0x3d9d9642	0.07694675
53	0xbc866389	-0.016404884
54	0x3d9bb37f	0.076025955
55	0xbca44551	-0.020052584
56	0x3d928a9a	0.071553424
57	0x00000000	0.0
58	0xbcd9fb27	-0.026609017
59	0xbcc4411b	-0.023956826
60	0x3d8630b4	0.06552258
61	0x3d8462d5	0.06464163
62	0x3da259f2	0.07927312
63	0x3d7e906e	0.062149458

conv2.lin.weight f4 [64, 64]
0	0x3cf1dc84	0.029524095
1	0xbe81b146	-0.2533056
2	0x3d08fa00	0.033441544
3	0x3d3a6826	0.04550948
4	0x3d1749ce	0.03693562
5	0x3c841e68	0.01612778
6	0x3e135a86	0.1439
7	0x3d727b61	0.059199695
8	0x3e4bf477	0.19917475
9	0xbd9ae77a	-0.07563682
10	0x3da725e5	0.08161525
11	0x3dbc4eca	0.09194715
12	0x3e0753b6	0.13215527
13	0xbd8f4a57	-0.06996601
14	0x3dd26596	0.10273282
15	0x3e0ce3f8	0.13758838
16	0x3e2b0c06	0.16703805
17	0xbe53aab9	-0.20670594
18	0x3e337e8a	0.1752874
19	0x3e3f119f	0.18659066
20	0xbe221678	-0.15828884
21	0x3e2421ea	0.16028562
22	0x3db32808	0.0874787
23	0xbdaae914	-0.083452374
24	0x3d8e5090	0.0694896
25	0xbe036cbc	-0.12834448
26	0xbe026ecd	-0.1273758
27	0x3d6af1ce	0.05735951
28	0xbdc931bf	-0.098239414
29	0x3dababd0	0.0838238
30	0xbda43753	-0.08018365
31	0xbe84d768	-0.25945592
32	0xbe80f2d9	-0.25185278
33	0x3d9a5e16	0.07537477
34	0x3d3b17f4	0.04567714
35	0x3e2131ee	0.15741703
36	0x3d87774e	0.066145524
37	0xbde1086c	-0.109879345
38	0x3e2d01d3	0.16895227
39	0x3da7f5b2	0.082011595
40	0x3e2c279e	0.16811988
41	0xbe2f37f1	-0.17111184
42	0x3dbab66e	0.09116827
43	0xbe075423	-0.1321569
44	0x3d24af28	0.040206105
45	0xbe0b2808	-0.1358949
46	0xbcc959a8	-0.024578884
47	0x3bd69d4a	0.006549512
48	0xbda72d1d	-0.081629016
49	0xbdba3b3e	-0.09093331
50	0xbe3d45a4	-0.18483597
51	0x3d2e92b5	0.04262038
52	0xbe887af0	-0.26656294
53	0x3cbd2304	0.023087986
54	0x3d17b9ef	0.037042554
55	0xbe703aa7	-0.23459874
56	0x3d46194a	0.04836396
57	0xbde0de5c	-0.10979912
58	0x3d44d1bb	0.048051577
59	0x3e34adf2	0.1764448
60	0xbd9ce944	-0.076616794
61	0x3d803815	0.06260697
62	0x3e4460df	0.19177578
63	0xbe909831	-0.28241113
64	0xbde4b1fb	-0.111667596
65	0xbe52900d	-0.20562764
66	0x3e479b3b	0.1949281
67	0xbbc59ae2	-0.0060304264
68	0x3da3aaef	0.07991587
69	0xbc5fa510	-0.013650194
70	0xbe2ede2a	-0.17076936
71	0xbe13360a	-0.14376083
72	0xbd28a691	-0.041174475
73	0xbdcf9c5a	-0.101372436
74	0x3e548240	0.20752811
75	0xbe57ddc9	-0.21080698
76	0xbe44b03a	-0.1920785
77	0xbde5293c	-0.111895055
78	0xbc37d5a6	-0.011220371
79	0xbceebb5c	-0.029142074
80	0xbd18a1c4	-0.037263647
81	0x3e07abf8	0.13249195
82	0xbe418f60	-0.1890235
83	0x3d1e326a	0.038622297
84	0xbd22b4c3	-0.03972317
85	0xbb578059	-0.0032882898
86	0x3e42cab7	0.19022642
87	0xbdfd96da	-0.12382288
88	0xbd67b434	-0.05656834
89	0x3e4ab19d	0.19794317
90	0xbdc55322	-0.09634997
91	0x3e19ebc6	0.15031347
92	0xbd8b0a2e	-0.06789051
93	0xbe1caf47	-0.15301238
94	0x3c0b7e91	0.0085140625
95	0x3e062910	0.13101602
96	0xbc43ddd4	-0.011954743
97	0xbe0ed905	-0.13949974
98	0x3da8128e	0.08206664
99	0xbc6695cf	-0.014073803
100	0x3c392ffc	0.011302944
101	0xbc3b0be5	-0.01141641
102	0xbe18e5d3	-0.14931421
103	0xbd8e9198	-0.069613636
104	0xbe1cf0cc	-0.15326232
105	0xbe1870d0	-0.14886785
106	0x3ca2011a	0.019775916
107	0xbd413661	-0.047171
108	0xbd114620	-0.035467267
109	0xbe463eb4	-0.19359857
110	0x3e46b1a1	0.19403698
111	0xbe64eef1	-0.22356774
112	0x3e28cf09	0.16485228
113	0xbdc37895	-0.095444836
114	0xbdd6c437	-0.10486644
115	0x3d9c636a	0.07636149
116	0xbd15df5d	-0.03658997
117	0x3d248c58	0.040172905
118	0xbc479bd7	-0.012183151
119	0xbd8ad7b2	-0.06779422
120	0xbdd64d70	-0.10463989
121	0xbe0db3b8	-0.13838089
122	0x3dec1bb4	0.115287215
123	0xbe0594ae	-0.13044998
124	0x3e34b7e4	0.17648274
125	0x3de063f9	0.10956568
126	0x3e1a03e3	0.15040545
127	0xbe2566da	-0.16152516
128	0xbd3789f3	-0.044809293
129	0xbe1b9775	-0.15194495
130	0xbe215054	-0.15753299
131	0x3dbbebce	0.091758355
132	0x3dbe0987	0.09279161
133	0xbd040c86	-0.032238506
134	0x3dc5b50e	0.09653674
135	0xbd6a5bd9	-0.0572165
136	0x3d95c962	0.07313801
137	0x3e3b69be	0.18302056
138	0xbcd0a12e	-0.025467481
139	0xbe4535a3	-0.19258742
140	0xbe4dd068	-0.20099032
141	0x3e143b1f	0.14475678
142	0xbdbef24f	-0.093235604
143	0x3b5ab035	0.0033369188
144	0x3dac8368	0.08423501
145	0xbe3ba376	-0.18324074
146	0x3e4475fb	0.19185631
147	0xbd28f5c6	-0.041250013
148	0xbe4e7ba0	-0.20164347
149	0xbe47d61b	-0.19515269
150	0x3e225db6	0.1585606
151	0x3dd327a7	0.103102975
152	0xbe2e4e55	-0.17022069
153	0x3e296786	0.16543397
154	0xbe428d8e	-0.18999311
155	0xbdf48c1d	-0.11940787
156	0x3ddec907	0.10878187
157	0xbc5e0ea7	-0.013553298
158	0x3dadf1e9	0.08493406
159	0x3e0dd132	0.13849333
160	0xbd081094	-0.033218935
161	0xbe209c06	-0.15684518
162	0xbd90f802	-0.07078554
163	0xbd5ee0a2	-0.054413445
164	0xbe15279f	-0.14565895
165	0xbd893d28	-0.06701118
166	0x3e19e786	0.15029725
167	0xbc9cddd0	-0.019148737
168	0x3d57b648	0.05266407
169	0x3e353211	0.1769488
170	0x3e31b085	0.17352493
171	0xbc1d286f	-0.00959216
172	0x3d9c8f45	0.07644514
173	0xbdc57cdd	-0.096429564
174	0xbe00f92e	-0.12595055
175	0xbc5d5344	-0.013508622
176	0xbc55326f	-0.013012513
177	0x3d65037a	0.05591152
178	0x3dbed598	0.093180835
179	0xbe161de8	-0.14659846
180	0x3e180bb4	0.14848214
181	0x3d6e3b4d	0.058162022
182	0xbdc285d4	-0.09498182
183	0xbdc5d172	-0.09659089
184	0xbe1e7447	-0.15474044
185	0x3db1458a	0.08655842
186	0x3e11c6f4	0.14236051
187	0x3da6db9d	0.08147357
188	0xbbe4feca	-0.006988381
189	0x3dcc5fea	0.09979232
190	0x3dcbffd7	0.09960907
191	0xbbe113f1	-0.0068688323
192	0x3e386c81	0.18010141
193	0xbe701f0e	-0.23449346
194	0x3d5031f2	0.05082888
195	0x3e11dee2	0.1424518
196	0xbe18be7f	-0.14916418
197	0xbde47dbc	-0.111567944
198	0xbcd3ce8c	-0.025855325
199	0x3cc01c96	0.02345113
200	0xbe06e018	-0.13171422
201	0x3dcb1535	0.09916154
202	0xbe432bfa	-0.19059744
203	0x3e290d87	0.16509067
204	0x3c41089a	0.011781836
205	0xbe5ff29e	-0.21869895
206	0xbe2662d8	-0.16248643
207	0x3dfcb778	0.123396814
208	0xbd127de3	-0.035764586
209	0xbd4c4f5a	-0.049880363
210	0xbdf1eac6	-0.118123576
211	0x3d85d86f	0.06535422
212	0x3e1b031d	0.15137906
213	0xbd64be43	-0.05584551
214	0xbce9c9fd	-0.028538698
215	0xbd66294a	-0.05619172
216	0xbd5d9130	-0.05409354
217	0x3d6a8b01	0.05726147
218	0x3db24e19	0.08706302
219	0xbdc19153	-0.094515465
220	0x3e23c9af	0.15994905
221	0xbd6ff159	-0.058579776
222	0x3e25466e	0.16140148
223	0x3dfad39c	0.122473925
224	0xbe4660d4	-0.19372874
225	0x3c4918ad	0.01227395
226	0xbd4bdbfd	-0.049770344
227	0xbe11ca03	-0.14237218
228	0x3d38963a	0.045065142
229	0x3d6568e5	0.05600824
230	0xbe5287d5	-0.20559628
231	0x3cb28735	0.021792987
232	0x3c7f08d0	0.015566066
233	0x3c07b177	0.008282057
234	0x3e1485a3	0.14504103
235	0xbcd7c506	-0.026339065
236	0xbe5b228c	-0.21399897
237	0xbd404fbe	-0.046951048
238	0x3dafe9fa	0.08589549
239	0xbcd63e0e	-0.026152637
240	0xbe29e974	-0.16592962
241	0xbe14d107	-0.14532863
242	0xbaf445c6	-0.0018636517
243	0x3e2d170b	0.16903321
244	0xbe3b157e	-0.18269917
245	0xbd756578	-0.05991122
246	0xbe0450e9	-0.1292149
247	0x3dba731f	0.09103989
248	0x3e2dd25f	0.16974781
249	0xbc6296f8	-0.013829939
250	0x3dd7de63	0.10540464
251	0xbd9cb80b	-0.07652291
252	0xbde4cf69	-0.11172373
253	0xbbfa1f63	-0.007633136
254	0x3d857c99	0.06517906
255	0x3e2de023	0.16980033

fc.weight f4 [1, 64]
0	0xbdbbe2b5	-0.091741
1	0xbcb94305	-0.022614965
2	0xbdac7fce	-0.08422814
3	0xbccf8ca7	-0.025335623
4	0xbdce7e38	-0.10082668
5	0x3dd0979f	0.101851694
6	0x3c094530	0.008378312
7	0xbd9ee336	-0.07758181
8	0x3e095f99	0.13415374
9	0x3d9f1f2b	0.07769617
10	0x3d6712ad	0.056414295
11	0xbcbc709e	-0.023002919
12	0x3e09aad5	0.13444073
13	0x3d80d302	0.062902465
14	0xbd0ab64b	-0.033865254
15	0x3e3eb9f3	0.18625621
16	0xbdb1c8f3	-0.08680906
17	0x3e402cea	0.18767133
18	0x3e39104a	0.1807262
19	0x3da5b4e1	0.080911405
20	0x3d84b13e	0.06479119
21	0x3d9df451	0.07712615
22	0x3d806345	0.06268934
23	0xbd866f52	-0.065642014
24	0x3dbd22c9	0.0923515
25	0x3df8ceda	0.12148829
26	0x3e03a427	0.12855588
27	0x3bf97563	0.0076128705
28	0x3df1b777	0.11802571
29	0x3dc9d989	0.09855945
30	0x3db1f5a8	0.08689433
31	0x3e2dcf70	0.16973662
32	0x3861c772	5.382993e-05
33	0xbd56ba76	-0.052423917
34	0xbd05b47d	-0.03264283
35	0x3dd54b13	0.1041471
36	0x3c691773	0.014226782
37	0x3dfefa84	0.12450126
38	0x3e073d47	0.13206969
39	0x3db3cb1e	0.08778976
40	0x3dd2ea26	0.102985665
41	0x3d7a0eb3	0.061049175
42	0x3d7785a3	0.06043018
43	0xbd46d73a	-0.0485451
44	0xbdb5296c	-0.08845791
45	0x3e19668d	0.14980526
46	0x3dba92f2	0.09110059
47	0x3e069a40	0.13144779
48	0x3d6c76b3	0.057730388
49	0xbceb117a	-0.028694857
50	0xbbb90a47	-0.005646977
51	0xbdb27263	-0.08713224
52	0x3dbd5303	0.09244349
53	0xbdb19627	-0.086712174
54	0x3df2bc51	0.11852325
55	0xbd2a1b42	-0.0415299
56	0x3dc2441d	0.09485648
57	0xbda35d44	-0.079767734
58	0xbcbb057c	-0.022829764
59	0xbd661311	-0.056170527
60	0x3e25b20c	0.161812
61	0x3e3e6c1c	0.18595928
62	0x3daa5c8d	0.08318434
63	0x3e05a53d	0.13051315
