models/NexaCFD_1.pt (torch, 17517 bytes, 6 tensors)

conv1.weight f4 [32, 4, 3]
-0.14858286 0.24714202 0.17312476 -0.1958963 0.059334725 -0.19277331 0.28227204 -0.1964154
-0.20386794 -0.20757455 0.21471852 0.2167623 -0.26521358 0.10175106 -0.26319405 -0.10850188
-0.031673998 -0.22739574 0.18149158 0.1519801 0.1227172 0.11072925 0.21374345 0.22883058
0.12965032 0.0985696 -0.011835009 -0.25915098 0.014092475 -0.14720294 -0.27509695 -0.06168139
-0.2467894 0.13111159 -0.23815814 -0.10434815 0.14724398 0.2551368 0.25193465 0.20826164
0.24111336 0.1946142 -0.0464247 -0.0041774213 -0.033590168 0.17796355 0.25800967 0.10946208
0.053297013 -0.20457435 -0.03738591 -0.05997494 -0.1444244 -0.15316729 -0.02614668 -0.0018196404
-0.1222962 0.10899225 0.077773154 0.060691 -0.26494613 -0.16935962 0.10910761 -0.24459325
0.25770634 0.23238838 -0.14172794 -0.098179534 -0.2157737 -0.14714898 -0.106001884 0.14962617
-0.23351708 -0.11662522 -0.12646168 0.12077764 -0.20595205 0.20731723 0.12696955 -0.026481122
0.08195263 0.13116762 0.073335916 0.049334705 -0.19650008 -0.18796575 -0.078657135 0.23419315
0.22907639 -0.2186015 0.05007842 0.034824014 0.1425449 -0.24939707 0.15709755 -0.23269005
-0.24962181 -0.09032193 -0.09826109 0.054367036 -0.28018498 0.28616643 -0.00470078 0.24563539
0.1368345 -0.24259445 0.21089405 -0.2730026 -0.099144146 -0.2709439 -0.06183143 0.20665357
0.19921547 0.12960538 -0.23662136 0.2727689 -0.1662969 0.2763247 -0.12210937 0.1318084
-0.12794621 0.095663995 -0.07306655 0.2083655 0.18422619 0.1777955 -0.265973 0.13389876
-0.038394004 0.2759452 0.15820023 -0.054626644 -0.21344018 0.09123194 0.20410141 -0.030677497
0.17652181 -0.28694892 -0.15151769 -0.15925556 0.080993146 -0.21148467 0.25361526 -0.04747002
-0.08024652 0.07610631 -0.09316614 0.15913856 0.15644458 -0.19157389 -0.015410513 -0.09424099
-0.13769326 0.047127277 -0.017870456 -0.28252357 -0.015531212 0.20247954 0.13702366 -0.23564479
0.13440996 0.012252986 -0.047186494 -0.111597925 0.09016898 0.12090996 -0.20056061 0.017588526
0.26960635 0.10500282 -0.26767993 -0.10394324 0.19713265 -0.057273015 0.039482057 -0.19859365
0.078492254 -0.21422048 -0.09758949 0.2776242 0.17287838 0.1702447 0.09487632 0.19680485
0.26456457 0.1339047 -0.1063063 0.2603218 0.03912422 0.28269762 0.27970505 -0.25462162
-0.17962877 -0.041018873 -0.05132535 -0.17719069 0.0076033473 -0.097053885 -0.23191883 0.14975041
0.2879725 0.07370776 -0.25190854 -0.1736395 0.014367193 -0.09003137 -0.0028591752 0.13206911
-0.03287694 -0.2096166 0.26660836 0.18885502 -0.27248713 -0.23858784 -0.032710046 -0.20536655
-0.28864813 0.18635544 0.057691872 -0.12828057 -0.06811878 -0.091113895 0.28746057 -0.040798113
-0.13264439 -0.2593211 0.1319898 -0.106824145 -0.21846339 -0.07167967 0.049024373 0.24055398
-0.26749852 0.20610565 0.20327389 0.26117098 -0.0498538 0.09700498 -0.19550276 -0.095369145
0.12481648 -0.032447755 0.27730554 0.27450585 0.19283026 -0.114485905 -0.18427815 0.24264568
-0.24649675 0.10178572 -0.26267684 0.27397287 0.030002385 0.10306844 -0.26699957 -0.0698524
00000000: 1b26 18be cc12 7d3e 9e47 313e 0a99 48be
00000010: f808 733d 5e66 45be f685 903e 1e21 49be
00000020: c2c2 50be 6c8e 54be 2cdf 5b3e f0f6 5d3e
00000030: 13ca 87be dc62 d03d 5fc1 86be 3c36 debd
00000040: 98bc 01bd 6eda 68be eed8 393e aca0 1b3e
00000050: 2853 fb3d 04c6 e23d 90df 5a3e 9052 6a3e
00000060: 0ec3 043e dcde c93d a0e7 41bc 70af 84be
00000070: 20e4 663c 5ebc 16be 82d9 8cbe a0a5 7cbd
00000080: 5cb6 7cbe 1e42 063e badf 73be 7cb4 d5bd
00000090: 20c7 163e 4aa1 823e 94fd 803e 8a42 553e
000000a0: 6ce6 763e f248 473e d427 3ebd c0e2 88bb
000000b0: d895 09bd 143c 363e d819 843e a82d e03d
000000c0: f84d 5a3d f07b 51be f821 19bd 48a8 75bd
000000d0: fde3 13be e3d7 1cbe 9031 d6bc 0081 eeba
000000e0: 6e76 fabd 5437 df3d 8847 9f3d 2097 783d
000000f0: 05a7 87be 9c6c 2dbe d073 df3d a776 7abe
00000100: 16f2 833e 38f7 6d3e 2121 11be 5a12 c9bd
00000110: c8f3 5cbe 39ae 16be 8417 d9bd 9a37 193e
00000120: 1a1f 6fbe 34d9 eebd 2c7f 01be 445a f73d
00000130: 18e5 52be f84a 543e 4e04 023e f0ee d8bc
00000140: c8d6 a73d ce50 063e 2431 963d 3013 4a3d
00000150: 5137 49be 187a 40be fe16 a1bd 54d0 6f3e
00000160: 0093 6a3e 12d9 5fbe 081f 4d3d a0a3 0e3d
00000170: 4af7 113e f261 7fbe 2ede 203e 4d46 6ebe
00000180: dc9c 7fbe b4fa b8bd 1c3d c9bd f8af 5e3d
00000190: 6874 8fbe 6884 923e 0009 9abb d887 7b3e
000001a0: 581e 0c3e ae6a 78be 9cf4 573e ffc6 8bbe
000001b0: 160c cbbd 29b9 8abe f442 7dbd fe9c 533e
000001c0: 24ff 4b3e 46b7 043e df4c 72be 5ea8 8b3e
000001d0: bc49 2abe 6e7a 8d3e 7a14 fabd c8f8 063e
000001e0: 5504 03be 7ceb c33d eaa3 95bd c45d 553e
000001f0: caa5 3c3e 0610 363e 9d2d 88be c21c 093e
00000200: 0843 1dbd b048 8d3e 3eff 213e 30c0 5fbd
00000210: 1090 5abe d0d7 ba3d f6ff 503e 604f fbbc
00000220: 22c2 343e f8ea 92be 7427 1bbe e413 23be
00000230: bcdf a53d 708f 58be dcd9 813e ec6f 42bd
00000240: 4a58 a4bd a0dd 9b3d e4cd bebd 38f5 223e
00000250: 0233 203e f22b 44be 607c 7cbc 6c01 c1bd
00000260: 76ff 0cbe 8808 413d 1065 92bc eea6 90be
00000270: a076 7ebc cc56 4f3e ee4f 0c3e de4c 71be
00000280: c4a2 093e c0c0 483c a046 41bd 748d e4bd
00000290: 84aa b83d a49f f73d c35f 4dbe d015 903c
000002a0: d809 8a3e b80b d73d 580d 89be 32e0 d4bd
000002b0: 24dd 493e 1c97 6abd f0b7 213d 225c 4bbe
000002c0: 8cc0 a03d 9d5c 5bbe 00dd c7bd c224 8e3e
000002d0: 0807 313e a054 2e3e 844e c23d 3687 493e
000002e0: 0275 873e 501e 093e 1eb7 d9bd e648 853e
000002f0: b840 203d bebd 903e 8035 8f3e c45d 82be
00000300: 9bf0 37be 6803 28bd 883a 52bd 7a71 35be
00000310: 8025 f93b 30c4 c6bd 217c 6dbe 2c58 193e
00000320: 2271 933e 18f4 963d 28fa 80be 8ece 31be
00000330: 6064 6b3c 5e62 b8bd 0061 3bbb 203d 073e
00000340: f8a9 06bd bca5 56be e480 883e 3663 413e
00000350: 6f83 8bbe 5f50 74be f8fa 05bd 9c4b 52be
00000360: b0c9 93be f6d3 3e3e 504e 6c3d fb5b 03be
00000370: dc81 8bbd ec99 babd 082e 933e ec1b 27bd
00000380: eed3 07be bcc5 84be 5628 073e 9ec6 dabd
00000390: deb4 5fbe cacc 92bd c8cd 483d c853 763e
000003a0: 91f5 88be 5c0d 533e 0827 503e 34b8 853e
000003b0: 8033 4cbd 8caa c63d e031 48be e650 c3bd
000003c0: c89f ff3d f0e7 04bd fefa 8d3e 088c 8c3e
000003d0: 4c75 453e 9677 eabd 69b3 3cbe 1c78 783e
000003e0: a569 7cbe 0875 d03d 947d 86be 2c46 8c3e
000003f0: 90c7 f53c 8c15 d33d 2bb4 88be c60e 8fbd

conv1.bias f4 [32]
0.20960718 -0.04633206 0.06895292 -0.14763513 0.051205486 -0.22575921 -0.211654 -0.2853788
0.24100941 -0.117650956 0.038983226 -0.012847215 0.0901092 0.11435366 -0.24440783 -0.07652068
0.06407532 -0.19854192 0.03534621 -0.07228623 0.08463815 -0.027637064 -0.059056595 -0.17664519
0.07605499 0.065378994 -0.017704964 0.18618977 -0.040326893 -0.025868356 -0.041223243 0.029237717
00000000: 44a3 563e b0c6 3dbd 3037 8d3d aa2d 17be
00000010: d8bc 513d 6c2d 67be d4bb 58be 2c1d 92be
00000020: 2ccb 763e fcf2 f0bd e0ac 1f3d 207d 52bc
00000030: 2c8b b83d 4032 ea3d 0c46 7abe e0b6 9cbd
00000040: ec39 833d 934e 4bbe 30c7 103d ce0a 94bd
00000050: c456 ad3d 2067 e2bc 54e5 71bd 7ae2 34be
00000060: b8c2 9b3d 6ce5 853d 000a 91bc 88a8 3e3e
00000070: d02d 25bd e0e9 d3bc b4d9 28bd f083 ef3c

conv2.weight f4 [32, 32, 3]
0.094942465 -0.045872934 0.0793889 0.025887713 0.09357555 0.0476716 0.091971084 -0.08775004
-0.10180098 -0.017960884 0.03606738 0.003361307 -0.027770407 -0.052492544 0.001578562 0.081586346
-0.100251 -0.05607025 -0.00028054416 -0.09069567 -0.022612013 -0.08489251 -0.07887981 -0.078147486
0.07119404 -0.05779485 -0.005243078 -0.053262834 0.012955748 0.028006747 0.014149308 0.009456314
0.0025841445 0.08918111 -0.0138914585 0.03921914 -0.099612534 0.013771385 -0.04836383 0.0069196075
0.038325325 -0.09033013 -0.032302484 -0.0973474 -0.075496614 -0.023227878 -0.05942797 0.030591428
0.06485607 -0.027772233 0.059573054 -0.023542158 -0.101082616 -0.0043596253 0.08285433 -0.059435975
-0.014335923 -0.007080376 0.05682859 0.007976517 0.06216447 -0.088793606 0.039105505 0.07597013
-0.02088987 0.08261752 -0.0256536 0.08884153 0.06586538 -0.0052009597 0.049901545 -0.048108585
0.08241539 -0.023123242 -0.059311654 0.08452283 0.06752266 0.019570954 0.04930836 -0.037311718
0.09136425 0.09640992 -0.09957496 0.028414398 -0.038412586 0.08795884 0.05971022 0.09326975
-0.013245866 -0.001477629 0.06601095 -0.00064139813 -0.024559684 0.10172768 -0.06371794 -0.0407633
-0.021010488 0.03034757 -0.04039712 -0.013754033 -0.05734962 0.0069607273 -0.015929274 -0.09440799
-0.008526757 -0.029780023 0.015259817 -0.0653996 0.058277264 -0.016628295 -0.009887978 -0.03210666
-0.06313937 0.07662174 -0.09356881 -0.05224489 0.010093071 0.0040034205 0.0836855 0.0215239
-0.06761916 -0.010455966 -0.07411322 -0.06065765 0.014607206 0.057678342 -0.009449996 0.071339265
-0.008842364 -0.062426146 0.0068237185 0.05914502 -0.04813409 0.02913104 -0.053097792 -0.02850788
-0.014840208 -0.08260449 -0.05101915 0.10161936 -0.09664515 0.090651035 0.06191723 0.09032942
-0.023170978 -0.034396052 0.018379457 -0.07133135 -0.010809474 0.0035164058 -0.07353738 0.086289465
-0.07074943 0.043063164 0.024414644 0.09869419 -0.05664071 0.06491807 0.030858502 0.04899721
0.08404571 -0.008600287 -0.023589082 -0.034576215 0.06524539 0.052113056 0.09406796 0.100945786
-0.03645187 0.07361247 0.09503189 0.09590833 0.08098191 0.07010901 0.04410772 -0.092320986
0.060829654 -0.057917345 -0.08121635 0.04050249 0.020524621 -0.06374122 -0.05093996 0.0129011795
0.084968254 -0.015735425 -0.014832996 -0.01228407 -0.0016099736 0.021896444 0.07562812 -0.00457526
-0.00557743 0.06405343 -0.010311827 -0.09520138 -0.012690879 -0.011674531 0.067714885 -0.045325648
0.0012180731 -0.058552194 0.017474018 -0.0814595 0.09290752 0.044243395 -0.0066561624 0.06775311
-0.006056659 0.059615925 -0.034494482 -0.024548516 -0.0994198 0.045228675 -0.024888225 0.08394764
-0.031172693 -0.06710783 -0.01391574 0.08845642 -0.021878771 -0.005443074 0.030192316 0.041844428
0.04996282 0.0722204 -0.011158489 0.061921805 -0.07975072 -0.020514265 0.068166286 -0.0019282252
-0.06142217 -0.014091402 0.017164335 0.07569486 0.05719158 0.048197538 0.03702137 -0.028350905
-0.00942824 -0.05969313 0.07233925 0.05218467 -0.0538459 -0.0708178 -0.058196984 -0.100841105
-0.0073852167 -0.026365072 -0.028690994 -0.03435701 0.044061944 0.039946005 0.023552835 -0.0002629757
00000000: 3271 c23d 42e5 3bbd a696 a23d 7812 d43c
00000010: 8aa4 bf3d 4c43 433d 565b bc3d 4bb6 b3bd
00000020: 087d d0bd b422 93bc 64bb 133d 6049 5c3b
00000030: c47e e3bc 6c02 57bd c0e7 ce3a be16 a73d
00000040: 6550 cdbd eba9 65bd 0016 93b9 a7be b9bd
00000050: d43c b9bc 20dc adbd bd8b a1bd ca0b a0bd
00000060: 2ece 913d 4bba 6cbd 20ce abbb 212a 5abd
00000070: 5844 543c 686e e53c 80d2 673c a8ee 1a3c
00000080: c05a 293b 96a4 b63d 0099 63bc 40a4 203d
00000090: a801 ccbd 60a1 613c 2719 46bd e0bd e23b
000000a0: 04fb 1c3d 01ff b8bd 9c4f 04bd 135e c7bd
000000b0: f89d 9abd 6448 bebc be6a 73bd e09a fa3c
000000c0: 42d3 843d 9882 e3bc e002 743d 7cdb c0bc
000000d0: 6704 cfbd 30db 8ebb 88af a93d 2373 73bd
000000e0: 38e1 6abc 8002 e8bb 18c5 683d f0af 023c
000000f0: 2ca0 7e3d 6cd9 b5bd 182d 203d 3a96 9b3d
00000100: 3c21 abbc 6033 a93d 8027 d2bc 8cf2 b53d
00000110: 6ee4 863d d06c aabb 9065 4c3d 820d 45bd
00000120: 66c9 a83d f46c bdbc c7f0 72bd 4e1a ad3d
00000130: 5249 8a3d 4453 a03c 90f7 493d 2cd4 18bd
00000140: 2e1d bb3d 9072 c53d f5ed cbbd 50c5 e83c
00000150: 8456 1dbd c423 b43d b492 743d 3604 bf3d
00000160: 3005 59bc 00ad c1ba c030 873d 8023 28ba
00000170: 6431 c9bc 9a56 d03d 8d7e 82bd 6bf7 26bd
00000180: 301e acbc 789b f83c 7377 25bd 9858 61bc
00000190: 6fe7 6abd d016 e43b 1c7e 82bc fa58 c1bd
000001a0: d0b3 0bbc 3cf5 f3bc 5004 7a3c 3af0 85bd
000001b0: 24b4 6e3d 1038 88bc 3001 22bc 4682 03bd
000001c0: 374f 81bd dceb 9c3d 01a1 bfbd bdfe 55bd
000001d0: 685d 253c 202f 833b 4e63 ab3d e452 b03c
000001e0: ea7b 8abd 804f 2bbc acc8 97bd 2874 78bd
000001f0: 1053 6f3c 2040 6c3d 28d4 1abc 521a 923d
00000200: 90df 10bc 8fb2 7fbd 8099 df3b 0c42 723d
00000210: 4028 45bd 38a4 ee3c 127d 59bd 5c89 e9bc
00000220: 5824 73bc 8b2c a9bd 75f9 50bd d01d d03d
00000230: e4ed c5bd 40a7 b93d ec9c 7d3d a2fe b83d
00000240: 10d1 bdbc e0e2 0cbd 8490 963c 2c16 92bd
00000250: 381a 31bc 8073 663b c49a 96bd 88b8 b03d
00000260: 14e5 90bd 0063 303d 3801 c83c 2e20 ca3d
00000270: 1700 68bd c4f3 843d f8ca fc3c 4cb1 483d
00000280: 2820 ac3d 38e8 0cbc e43d c1bc ca9f 0dbd
00000290: 609f 853d 8074 553d b4a6 c03d aabc ce3d
000002a0: 8e4e 15bd 22c2 963d 14a0 c23d 966b c43d
000002b0: d8d9 a53d 5095 8f3d 4caa 343d c912 bdbd
000002c0: 8428 793d bd3a 6dbd c254 a6bd f0e5 253d
000002d0: 4023 a83c c28a 82bd 6ba6 50bd 785f 533c
000002e0: d603 ae3d 94e7 80bc 1806 73bc 2043 49bc
000002f0: c005 d3ba 2c60 b33c eae2 9a3d 10ec 95bb
00000300: e0c2 b6bb 722e 833d f0f2 28bc f1f8 c2bd
00000310: 68ed 4fbc 8846 3fbc 1aae 8a3d 63a7 39bd
00000320: c0a7 9f3a 6dd4 6fbd ac25 8f3c 3dd4 a6bd
00000330: 4c46 be3d 9038 353d f01b dabb 24c2 8a3d
00000340: f076 c6bb d42f 743d 164a 0dbd f819 c9bc
00000350: 9c9c cbbd b441 393d 64e2 cbbc beec ab3d
00000360: e05d ffbc d46f 89bd d8fe 63bc a428 b53d
00000370: 1c3b b3bc d05b b2bb e055 f73c 1065 2b3d
00000380: d0a5 4c3d 4ae8 933d 18d2 36bc b8a1 7d3d
00000390: 5854 a3bd 880d a8bc c49a 8b3d 80bc fcba
000003a0: d095 7bbd a0df 66bc 389c 8c3c e805 9b3d
000003b0: b841 6a3d c86a 453d b8a3 173d 2840 e8bc
000003c0: e878 1abc c980 74bd 9a26 943d 98bf 553d
000003d0: 858d 5cbd ec08 91bd f65f 6ebd c885 cebd
000003e0: b0ff f1bb 90fb d7bc 6009 ebbc f0b9 0cbd
000003f0: 4c7a 343d 6c9e 233d e0f1 c03c 00e0 89b9

conv2.bias f4 [32]
-0.10103811 0.020214736 0.08850382 -0.040023223 -0.021962047 0.09160675 0.051557034 0.0955299
0.082547665 -0.09941892 -0.053346846 0.038820982 -0.0650469 -0.09511373 -0.01653044 0.061623827
-0.023708522 -0.058153354 0.04731448 0.023982301 -0.023853287 -0.08863027 -0.0016206801 0.0046344474
0.04703538 0.023974285 0.028693005 0.0717005 -0.046571378 0.0399798 0.027740449 0.065007
00000000: 12ed cebd 6099 a53c 7e41 b53d 64ef 23bd
00000010: c0e9 b3bc 529c bb3d 782d 533d 2ea5 c33d
00000020: c00e a93d 269c cbbd 3982 5abd c002 1f3d
00000030: 4f37 85bd fdca c2bd d86a 87bc 4469 7c3d
00000040: 6038 c2bc 3632 6ebd d4cc 413d 8876 c43c
00000050: f867 c3bc c983 b5bd 006d d4ba 90dc 973b
00000060: 2ca8 403d b865 c43c 980d eb3c b6d7 923d
00000070: a1c1 3ebd dcc1 233d f03f e33c 6422 853d

fc.weight f4 [3, 32]
0.103502825 -0.07548185 -0.114013106 0.14224608 0.1579418 -0.11457722 0.14744322 -0.08544567
-0.017599002 -0.013907537 0.04602468 -0.109685384 0.1466331 -0.10763816 -0.113424376 -0.13841301
-0.07716589 -0.013526142 -0.10891711 0.13877742 -0.1560851 -0.10542391 -0.09749135 -0.06054662
0.069063485 -0.15659714 0.015577376 -0.0041196495 0.07501905 -0.15867916 -0.14380884 0.083790585
-0.1168746 0.021669596 -0.05216351 0.008661941 -0.088587575 -0.09556372 -0.031610742 0.09754579
-0.01230064 -0.05037217 0.16141467 -0.17604384 0.06917189 0.16403599 0.14093788 -0.11846672
-0.022799239 0.078196004 0.09926273 -0.025206 0.045269713 -0.096827455 -0.05218134 0.021798596
0.17540552 0.043704167 0.01487349 0.06735945 -0.16161466 0.02194652 -0.012816474 -0.11383602
-0.12296511 -0.13851157 -0.13495296 -0.13139692 -0.047130287 -0.026298016 0.09753586 -0.05871351
-0.14820461 -0.114309415 -0.026225999 0.10692833 -0.050679818 0.044746086 0.069236964 0.0500485
0.031607628 -0.08953287 0.07564826 0.0138940215 -0.06645795 0.16185008 0.10387756 0.051384717
0.1118706 -0.09395407 -0.061773412 -0.040904105 -0.085382245 0.05265306 0.02341038 -0.016914517
00000000: 4af9 d33d 3a96 9abd b47f e9bd f5a8 113e
00000010: 7fbb 213e 76a7 eabd 5bfb 163e 24fe aebd
00000020: c82b 90bc 70dc 63bc 6084 3c3d bba2 e0bd
00000030: fd26 163e 6571 dcbd 0a4b e8bd 24bc 0dbe
00000040: 2609 9ebd c09c 5dbc ef0f dfbd ab1b 0e3e
00000050: c6d4 1fbe 7ee8 d7bd 8ba9 c7bd bcff 77bd
00000060: 2871 8d3d 005b 20be 4038 7f3c 20fe 86bb
00000070: 96a3 993d ca7c 22be a042 13be 669a ab3d
00000080: f35b efbd 7084 b13c 68a9 55bd d0ea 0d3c
00000090: 676d b5bd e9b6 c3bd 447a 01bd 16c6 c73d
000000a0: a088 49bc 0c53 4ebd e349 253e d644 34be
000000b0: fea9 8d3d 0df9 273e 0552 103e ae9e f2bd
000000c0: 78c5 babc 3a25 a03d 424a cb3d d07c cebc
000000d0: bc6c 393d 794d c6bd 1abc 55bd f892 b23c
000000e0: 819d 333e 2403 333d f0af 733c c0f3 893d
000000f0: 507e 25be 30c9 b33c 30fc 51bc dc22 e9bd
00000100: 22d5 fbbd fad5 0dbe 1c31 0abe ea8c 06be
00000110: b00b 41bd f06e d7bc e2c0 c73d 947d 70bd
00000120: f3c2 17be 0e1b eabd e8d7 d6bc 3efd da3d
00000130: a495 4fbd ac47 373d 1ccc 8d3d a8ff 4c3d
00000140: 0077 013d 025d b7bd 7aed 9a3d c0a3 633c
00000150: 1b1b 88bd 07bc 253e c2bd d43d c878 523d
00000160: 6a1c e53d fe6a c0bd 1e06 7dbd 108b 27bd
00000170: e3dc aebd bcaa 573d 20c7 bf3c 5090 8abc

fc.bias f4 [3]
-0.14541519 0.09735377 0.077418074
00000000: b8e7 14be 6a61 c73d 5e8d 9e3d
