models/NexaHEP_1.pt (torch, 17517 bytes, 6 tensors)

conv1.weight f4 [32, 4, 3]
-0.10477945 -0.26285625 -0.13126281 -0.25535053 -0.18954305 0.12943995 -0.09941274 0.20792323
-0.18947905 0.039632767 -0.2535654 0.03999746 0.059410393 -0.22052841 -0.1496189 -0.114641696
-0.024266452 0.0016812682 -0.23154445 -0.23176098 0.28798246 -0.13896105 0.20726168 -0.047454193
0.011105865 0.034714103 -0.27192134 0.21373963 -0.14895682 -0.007880151 -0.28462923 0.04909262
0.09626976 -0.047295347 -0.2146394 0.19994906 -0.123830795 -0.24148571 -0.09381847 0.13517278
0.28621596 0.14986986 -0.22940852 -0.08533497 -0.03898023 -0.10048357 -0.13672243 -0.21610808
0.028436422 -0.16085349 0.09719345 -0.121606976 -0.21886024 0.029606253 -0.040337533 0.2681511
0.13884062 0.16691661 -0.20713352 0.2573731 -0.16715388 0.21934694 -0.2304357 0.12015173
0.22784585 -0.15518709 -0.093247354 0.16140708 0.24513769 -0.05497524 0.2805164 0.24627954
-0.24273413 0.21258819 0.1003283 0.08043 -0.27937725 -0.059124693 0.062030464 -0.17512889
0.20156258 0.05583614 -0.13661444 0.234187 -0.16251229 0.17253643 0.12520048 -0.062554166
0.03178799 -0.18101282 0.26059455 -0.10817602 0.13440281 -0.15268855 -0.16351548 -0.09474087
0.18535155 0.1744506 -0.24593627 -0.018279672 0.023927867 -0.23887017 -0.25928298 -0.006485313
0.033160716 -0.26247945 0.05721572 -0.16703202 -0.095212564 -0.07841942 0.22020298 -0.002965033
0.24655694 -0.13579409 0.25032973 -0.19235365 -0.26522586 0.15381116 -0.14256103 -0.11448477
0.064876765 0.08867091 -0.21377507 0.26629657 -0.2723093 -0.27705097 0.0037724674 0.020533323
0.13279524 0.23426485 0.1484932 -0.154261 -0.0066471696 -0.16352533 -0.23009412 -0.13882835
-0.15545852 -0.19372758 -0.18933225 0.16252065 0.19536814 0.21319968 0.033643693 0.25522512
0.146765 -0.02566865 -0.006757945 -0.22224705 0.2762149 0.13896382 0.049042076 -0.27836344
0.039863408 0.14413387 -0.22857098 0.25366402 -0.068440855 0.20516971 0.18339953 -0.11992364
-0.0103209615 0.1404489 -0.27420822 0.11910671 -0.13808198 -0.20499456 0.27212137 -0.21012348
-0.1308848 0.09915188 0.28559458 0.06713155 -0.08825427 0.1937604 0.18189925 0.017283142
0.2380389 -0.2727914 -0.06604634 0.113805026 -0.123947084 -0.07757658 -0.266481 -0.23911914
-0.030516535 0.022830904 0.15230101 0.18149427 -0.23600712 0.19672993 0.02101168 0.2790196
0.002843082 0.24997127 0.2652713 -0.11017427 0.22945118 -0.12058395 0.26645344 -0.12573826
-0.1860244 -0.06452519 0.18633413 -0.13391753 0.06324723 0.02664882 -0.0358994 -0.2602315
-0.07242358 0.20395672 0.06985393 0.20856571 0.15603891 0.02827683 0.15921932 -0.0148282945
-0.07700935 0.08549461 0.039061844 -0.1080872 0.24010438 -0.1157016 0.0368751 0.24167383
-0.09977768 -0.03831306 -0.15191743 0.109677404 -0.079588935 0.11883637 0.265849 -0.003082037
0.21181834 0.039134145 -0.08838156 -0.10167742 0.013967186 0.15678838 -0.11473544 -0.057964057
0.21165258 0.061478317 -0.052197814 -0.21405524 0.05664882 -0.06658748 -0.19511668 -0.16482812
0.12717071 -0.12501508 -0.28556645 -0.052529424 0.14832962 0.015935421 0.1370174 0.04255292
00000000: 9c96 d6bd 1895 86be c269 06be 4ebd 82be
00000010: 9317 42be e88b 043e e898 cbbd d4e9 543e
00000020: cc06 42be f855 223d 53d3 81be 60d4 233d
00000030: 5058 733d 33d2 61be b235 19be 44c9 eabd
00000040: 70ca c6bc 005e dc3a fd19 6dbe c052 6dbe
00000050: 7072 933e ce4b 0ebe 683c 543e 545f 42bd
00000060: 60f5 353c 6030 0e3d 4639 8bbe 90de 5a3e
00000070: 2388 18be c01b 01bc ecba 91be 5815 493d
00000080: 1429 c53d c4b8 41bd 6eca 5bbe 72bf 4c3e
00000090: 009b fdbd 0848 77be e623 c0bd bc6a 0a3e
000000a0: e68a 923e 7c77 193e 11ea 6abe 1ac4 aebd
000000b0: bca9 1fbd 54ca cdbd f700 0cbe 704b 5dbe
000000c0: 80f3 e83c c7b6 24be 5c0d c73d 140d f9bd
000000d0: e61c 60be d088 f23c f838 25bd 1a4b 893e
000000e0: 3c2c 0e3e 30ec 2a3e cf1a 54be 68c6 833e
000000f0: 632a 2bbe 7c9c 603e 56f7 6bbe 1c12 f63d
00000100: 6c50 693e 5de9 1ebe 78f8 bebd e647 253e
00000110: 6005 7b3e b82d 61bd d89f 8f3e b430 7c3e
00000120: 4c8f 78be b8b0 593e ec78 cd3d 7cb8 a43d
00000130: 890a 8fbe bc2c 72bd a813 7e3d fd54 33be
00000140: 6c66 4e3e 70b4 643d a8e4 0bbe b8ce 6f3e
00000150: 9f69 26be 64ad 303e 8e34 003e 661c 80bd
00000160: 2034 023d 6d5b 39be a66c 853e 648b ddbd
00000170: e4a0 093e 635a 1cbe 9a70 27be 8007 c2bd
00000180: cccc 3d3e 2ea3 323e b8d6 7bbe 40bf 95bc
00000190: 6004 c43c 629a 74be bdc0 84be c082 d4bb
000001a0: 88d3 073d b563 86be 085b 6a3d 710a 2bbe
000001b0: cefe c2bd 5c9a a0bd e47c 613e 0051 42bb
000001c0: 6c79 7c3e 9b0d 0bbe 382b 803e 5bf8 44be
000001d0: afcb 87be ac80 1d3e 85fb 11be fe76 eabd
000001e0: 1cde 843d 1899 b53d dae7 5abe 0658 883e
000001f0: 206c 8bbe a0d9 8dbe 803b 773b 8035 a83c
00000200: 7afb 073e 20e3 6f3e 9a0e 183e 98f6 1dbe
00000210: 80d0 d9bb 2f73 27be cb9d 6bbe 0529 0ebe
00000220: 8530 1fbe 8660 46be 50e0 41be d06b 263e
00000230: 960e 483e 0451 5a3e f8cd 093d deac 823e
00000240: 9049 163e 1047 d2bc c071 ddbb bb94 63be
00000250: 0a6c 8d3e 884c 0e3e 58e0 483d a785 8ebe
00000260: d047 233d d497 133e 830e 6abe 40e0 813e
00000270: b82a 8cbd 0218 523e 16cd 3b3e 869a f5bd
00000280: 4019 29bc d6d1 0f3e 0565 8cbe 38ee f33d
00000290: 5d65 0dbe 18ea 51be 7e53 8b3e 9c2a 57be
000002a0: aa06 06be 2410 cb3d 7439 923e 447c 893d
000002b0: a8be b4bd 2069 463e cc43 3a3e 6095 8d3c
000002c0: 78c0 733e 50ab 8bbe 4e43 87bd 9c12 e93d
000002d0: f8d7 fdbd 78e0 9ebd 3370 88be a6db 74be
000002e0: d0fd f9bc e007 bb3c ccf4 1b3e a2d9 393e
000002f0: daab 71be 9273 493e b020 ac3c a8db 8e3e
00000300: 0053 3a3b 78f8 7f3e a4d1 873e 0ca3 e1bd
00000310: 40f5 6a3e b8f4 f6bd 966c 883e 88c1 00be
00000320: 2e7d 3ebe c825 84bd 60ce 3e3e ad21 09be
00000330: c487 813d a04e da3c 400b 13bd 103d 85be
00000340: d052 94bd 08da 503e 940f 8f3d 4092 553e
00000350: aac8 1f3e d0a4 e73c 640a 233e 60f2 72bc
00000360: 14b7 9dbd cc17 af3d 50ff 1f3d d25c ddbd
00000370: ecdd 753e f6f4 ecbd 580a 173d 5879 773e
00000380: 3e58 ccbd 28ee 1cbd 3e90 1bbe 8c9e e03d
00000390: 86ff a2bd 7c60 f33d 5c1d 883e 00fc 49bb
000003a0: e8e6 583e 204b 203d 6401 b5bd 403c d0bd
000003b0: a0d6 643c 228d 203e 6afa eabd b86b 6dbd
000003c0: 74bb 583e b0d0 7b3d 60cd 55bd 4c31 5bbe
000003d0: 9808 683d 045f 88bd abcc 47be b4c8 28be
000003e0: 0a39 023e f403 00be c435 92be 1829 57bd
000003f0: b8e3 173e 008b 823c 4a4e 0c3e f84b 2e3d

conv1.bias f4 [32]
0.10171357 0.10221663 0.069954574 0.10010415 -0.27503148 -0.2610306 -0.042125925 -0.1700412
0.14386886 0.22682357 0.0100746155 0.25463074 0.079193175 -0.23132831 -0.046195716 0.1769023
-0.098617986 0.18396807 -0.22816005 -0.12555371 0.04351756 -0.10153858 0.16846082 -0.0123282075
0.26616526 -0.019052833 0.094833344 0.16358554 -0.1981053 0.23241454 -0.1303132 -0.091198415
00000000: 344f d03d f456 d13d 5844 8f3d 6803 cd3d
00000010: edd0 8cbe cea5 85be 3c8c 2cbd 481f 2ebe
00000020: 5c52 133e 7044 683e 0010 253c f65e 823e
00000030: 0830 a23d 54e1 6cbe b837 3dbd e025 353e
00000040: 3af8 c9bd 2062 3c3e caa2 69be 2791 00be
00000050: 783f 323d 76f3 cfbd fe80 2c3e 40fc 49bc
00000060: d046 883e b014 9cbc fc37 c23d f882 273e
00000070: 1edc 4abe 14fe 6d3e d370 05be 3cc6 babd

conv2.weight f4 [32, 32, 3]
0.08015375 -0.088677935 0.0678152 0.016418658 -0.006735228 -0.039950013 0.004969083 -0.0043606088
0.034290463 0.0973676 -0.0393262 -0.033652082 -0.04523183 0.101934224 -0.020894744 -0.046278063
-0.021955214 -0.005978957 0.040222332 0.076798245 0.022117272 -0.031487375 0.0029768273 0.009441324
0.038611278 -0.081878334 -0.020191409 0.031178594 0.047574833 -0.035464004 0.035346627 -0.06035999
0.06891447 -0.08214079 -0.039725028 0.098246396 -0.08943196 -0.05358552 0.07531896 -0.034081712
0.06891088 -0.008898176 0.014919169 0.06165825 0.06488384 -0.05731328 0.06916025 0.08138996
0.03372863 0.00754983 0.014193311 0.09756017 -0.077218525 -0.053915445 0.10130216 0.098043576
-0.017062597 0.032793716 0.09142141 -0.0971081 0.042397425 -0.004235953 -0.06859204 -0.026529692
-0.09455638 0.08883083 -0.08103552 -0.01564812 0.06096883 -0.052016437 0.006388381 -0.05749405
0.051944792 0.023894146 -0.02168712 -0.09390629 0.08328535 -0.051445693 -0.05455033 -0.038178794
0.0128193125 0.08110221 -0.031336628 0.028194413 0.04093471 0.07944825 -0.055962026 -0.03724689
-0.021304816 -0.05979713 0.06812142 0.09349562 0.054438546 0.093956605 -0.08124305 0.05265571
-0.04393225 -0.01935406 -0.087028086 0.0037084594 -0.08763295 -0.020275205 0.09319486 -0.02489657
0.012310766 0.056041032 -0.046219636 -0.07952875 -0.08260007 0.004778698 0.084227845 0.0044270903
0.0399635 0.04669133 -0.07957386 0.0036255345 0.011823513 0.08558953 0.026971325 0.054280892
-0.0013210326 -0.049740475 0.09249684 0.008178391 0.0018608049 -0.013453066 0.09202205 0.067218825
-0.08956842 -0.027873911 -0.09448582 -0.0089605525 0.056300804 -0.08336643 0.07644287 0.08374514
-0.062648945 0.08057593 0.00931558 0.06636073 -0.09879269 0.08898087 -0.06863694 0.0039314404
-0.03521554 -0.060733046 0.07274261 0.10069996 -0.09731071 0.07837857 0.019945435 -0.09877192
-0.008428164 0.06690903 0.09534076 -0.06810671 0.019084215 -0.08940733 0.042458683 -0.027124047
-0.03561388 0.07269959 0.09432742 -0.045919836 -0.052992806 0.08808099 0.08598472 0.07429886
-0.09368513 -0.078651756 0.039278284 -0.08679939 0.08348124 0.080712676 0.06002535 0.08477233
-0.029461034 -0.025750212 0.00063885003 -0.014544725 -0.062298406 -0.100596555 0.096076936 -0.07285555
0.018916897 0.013710186 -0.03854371 0.0036445707 -0.005691275 -0.019702725 -0.078829736 0.010439061
0.024135306 -0.034107298 0.030268878 -0.025485761 0.02330865 0.019947872 -0.0015052706 0.04693961
-0.08685359 0.060795724 0.0053976327 -0.10185541 -0.06581119 0.06658669 -0.07628704 0.07050873
0.015569411 0.05057536 -0.038702257 0.086967185 0.027228445 -0.0037130266 0.035458878 0.003860131
0.007323593 0.025535181 0.09404862 -0.09169647 0.06376344 -0.06992592 -0.07437232 -0.09241533
0.008784607 0.04820633 -0.08672674 0.09211683 0.04733923 0.050310567 0.05475101 0.05016291
-0.026171498 -0.08752287 -0.08035174 0.08534922 0.064591005 0.028651625 -0.02642233 -0.082190566
0.018361725 0.0946701 -0.05920713 0.077668846 0.05320874 -0.04309288 -0.039002858 -0.04917903
0.09057784 0.06322385 0.09049286 0.04106109 -0.06677392 0.100938156 0.014424846 -0.0055910125
00000000: a627 a43d c79c b5bd b2e2 8a3d 6c80 863c
00000010: 30b3 dcbb a0a2 23bd b0d3 a23b 70e3 8ebb
00000020: 2874 0c3d aa68 c73d 8214 21bd c4d6 09bd
00000030: 0345 39bd e4c2 d03d 742b abbc 118e 3dbd
00000040: 6cdb b3bc 20eb c3bb 2cc0 243d 6648 9d3d
00000050: 482f b53c e8f8 00bd e016 433b c8af 1a3c
00000060: dc26 1e3d d4af a7bd 7468 a5bc 406a ff3c
00000070: d4dd 423d b442 11bd a0c7 103d 093c 77bd
00000080: 0823 8d3d 6e39 a8bd b6b6 22bd 6835 c93d
00000090: 1a28 b7bd 7d7c 5bbd d440 9a3d 4499 0bbd
000000a0: 2621 8d3d a8c9 11bc 886f 743c 5c8d 7c3d
000000b0: d2e1 843d 54c1 6abd e4a3 8d3d c8af a63d
000000c0: 0827 0a3d 9064 f73b 108b 683c a0cd c73d
000000d0: bf24 9ebd 71d6 5cbd 8277 cf3d 12cb c83d
000000e0: dcc6 8bbc b452 063d 263b bb3d 9de0 c6bd
000000f0: eca8 2d3d c0cd 8abb fc79 8cbd cc54 d9bc
00000100: c6a6 c1bd f0ec b53d f3f5 a5bd 7c30 80bc
00000110: 74ba 793d 300f 55bd a055 d13b e27e 6bbd
00000120: 10c4 543d a8bd c33c 30a9 b1bc f151 c0bd
00000130: 8291 aa3d b8b8 52bd 2b70 5fbd 5e61 1cbd
00000140: 1808 523c ea18 a63d d65a 00bd f8f7 e63c
00000150: 28ab 273d c4b5 a23d 7038 65bd 3290 18bd
00000160: 7087 aebc d6ed 74bd 3e83 8b3d a27a bf3d
00000170: f4fa 5e3d 526c c03d c262 a6bd 84ad 573d
00000180: 4ef2 33bd 688c 9ebc c83b b2bd a009 733b
00000190: e778 b3bd 3018 a6bc f2dc be3d e4f3 cbbc
000001a0: 18b3 493c 488b 653d cd50 3dbd f8df a2bd
000001b0: 3a2a a9bd a096 9c3b a67f ac3d 2011 913b
000001c0: c4b0 233d 683f 3f3d 9ff7 a2bd 609a 6d3b
000001d0: 68b7 413c 9049 af3d f8f2 dc3c a455 5e3d
000001e0: 8026 adba abbc 4bbd fc6e bd3d a8fe 053c
000001f0: 40e6 f33a 406a 5cbc 0e76 bc3d 06aa 893d
00000200: a66f b7bd d457 e4bc c881 c1bd 48cf 12bc
00000210: ac9b 663d 05bc aabd 148e 9c3d 9282 ab3d
00000220: 174e 80bd fe04 a53d 60a0 183c 22e8 873d
00000230: d253 cabd 9a3b b63d 8691 8cbd 50d3 803b
00000240: 2c3e 10bd 37c3 78bd 14fa 943d c83b ce3d
00000250: d64a c7bd f284 a03d 9c64 a33c ef48 cabd
00000260: 4816 0abc 9a07 893d 0442 c33d 887b 8bbd
00000270: 8056 9c3c 311b b7bd 28e9 2d3d 4033 debc
00000280: dcdf 11bd 86e3 943d bc2e c13d 7016 3cbd
00000290: fc0e 59bd ce63 b43d c218 b03d 002a 983d
000002a0: fddd bfbd 2c14 a1bd 44e2 203d e1c3 b1bd
000002b0: 36f8 aa3d b04c a53d 24dd 753d 1e9d ad3d
000002c0: 4458 f1bc 1cf2 d2bc 8078 273a 004d 6ebc
000002d0: 9d2c 7fbd 9105 cebd fcc3 c43d 4a35 95bd
000002e0: 9cf7 9a3c b0a0 603c 02e0 1dbd c0d9 6e3b
000002f0: e07d babb 9c67 a1bc 7c71 a1bd 9808 2b3c
00000300: 68b7 c53c 18b4 0bbd 70f6 f73c 84c7 d0bc
00000310: c8f1 be3c b869 a33c 804c c5ba c043 403d
00000320: 4ce0 b1bd f004 793d a0de b03b 9299 d0bd
00000330: 04c8 86bd 9a5e 883d 613c 9cbd e266 903d
00000340: d816 7f3c 1c28 4f3d 4286 1ebd da1b b23d
00000350: 300e df3c 4056 73bb 543d 113d 40fa 7c3b
00000360: c0fa ef3b 282f d13c 909c c03d 5ccb bbbd
00000370: 6896 823d 5235 8fbd 8450 98bd 4044 bdbd
00000380: 50ed 0f3c 0074 453d ca9d b1bd c0a7 bc3d
00000390: c8e6 413d 7412 4e3d 9842 603d a077 4d3d
000003a0: 9c65 d6bc 313f b3bd 748f a4bd 92cb ae3d
000003b0: 4a48 843d d0b6 ea3c a473 d8bc 8753 a8bd
000003c0: 546b 963c 66e2 c13d 2d83 72bd d810 9f3d
000003d0: 68f1 593d 2982 30bd 76c1 1fbd f36f 49bd
000003e0: e080 b93d 827b 813d 5254 b93d ac2f 283d
000003f0: c4c0 88bd aab8 ce3d 3056 6c3c d034 b7bb

conv2.bias f4 [32]
-0.018843576 -0.045018014 -0.053186525 -0.04625076 -0.07661181 -0.019267112 0.042801753 -0.037010856
-0.06933606 -0.056632377 0.04597181 -0.03572461 0.07013786 0.07622936 -0.085478716 0.027023822
-0.08147155 -0.046575576 -0.042459358 -0.02353441 -0.012134068 0.015180126 0.08693744 0.047662586
-0.00020754337 -0.01985684 0.0369339 0.059798434 0.04812403 0.05803606 -0.088133484 -0.07623208
00000000: d85d 9abc cf64 38bd 1dda 59bd 7071 3dbd
00000010: a7e6 9cbd 10d6 9dbc e450 2f3d b298 17bd
00000020: 1000 8ebd 5af7 67bd f04c 3c3d f853 12bd
00000030: 70a4 8f3d 241e 9c3d 770f afbd 1061 dd3c
00000040: 8eda a6bd 08c6 3ebd dde9 2dbd 3ccb c0bc
00000050: f8cd 46bc 10b6 783c 420c b23d d839 433d
00000060: 00a0 59b9 d0aa a2bc 0048 173d 34ef 743d
00000070: b41d 453d 38b7 6d3d 547f b4bd 911f 9cbd

fc.weight f4 [3, 32]
0.052486077 -0.077426165 -0.10240752 0.16283278 -0.08971936 0.09886427 -0.0073001683 -0.12849997
0.16821496 0.16941448 0.092911884 0.0820445 -0.11658199 0.021879837 -0.10833775 0.16776617
-0.106899366 0.018990144 -0.13153853 -0.14570199 -0.14739192 -0.01702556 0.11362724 0.031229258
-0.11494587 0.08279608 -0.013803542 0.13761221 -0.121641636 -0.026405022 0.088358775 -0.050429016
-0.06027054 0.12777583 0.007552266 0.070001006 -0.15980555 0.09627317 -0.1370328 0.119177446
0.1634206 0.022681028 0.16125171 -0.13274616 -0.095460564 -0.11435799 -0.15005079 0.15739773
0.043799043 0.106424466 -0.11209791 -0.033869445 -0.10109708 0.1485369 -0.14396457 -0.06681757
0.1453873 0.05566533 -0.14264154 -0.040309772 -0.13697752 -0.06210553 0.04412377 -0.139103
0.1402687 -0.036046132 0.062982604 -0.12938946 -0.063872516 0.041437373 -0.094938785 -0.0033551455
-0.13812259 0.064789504 -0.03292799 -0.0028142333 -0.16439232 0.08708654 0.04426031 -0.16309363
0.15998681 0.04065317 0.059543714 0.13189231 -0.03291218 0.11701335 0.057204023 -0.104343496
0.17046125 0.127917 0.17156763 -0.089131735 -0.08277049 -0.077581115 -0.105511576 0.014840141
00000000: a4fb 563d 9c91 9ebd 09bb d1bd a3bd 263e
00000010: c9be b7bd 5a79 ca3d 4036 efbb 7f95 03be
00000020: 8b40 2c3e fd7a 2d3e 9648 be3d f206 a83d
00000030: 8ac2 eebd 583d b33c 2fe0 ddbd e5ca 2b3e
00000040: 0eee dabd 3891 9b3c 09b2 06be e732 15be
00000050: e8ed 16be 3079 8bbc 66b5 e83d 80d4 ff3c
00000060: be68 ebbd fe90 a93d 4028 62bc 37ea 0c3e
00000070: 401f f9bd 584f d8bc 72f5 b43d a88e 4ebd
00000080: 3ede 76bd abd7 023e 0079 f73b b05c 8f3d
00000090: 11a4 23be de2a c53d 5452 0cbe 4e13 f43d
000000a0: bb57 273e 90cd b93c 2b1f 253e 9cee 07be
000000b0: d480 c3bd 8634 eabd eaa6 19be df2c 213e
000000c0: a066 333d 12f5 d93d 9793 e5bd b0ba 0abd
000000d0: fc0b cfbd 0f1a 183e 736b 13be a6d7 88bd
000000e0: 69e0 143e 5401 643d a010 12be dc1b 25bd
000000f0: d643 0cbe 5e62 7ebd 20bb 343d 0471 0ebe
00000100: 99a2 0f3e 1ca5 13bd 06fd 803d ac7e 04be
00000110: 98cf 82bd 3cba 293d 446f c2bd 00e2 5bbb
00000120: 0270 0dbe 5cb0 843d 80df 06bd 006f 38bb
00000130: 7656 28be 6e5a b23d 4c4a 353d 0402 27be
00000140: 95d3 233e f083 263d 1ce4 733d c70e 073e
00000150: ecce 06bd b2a4 ef3d c44e 6a3d 0bb2 d5bd
00000160: 658d 2e3e adfc 023e 6daf 2f3e b38a b6bd
00000170: 9383 a9bd d9e2 9ebd 7416 d8bd 1024 733c

fc.bias f4 [3]
0.13543727 -0.008851454 -0.011049613
00000000: 11b0 0a3e b005 11bc 7009 35bc
