models/NexaQST_1.pt (torch, 17517 bytes, 6 tensors)

conv1.weight f4 [32, 4, 3]
0	0xbd21c000	-0.039489746
1	0x3c4f7c80	0.01266396
2	0x3e800968	0.25007176
3	0xbd27e420	-0.04098904
4	0x3c1156c0	0.0088707805
5	0x3e8b88ac	0.2725271
6	0xbe679630	-0.22615886
7	0x3de82028	0.11334258
8	0xbe46fe16	-0.19432864
9	0x3e43d2f4	0.19123441
10	0x3de0e174	0.10980502
11	0x3e8e388e	0.27777523
12	0x3dda6710	0.10664189
13	0x3d6e0628	0.05811134
14	0xbe2e9bb8	-0.1705159
15	0xbe70a6d6	-0.23501143
16	0xbe8201d0	-0.25392008
17	0x3e901918	0.28144145
18	0xbd0d9990	-0.034570277
19	0xbd81f254	-0.063450485
20	0xbe83b4c9	-0.25723866
21	0xbe863bff	-0.26217648
22	0x3d537630	0.051626384
23	0x3e852e74	0.26012003
24	0xbe7995b4	-0.24373513
25	0x3cadcc80	0.021215677
26	0xbe07b4fa	-0.13252631
27	0x3e356bca	0.177169
28	0x3e5ce420	0.21571398
29	0x3dba7e60	0.09106135
30	0xbd8351ce	-0.064120874
31	0xbe2c5a64	-0.16831356
32	0x3e863832	0.2621475
33	0x3dc39368	0.095496
34	0xbe46d022	-0.19415334
35	0xbe32152e	-0.17390892
36	0xbe456f5a	-0.19280759
37	0x3e720a00	0.23636627
38	0x3d630818	0.05542764
39	0xbd2430f0	-0.040085733
40	0x3d914284	0.07092765
41	0x3e74aee0	0.23894835
42	0xbe4ca86a	-0.1998612
43	0x3d1c4d28	0.03815952
44	0x3dcd325c	0.10019371
45	0x3d836b04	0.06416896
46	0x3ccc96a0	0.024974167
47	0xbdd411ac	-0.10354933
48	0xbd3ca824	-0.04605879
49	0xbe088c8e	-0.13334867
50	0x3e25a432	0.16175917
51	0x3e47a572	0.19496706
52	0x3e745304	0.23859793
53	0xbe26c691	-0.16286685
54	0xbe83d1fe	-0.2574615
55	0x3d80ec9c	0.0629513
56	0x3e5a105c	0.21295303
57	0xbc6a6d80	-0.014308333
58	0xbe51eff0	-0.20501685
59	0xbe612ffe	-0.21990964
60	0x3e22a648	0.15883744
61	0xbdf997c0	-0.12187147
62	0x3e32cba2	0.17460492
63	0xbe299068	-0.16558993
64	0xbe6657c7	-0.22494422
65	0x3e54813e	0.20752427
66	0x3dec80b8	0.11547989
67	0x3e2a0b68	0.16605914
68	0xbddde252	-0.10834183
69	0x3c4d5b60	0.0125339925
70	0xbe38d78a	-0.18050972
71	0xbe492a8b	-0.19645135
72	0x3e28ac98	0.1647209
73	0x3e3971ce	0.1810982
74	0xbe38a6cc	-0.18032378
75	0x3e2555fc	0.16146082
76	0x3e1f0f92	0.15533283
77	0x3d09bfe0	0.033630252
78	0xbdb6aee2	-0.08920075
79	0x3e26b156	0.16278586
80	0x3e73c170	0.2380426
81	0x3e6a5adc	0.22886223
82	0xbe44d25e	-0.19220874
83	0x3e136cc4	0.1439696
84	0xbe02e9bb	-0.12784474
85	0x3e00e910	0.12588906
86	0xbd8a0d32	-0.06740798
87	0x3d91e9e8	0.07124692
88	0x3e821a6a	0.25410777
89	0xbe5ce79c	-0.21572727
90	0xbe3c06d0	-0.18361974
91	0xbdae7a7c	-0.08519456
92	0xbe3c48d8	-0.18387163
93	0x39154800	0.0001423657
94	0x3e14e01c	0.14538616
95	0x3e4159c0	0.18881893
96	0xbe8b0ae9	-0.2715676
97	0xbd98d9c4	-0.074634105
98	0x3e8484dc	0.25882614
99	0x3e12c010	0.14331079
100	0x3da62634	0.081127554
101	0xbe5b12b2	-0.2139385
102	0xbe87299f	-0.26398942
103	0x3dc76e88	0.09737879
104	0x3e4f7c40	0.20262241
105	0xbe6df237	-0.23236929
106	0xbd951ef6	-0.07281296
107	0xbe43abe0	-0.19108534
108	0x3e0bbe10	0.13646722
109	0x3e31a59c	0.17348331
110	0x3d505888	0.05086568
111	0xbdfafa30	-0.12254751
112	0xbdd549ee	-0.104144916
113	0x3e8e19d8	0.27754092
114	0xbdebb140	-0.11508417
115	0x3e26f0ee	0.16302845
116	0xbe7ddcd6	-0.24791273
117	0x3d592c18	0.053020567
118	0xbe8a2ad0	-0.26985788
119	0x3c2a81e0	0.010406941
120	0x3b8d2040	0.004306823
121	0xbdd9ea8a	-0.10640438
122	0xbe901924	-0.2814418
123	0xbe3991d5	-0.18122037
124	0xbe92fa01	-0.28706363
125	0x3e5ce514	0.21571761
126	0xbe76c921	-0.24100162
127	0xbe022ef0	-0.12713218
128	0xbd983fa2	-0.07434012
129	0xbde7771a	-0.11302014
130	0x3e570fd8	0.21002138
131	0x3e5093d2	0.20368889
132	0x3d6d60b0	0.057953537
133	0xbe8b7092	-0.27234322
134	0x3e6439b0	0.22287631
135	0xbc92b1a0	-0.017906964
136	0xbd80fdf2	-0.06298436
137	0x3dc5bfb8	0.09655708
138	0xbe3d2866	-0.18472442
139	0xbd6fc818	-0.058540434
140	0xbcfa4a50	-0.030553013
141	0xbe0c2a58	-0.13688028
142	0xbd2115ec	-0.039327547
143	0x3e7f6f54	0.24944812
144	0x3de18880	0.110123634
145	0xbc3623e0	-0.011116952
146	0xbe8b24c4	-0.27176487
147	0x3e7d280c	0.24722308
148	0xbdbf3a5c	-0.09337303
149	0xbe4fca1c	-0.20291942
150	0xbe3d6148	-0.18494141
151	0x3e4fe8f4	0.20303708
152	0xbe526436	-0.2054604
153	0x3cfe4b40	0.031041741
154	0xbdec3490	-0.11533463
155	0xbe5a1f45	-0.21300991
156	0xbdc301c4	-0.09521821
157	0x3de11714	0.1099073
158	0x3e9254e2	0.28580385
159	0x3e4592f6	0.19294342
160	0xbe29b44c	-0.16572684
161	0xbdb7f778	-0.08982748
162	0x3d9b1c3c	0.07573745
163	0xbd8e1ed8	-0.06939477
164	0x3e8eb3d4	0.27871573
165	0x3d896304	0.06708339
166	0xbe51a267	-0.20472108
167	0x3e915066	0.28381652
168	0x3e21212c	0.1573531
169	0x3e1cb1c8	0.15302193
170	0xbe8946a8	-0.2681172
171	0xbe47a40a	-0.1949617
172	0x3dc34b20	0.09535813
173	0xbd55d9c4	-0.05220963
174	0xbe159342	-0.14606956
175	0x3dd9a20c	0.10626611
176	0x3d666ed0	0.056258023
177	0x3e5d230c	0.215954
178	0xbc523f40	-0.012832463
179	0x3c88c0e0	0.016693532
180	0x3d25fe10	0.040525496
181	0x3e2a5a08	0.16635907
182	0x3e6c5fbc	0.23083395
183	0xbe6ba5ab	-0.23012416
184	0xbdc9f092	-0.09860338
185	0x3df3ce58	0.11904591
186	0xbcb43780	-0.02199912
187	0xbe236f72	-0.15960482
188	0x3db6f128	0.08932716
189	0x3e3f30de	0.18670985
190	0xbdcf6f4e	-0.101286516
191	0x3e57dc00	0.21080017
192	0xbd99c1b8	-0.07507652
193	0x3d81006c	0.062989086
194	0xbe7e27a8	-0.24819815
195	0xbde56aa2	-0.11201979
196	0x3e6d349c	0.231646
197	0xbe3d8e36	-0.1851128
198	0x3e3660e8	0.17810404
199	0xbe6170ea	-0.2201573
200	0x3df8a80c	0.121414274
201	0xbe4ec85f	-0.20193623
202	0x3ddd8a40	0.10817385
203	0xbe4dfe07	-0.20116435
204	0x3e72f854	0.23727542
205	0xbe901b8d	-0.2814602
206	0x3e06b1a0	0.13153696
207	0x3e6bf72c	0.23043507
208	0xbe70b1fa	-0.23505393
209	0x3e2d254a	0.16908756
210	0x3e482a0c	0.1954729
211	0x3d867b84	0.065665275
212	0xbe24a0cf	-0.16076969
213	0x3e4fa356	0.20277151
214	0x3d559710	0.052146018
215	0x3e441668	0.19149172
216	0xbe3bed94	-0.18352348
217	0x3e868f28	0.26281095
218	0xbe5f63de	-0.2181544
219	0x3ddfedf0	0.10934055
220	0x3da0dd50	0.07854712
221	0x3e8e748c	0.27823293
222	0x3ddfcef0	0.10928142
223	0xbdb54e04	-0.08852771
224	0x3dfd204c	0.12359676
225	0xbe07a7fb	-0.13247673
226	0xbe5b422e	-0.21411964
227	0xbe579d8c	-0.21056193
228	0xbe8674ec	-0.2626108
229	0x3caf9b40	0.021436334
230	0x3e022664	0.12709957
231	0x3dc25240	0.09488344
232	0x3cd8f850	0.026485592
233	0xbe7bce77	-0.24590479
234	0x3e645104	0.2229653
235	0x3e4dc546	0.20094785
236	0xbe6aba2c	-0.22922581
237	0x3e594600	0.21218109
238	0xbd801738	-0.062544286
239	0x3e490b40	0.19633198
240	0xbe88e925	-0.26740375
241	0x3defbfe4	0.11706522
242	0x3e226ef0	0.15862632
243	0x3d6c53c8	0.057697088
244	0x3e8ea282	0.2785836
245	0x3e4e9176	0.20172676
246	0x3d8be65c	0.06831047
247	0x3e0963ec	0.13417023
248	0x3e53231c	0.20618862
249	0xbe80a1a2	-0.25123316
250	0xbdd67814	-0.10472122
251	0x3e4ab8ca	0.19797054
252	0xbdc32938	-0.09529346
253	0x3d934b9c	0.07192156
254	0xbe4b89e4	-0.1987682
255	0x3e8fa8bc	0.28058422

conv1.bias f4 [32]
0	0x3e12e92c	0.1434676
1	0x3e38135e	0.17976138
2	0x3e46f376	0.1942881
3	0x3e5f2cf4	0.21794492
4	0x3e65f810	0.2245791
5	0x3e938d98	0.28818965
6	0xbdf57fee	-0.11987291
7	0xbdf7e5ac	-0.12104353
8	0xbe23ea1b	-0.16007273
9	0x3e6eaac4	0.2330733
10	0x3deb008c	0.11474714
11	0xbe09b619	-0.13448371
12	0x3da78120	0.081789255
13	0xbdc8a49e	-0.09797023
14	0xbe7a324a	-0.24433246
15	0xbd78bbd0	-0.060725987
16	0xbcf00ba0	-0.029302418
17	0xbd908014	-0.07055679
18	0x3dc0e360	0.09418368
19	0xbe18e6dc	-0.14931816
20	0x3ba03b40	0.0048898757
21	0x3bef6b80	0.007306516
22	0x3d735360	0.059405684
23	0xbdeaa7be	-0.114577755
24	0xbe71ff92	-0.23632649
25	0x3e26ec34	0.16301042
26	0xbdeebc3a	-0.11656995
27	0x3e07869a	0.1323494
28	0xbe86f59f	-0.2635927
29	0x3d3d2b60	0.046183944
30	0xbdbf7946	-0.09349303
31	0xbd7494f4	-0.059712365

conv2.weight f4 [32, 32, 3]
0	0x3d7761cc	0.060396
1	0x3bce10c0	0.006288618
2	0x3d292f34	0.041304782
3	0x3d7d86ac	0.06189601
4	0x3da5a2c2	0.08087684
5	0xbd944368	-0.07239419
6	0xbcc5ff64	-0.024169631
7	0x3b8b8c90	0.0042586997
8	0x3d603a10	0.054742873
9	0x3dcc4502	0.099741
10	0x3c15b038	0.009136252
11	0x3d1bacac	0.03800647
12	0xbdbcb151	-0.09213508
13	0xbdc86449	-0.09784753
14	0x3d6520dc	0.05593954
15	0xbc93d43c	-0.018045537
16	0xbbcab6e0	-0.006186351
17	0x3dab120a	0.0835305
18	0xbd1356f0	-0.035971582
19	0x3dad0e1c	0.08449957
20	0x3b166960	0.0022950992
21	0x3d3f8c74	0.046764806
22	0xbd1649d8	-0.036691517
23	0x3a44d200	0.0007508099
24	0xbca962dc	-0.020677023
25	0x3d23afc4	0.039962545
26	0xbd2f303f	-0.04277062
27	0x3d547cfc	0.051877007
28	0x3d6b1cdc	0.05740057
29	0x3c252cf0	0.010081515
30	0xbda972c5	-0.08273844
31	0xbd6beea7	-0.057600643
32	0x3dba032a	0.09082635
33	0xbc8a5de4	-0.016890474
34	0xbdcf1e69	-0.10113222
35	0xbd93f861	-0.07225109
36	0xbdc5ad8b	-0.09652241
37	0x3d2b9604	0.041891113
38	0x3ccd7b18	0.02508311
39	0xbc2a7628	-0.010404147
40	0x3d524cbc	0.05134271
41	0xbd86bd54	-0.0657908
42	0xbd1ebb98	-0.038753122
43	0xbbf21290	-0.0073874667
44	0x3d0d615c	0.034516677
45	0xbd520b57	-0.051280346
46	0xbc9fde34	-0.019515134
47	0x3dc60680	0.096692085
48	0x3c664a10	0.014055744
49	0x3d881c36	0.06646006
50	0xbd38c58d	-0.045110274
51	0xbca745f4	-0.020419098
52	0xbd8f2cf9	-0.06991
53	0xbdad11f5	-0.08450691
54	0xbc12f9b0	-0.008970663
55	0x3d303c40	0.04302621
56	0xbdcc3f64	-0.09973028
57	0xbda4d7b7	-0.08048957
58	0xbd9166a0	-0.07099652
59	0x3c0363e0	0.0080194175
60	0x3bbfe9c0	0.0058567226
61	0x3cc3c0d0	0.023895651
62	0xbdcfe66f	-0.101513736
63	0xbdc4e8e1	-0.096147306
64	0xbcfcdc84	-0.030866869
65	0xbd0f602a	-0.03500382
66	0xbc8901f0	-0.016724557
67	0xbba7cab0	-0.005120598
68	0x3db26a4a	0.08711679
69	0x3da28836	0.079361364
70	0x3c11f4a0	0.008908421
71	0xbcae8d5c	-0.02130764
72	0x3d0e849c	0.034794435
73	0xbd94abe0	-0.07259345
74	0xbad3b500	-0.0016151965
75	0x3daea888	0.085282385
76	0x3bf58d60	0.00749366
77	0x3d3d4424	0.046207562
78	0x3c8f79b8	0.017514095
79	0x3d1f0800	0.03882599
80	0xbda9afea	-0.08285506
81	0x3d88d27a	0.0668077
82	0x3d1e5908	0.038659126
83	0x3dbfb584	0.09360793
84	0x3d9dba22	0.07701518
85	0xbd9a288f	-0.07527267
86	0xbd3a8f3c	-0.045546755
87	0xbd54cdcd	-0.05195408
88	0x3cfb4fc0	0.030677676
89	0xbcc5f20c	-0.024163269
90	0xbda36710	-0.07978642
91	0xbaf08b40	-0.0018352047
92	0xbc223c28	-0.009902038
93	0xbdc7b4f6	-0.097513124
94	0xbd75e838	-0.060035914
95	0x3d0f963c	0.035055384
96	0x3cb156ec	0.021647893
97	0x3da7cadc	0.08192989
98	0xbc771020	-0.015079528
99	0xbc28db90	-0.010306254
100	0xbdb7b96f	-0.089709155
101	0xbcd6d020	-0.026222289
102	0x3d8e90e6	0.06961231
103	0xbd068030	-0.032837093
104	0xbd442082	-0.047882564
105	0x3c697258	0.014248453
106	0xbd8f6eda	-0.07003565
107	0x3d95dd86	0.07317643
108	0x3bb60100	0.0055543184
109	0x3d4c32d8	0.049853176
110	0x3d6133a8	0.054980904
111	0xbcefd140	-0.029274583
112	0xbd486ca2	-0.048931725
113	0x3d9c9cc2	0.07647087
114	0xbd7b5985	-0.06136467
115	0x3d999634	0.07499352
116	0xbaf96180	-0.001902625
117	0xbdabea78	-0.08394331
118	0x3b2681a0	0.0025406852
119	0x3dacd3e2	0.08438851
120	0x3d4cec50	0.050030053
121	0xbd194bd0	-0.037425816
122	0xbd8634c0	-0.0655303
123	0x3d0f9728	0.035056263
124	0xbd9d7f0b	-0.07690247
125	0x3d6bff30	0.057616413
126	0x3d870450	0.065926194
127	0x3c1718a8	0.009222187
128	0xbcd12f7c	-0.025535338
129	0x3db115c8	0.086467326
130	0xbd97315f	-0.07382464
131	0xbd5c9219	-0.053850267
132	0xbd3f32b7	-0.046679225
133	0x3d03955c	0.032124862
134	0xbcd928c0	-0.026508689
135	0x3b5f9460	0.0034115538
136	0x3d9db6a2	0.0770085
137	0x3bb48060	0.0055084676
138	0x3d2ce0e0	0.042206645
139	0xbc91ca44	-0.017796643
140	0xbdc02e56	-0.09383838
141	0xbcc6a0a8	-0.024246529
142	0x3d8e3b62	0.0694492
143	0xbd2b7a19	-0.04186449
144	0x3dc4095c	0.09572098
145	0xbc064c98	-0.008196972
146	0x3d1074c8	0.03526762
147	0x3db0a858	0.08625859
148	0x3dbb32ce	0.091405496
149	0xbcb5e7e4	-0.0222053
150	0x3da133a8	0.07871181
151	0xbd5e879b	-0.054328542
152	0xbd7ee720	-0.062232137
153	0x3da6bc16	0.08141343
154	0x3d3081a4	0.043092385
155	0xbcdfd210	-0.027321845
156	0x3d9d0c0e	0.07668315
157	0xbdc21dd9	-0.09478349
158	0xbd5f0cdc	-0.054455623
159	0x3d223b84	0.03960754
160	0x3d35ee70	0.044416845
161	0x3d318dd8	0.043348163
162	0xbcb6d7d8	-0.02231972
163	0xbcf60424	-0.030031271
164	0x3d7f37a8	0.062308937
165	0xbda8296f	-0.08211028
166	0xbd4b645c	-0.049656257
167	0xbd3c84cb	-0.04602508
168	0x3d323aa0	0.04351294
169	0x3cefb8f8	0.029263005
170	0x3bcb06b0	0.0061958656
171	0x3c959b34	0.018262483
172	0x3d3cab20	0.046061635
173	0xbdac3b38	-0.084097326
174	0x3b0f20c0	0.002183959
175	0x3d9974e6	0.07493
176	0x3c69a070	0.014259443
177	0x3cbf58a8	0.023357704
178	0x3d105454	0.03523667
179	0xbc8cf724	-0.01720769
180	0xbca681f8	-0.020325646
181	0xbd1a43c0	-0.037662268
182	0xbdb0faea	-0.08641608
183	0x3c615d90	0.013755217
184	0xbc062038	-0.0081863925
185	0x3d9044ee	0.07044397
186	0xbc3805e8	-0.011231877
187	0x3b406720	0.0029358342
188	0xbdb1ab9b	-0.08675309
189	0xbd50f587	-0.051015403
190	0x3dce715c	0.10080215
191	0xbda8fec3	-0.08251717
192	0xbdcfc808	-0.10145575
193	0xbcded054	-0.027198948
194	0xbd3cc838	-0.04608938
195	0xbdc57a4e	-0.096424684
196	0x3ca583e8	0.0202045
197	0x3d405f3c	0.046965823
198	0x3dc831d0	0.09775126
199	0xbd9528ee	-0.07283197
200	0x3c9f622c	0.019455992
201	0xbd64196d	-0.05568831
202	0x3cde9780	0.02717185
203	0xbd810628	-0.06300002
204	0x3d08e748	0.033423692
205	0xbd81013c	-0.062990636
206	0x3b4d2480	0.0031302273
207	0xbc9afae0	-0.018918455
208	0x3d998d4e	0.07497655
209	0xbcbada40	-0.022809148
210	0x3d4ca128	0.049958378
211	0x3cb1f66c	0.021723948
212	0xbd95df66	-0.073180005
213	0xbcdfe0d0	-0.027328879
214	0x3da0f724	0.07859638
215	0x3d3db3ec	0.046314165
216	0x3c78b0f0	0.015178904
217	0xbd823f5c	-0.06359741
218	0xbd8cacee	-0.06868921
219	0xbd207038	-0.03916952
220	0xbd170562	-0.036870368
221	0xbd1c2d4a	-0.03812913
222	0xbd533577	-0.05156466
223	0xbdb5a6ac	-0.08869681
224	0x3cb51b70	0.02210781
225	0x3c95b4c4	0.018274672
226	0x3db7700c	0.08956918
227	0x3a509700	0.0007957071
228	0xbd23fee4	-0.040038005
229	0xbd8c0554	-0.06836954
230	0x3dcf03f4	0.10108176
231	0xbdcca0f3	-0.09991636
232	0xbcceb470	-0.025232524
233	0xbdd07337	-0.101782255
234	0xbdcae0f6	-0.09906189
235	0x3d1ed624	0.03877844
236	0xbd992125	-0.07477025
237	0x3cbbc75c	0.02292221
238	0xbd09c018	-0.03363046
239	0x3d098efc	0.033583626
240	0x3d48feb4	0.04907103
241	0x3cc24218	0.023713157
242	0x3cc22260	0.023698032
243	0xbc9f0b04	-0.019414432
244	0x3d3e07c8	0.04639414
245	0xbd9ead3e	-0.07747887
246	0xbd56b3dc	-0.05241762
247	0x3d8daf02	0.06918146
248	0x3dc62d58	0.096766174
249	0xbda601b4	-0.081057936
250	0x3d7c10f4	0.061539605
251	0x3da91fb8	0.08258003
252	0x3cc5f2c0	0.024163604
253	0x3dc4ed64	0.09615591
254	0xbcb2f97c	-0.021847479
255	0x3db3a324	0.08771351

conv2.bias f4 [32]
0	0x3d0900b0	0.03344792
1	0xbd6f2b52	-0.058390923
2	0x3bbf10c0	0.005830854
3	0x3d83dea6	0.06438951
4	0xbd13892c	-0.03601949
5	0xbd79299c	-0.060830697
6	0x3dc23686	0.09483056
7	0xbd224058	-0.039612144
8	0x3d82f8f6	0.06395142
9	0xbc43aa20	-0.011942416
10	0xbc85a26c	-0.0163128
11	0xbd681f5c	-0.05667053
12	0xbd28a4bb	-0.041172724
13	0x3d8fa424	0.07013729
14	0x3d492774	0.04910989
15	0x3ba7a1f0	0.00511574
16	0x3da9d9c4	0.082934886
17	0xbc24f838	-0.010068946
18	0xbdb0f0c0	-0.086396694
19	0x3dcecd46	0.100977466
20	0xbd85476c	-0.06507763
21	0x3d5a6550	0.053319275
22	0xbdadb814	-0.08482376
23	0x3ceaaea0	0.02864772
24	0x3d5137a8	0.05107847
25	0x3c895a18	0.016766593
26	0x3bf18a00	0.007371187
27	0x3d305070	0.04304546
28	0xbd1bf4b2	-0.038075157
29	0x3d7ab834	0.061210826
30	0xbc63f2b8	-0.013912849
31	0x3d2cbeb8	0.04217407

fc.weight f4 [3, 32]
0	0xbddf4c8b	-0.10903271
1	0x3e27c421	0.16383411
2	0xbe2c1176	-0.16803536
3	0x3d830872	0.06398095
4	0xbd9c1bc6	-0.07622485
5	0xbc21f960	-0.009886116
6	0x3a404a00	0.00073352456
7	0x3c3482d0	0.011017516
8	0xbc9f2d08	-0.019430652
9	0xbda56e5f	-0.08077692
10	0xbd0c1298	-0.03419742
11	0xbe00f9d0	-0.12595296
12	0xbca05ea0	-0.01957637
13	0x3d68c0f4	0.05682464
14	0x3dcc8f6e	0.099882945
15	0x3d78bd54	0.060727432
16	0x3d94ba82	0.07262136
17	0x3d0e3cf8	0.034726113
18	0xbe1ce8dd	-0.15323205
19	0x3d9235ac	0.07139143
20	0xbe333026	-0.17498836
21	0xbdbb5393	-0.091468
22	0x3e34f76b	0.17672507
23	0x3c089f40	0.008338749
24	0xbe1844a8	-0.1486994
25	0xbdc413c6	-0.09574084
26	0x3ca85778	0.02054952
27	0x3d82e254	0.06390825
28	0x3cdb0d40	0.026739717
29	0x3cbcef90	0.023063451
30	0xbe0f57d9	-0.13998355
31	0x3e1ee523	0.15517096
32	0xbd348aa0	-0.044077516
33	0x3df8082e	0.12110935
34	0xbe10acce	-0.1412842
35	0xbdb55cff	-0.08855628
36	0xbd883d1d	-0.066522814
37	0xbd17ff44	-0.037108675
38	0xbda824df	-0.082101576
39	0x3def44ca	0.11683042
40	0xbe001d84	-0.1251126
41	0x3dd4ac12	0.10384382
42	0xbce8c800	-0.02841568
43	0xbdaa6d1e	-0.08321594
44	0xbd1442c4	-0.036196485
45	0x3dd8effe	0.1059265
46	0xbda4b3f3	-0.08042135
47	0x3e0ca899	0.1373619
48	0xbd9ab3e1	-0.075538404
49	0xbe1eb268	-0.15497744
50	0x3deaf8ee	0.11473261
51	0xbd62bc30	-0.05535525
52	0xbcffd020	-0.031227171
53	0xbdd2ad28	-0.10286933
54	0xbdcfc435	-0.101448454
55	0xbe33c24e	-0.1755459
56	0x3e0cbdcd	0.13744278
57	0xbbad61c0	-0.0052911937
58	0x3d12c040	0.035827875
59	0x3dbca3c6	0.09210925
60	0xbd4f942c	-0.050678417
61	0xbcf913d8	-0.03040497
62	0x3d427e1c	0.04748355
63	0x3db22be2	0.08699776
64	0x3d63097c	0.055428967
65	0x3e1f39a7	0.15549336
66	0xbdc1c376	-0.09461109
67	0x3ce98a48	0.02850832
68	0x3d5c9434	0.053852275
69	0x3e2571f5	0.16156752
70	0x3d8d5206	0.0690041
71	0x3e17310f	0.14764808
72	0x3e0be3f3	0.13661174
73	0x3c7c69e0	0.015406102
74	0xbe186fae	-0.14886352
75	0x3d89385e	0.06700204
76	0x3d5592dc	0.05214201
77	0x3e1045d3	0.14089136
78	0xbc9c9df8	-0.019118294
79	0xbda924c7	-0.08258968
80	0x3da927a2	0.082595125
81	0x3d6d62fc	0.057955727
82	0x3c9239e0	0.017849863
83	0xbe1e43d6	-0.15455565
84	0xbcc902d8	-0.024537489
85	0xbd473694	-0.048636034
86	0x3e036515	0.12831528
87	0xbe12cf9c	-0.14337009
88	0x3d9a0466	0.0752037
89	0x3e0cc461	0.13746788
90	0xbdb0a0f0	-0.086244464
91	0x3e04f05f	0.1298232
92	0x3dea2e5a	0.11434622
93	0xbc493960	-0.012281746
94	0xbd486f94	-0.048934534
95	0xbda8ed6a	-0.08248408

fc.bias f4 [3]
0	0xbca3cd10	-0.019995242
1	0x3e0837a3	0.13302474
2	0x3e0c7915	0.13718064
